assist_satellite/wakewords/alexa.tflite (tflite, 55856 bytes, 16 tensors)

model_1/dense_1/MatMul i1 [1, 320] scale=0.0039509474 zero_point=0
000000 19 d8 00 25 e2 a1 f8 cf 96 ed aa ff da bf de c0
       0.09877369 -0.1580379 0.0 0.14618506 -0.118528426 -0.37534 -0.03160758 -0.19359642 -0.4188004 -0.075068004 -0.3397815 -0.0039509474 -0.15013601 -0.2568116 -0.13433221 -0.25286064
000010 1f 18 cb 04 d0 2c 36 e7 cc da b7 f0 fa d6 f7 e8
       0.12247937 0.094822735 -0.2094002 0.01580379 -0.18964547 0.17384169 0.21335116 -0.09877369 -0.20544927 -0.15013601 -0.28841916 -0.06321516 -0.023705684 -0.1659398 -0.035558525 -0.094822735
000020 f7 af 0c fd ea bd 38 c8 e1 20 f3 f1 02 cd 2c 1f
       -0.035558525 -0.32002676 0.047411367 -0.011852842 -0.08692084 -0.26471347 0.22125305 -0.22125305 -0.12247937 0.12643032 -0.051362317 -0.059264213 0.007901895 -0.20149831 0.17384169 0.12247937
000030 9d 03 13 dc fb ba 16 f2 d1 d2 af ec d6 ae d9 01
       -0.3911438 0.011852842 0.075068004 -0.1422341 -0.019754738 -0.27656633 0.08692084 -0.055313263 -0.18569453 -0.18174358 -0.32002676 -0.07901895 -0.1659398 -0.32397768 -0.15408695 0.0039509474
000040 04 e1 ef 18 1e 05 f1 cf d5 f8 01 02 d5 05 d8 bb
       0.01580379 -0.12247937 -0.067166105 0.094822735 0.118528426 0.019754738 -0.059264213 -0.19359642 -0.16989075 -0.03160758 0.0039509474 0.007901895 -0.16989075 0.019754738 -0.1580379 -0.27261537
000050 04 15 00 26 f8 0d 18 de dc 12 e6 07 01 e0 e6 e6
       0.01580379 0.0829699 0.0 0.15013601 -0.03160758 0.051362317 0.094822735 -0.13433221 -0.1422341 0.07111705 -0.102724634 0.027656632 0.0039509474 -0.12643032 -0.102724634 -0.102724634
000060 d5 02 14 ec fd d6 21 f9 d6 09 f3 e1 f4 d8 1a ea
       -0.16989075 0.007901895 0.07901895 -0.07901895 -0.011852842 -0.1659398 0.13038127 -0.027656632 -0.1659398 0.035558525 -0.051362317 -0.12247937 -0.047411367 -0.1580379 0.102724634 -0.08692084
000070 fd 14 1a eb dc d3 e2 03 dd dc d0 cd 10 ea e0 d3
       -0.011852842 0.07901895 0.102724634 -0.0829699 -0.1422341 -0.17779264 -0.118528426 0.011852842 -0.13828316 -0.1422341 -0.18964547 -0.20149831 0.06321516 -0.08692084 -0.12643032 -0.17779264
000080 0b 10 f8 34 f6 f0 f2 e3 04 ee e1 d9 0d e3 ea 0c
       0.04346042 0.06321516 -0.03160758 0.20544927 -0.039509475 -0.06321516 -0.055313263 -0.11457747 0.01580379 -0.07111705 -0.12247937 -0.15408695 0.051362317 -0.11457747 -0.08692084 0.047411367
000090 f8 f9 16 28 e4 10 f1 fe 04 ec ca 06 e0 e5 e2 d7
       -0.03160758 -0.027656632 0.08692084 0.1580379 -0.110626526 0.06321516 -0.059264213 -0.007901895 0.01580379 -0.07901895 -0.21335116 0.023705684 -0.12643032 -0.10667558 -0.118528426 -0.16198884
0000a0 02 de 01 00 fb e8 22 fa ec 0a e7 e2 f9 04 1f 14
       0.007901895 -0.13433221 0.0039509474 0.0 -0.019754738 -0.094822735 0.13433221 -0.023705684 -0.07901895 0.039509475 -0.09877369 -0.118528426 -0.027656632 0.01580379 0.12247937 0.07901895
0000b0 f0 22 f7 02 ed f4 09 0d 12 18 db f5 eb ed ee 0c
       -0.06321516 0.13433221 -0.035558525 0.007901895 -0.075068004 -0.047411367 0.035558525 0.051362317 0.07111705 0.094822735 -0.14618506 -0.04346042 -0.0829699 -0.075068004 -0.07111705 0.047411367
0000c0 fb 19 0d 17 03 d7 e0 a3 eb f6 e4 d8 08 eb e2 f7
       -0.019754738 0.09877369 0.051362317 0.09087179 0.011852842 -0.16198884 -0.12643032 -0.3674381 -0.0829699 -0.039509475 -0.110626526 -0.1580379 0.03160758 -0.0829699 -0.118528426 -0.035558525
0000d0 e7 14 d8 1a 0a e4 0d 04 c6 d2 e6 0e ee d8 e1 e1
       -0.09877369 0.07901895 -0.1580379 0.102724634 0.039509475 -0.110626526 0.051362317 0.01580379 -0.22915494 -0.18174358 -0.102724634 0.055313263 -0.07111705 -0.1580379 -0.12247937 -0.12247937
0000e0 d5 0e 03 fb e8 d2 1b ca e5 e1 ee f5 e0 f6 0a d9
       -0.16989075 0.055313263 0.011852842 -0.019754738 -0.094822735 -0.18174358 0.10667558 -0.21335116 -0.10667558 -0.12247937 -0.07111705 -0.04346042 -0.12643032 -0.039509475 0.039509475 -0.15408695
0000f0 fb f2 17 0b dd e6 ee 0d 10 f1 c7 d4 05 df d0 d5
       -0.019754738 -0.055313263 0.09087179 0.04346042 -0.13828316 -0.102724634 -0.07111705 0.051362317 0.06321516 -0.059264213 -0.225204 -0.17384169 0.019754738 -0.13038127 -0.18964547 -0.16989075

model_1/conv2d_9/Conv2D i1 [64, 1, 1, 64]
000000 69 00 ea fe da 05 ce da bb ed 20 42 68 19 b2 d1
       105 0 -22 -2 -38 5 -50 -38 -69 -19 32 66 104 25 -78 -47
000010 0f 38 fd 0a 29 f8 12 0d 1c c2 a1 29 2b 14 fc 00
       15 56 -3 10 41 -8 18 13 28 -62 -95 41 43 20 -4 0
000020 09 38 3b d2 09 4d f9 23 14 cd e5 04 22 d0 22 ce
       9 56 59 -46 9 77 -7 35 20 -51 -27 4 34 -48 34 -50
000030 f8 62 f7 35 22 5d c7 81 0d 2c 4b 32 61 f2 de 04
       -8 98 -9 53 34 93 -57 -127 13 44 75 50 97 -14 -34 4
000040 06 cb b5 3d 45 2a 0d f0 03 49 0f 01 e7 c5 ed 04
       6 -53 -75 61 69 42 13 -16 3 73 15 1 -25 -59 -19 4
000050 fe ca 01 63 dc 0b 15 14 4e 3a fa fb 4f ef f1 1e
       -2 -54 1 99 -36 11 21 20 78 58 -6 -5 79 -17 -15 30
000060 30 0b e0 ed d5 7f fd 4d 49 e3 31 37 f2 08 18 ec
       48 11 -32 -19 -43 127 -3 77 73 -29 49 55 -14 8 24 -20
000070 01 19 1e b4 da 00 11 18 07 a4 fa 28 eb 25 d3 d8
       1 25 30 -76 -38 0 17 24 7 -92 -6 40 -21 37 -45 -40
000080 ef 39 4b ea 6d f2 7f 2d e0 d4 09 f1 20 40 ec f6
       -17 57 75 -22 109 -14 127 45 -32 -44 9 -15 32 64 -20 -10
000090 2e c8 e1 21 f4 06 f6 09 1b d9 fb 07 fe 30 20 f2
       46 -56 -31 33 -12 6 -10 9 27 -39 -5 7 -2 48 32 -14
0000a0 f7 2d d1 bb 16 14 42 0b ef b5 ad fc 01 5b 44 e1
       -9 45 -47 -69 22 20 66 11 -17 -75 -83 -4 1 91 68 -31
0000b0 1a 0a 0e 00 c0 d0 cb cc 6b 4e dc f4 37 c0 54 2e
       26 10 14 0 -64 -48 -53 -52 107 78 -36 -12 55 -64 84 46
0000c0 fd eb ec e1 f2 fe 10 d6 19 d8 ee ff a7 e6 f8 02
       -3 -21 -20 -31 -14 -2 16 -42 25 -40 -18 -1 -89 -26 -8 2
0000d0 18 08 0e a8 52 4c 18 e0 e4 d9 38 cb 81 3e ee e1
       24 8 14 -88 82 76 24 -32 -28 -39 56 -53 -127 62 -18 -31
0000e0 db ba ec 09 d5 d0 17 fe ff 30 43 b4 fb ec f7 14
       -37 -70 -20 9 -43 -48 23 -2 -1 48 67 -76 -5 -20 -9 20
0000f0 00 ed f0 d1 4a dd f0 1a d2 03 db 2c 24 fc df 0e
       0 -19 -16 -47 74 -35 -16 26 -46 3 -37 44 36 -4 -33 14

model_1/depthwise_conv2d_7/depthwise i1 [1, 21, 1, 64]
000000 7f 67 81 7f 2e aa 97 1e fb 36 1b 7f 1c fb 81 3b
       127 103 -127 127 46 -86 -105 30 -5 54 27 127 28 -5 -127 59
000010 96 81 3b f7 5f 4e 81 81 e0 60 09 7f d6 b6 1e 43
       -106 -127 59 -9 95 78 -127 -127 -32 96 9 127 -42 -74 30 67
000020 82 c4 81 81 02 e3 47 af ce e1 ad 62 51 89 10 c7
       -126 -60 -127 -127 2 -29 71 -81 -50 -31 -83 98 81 -119 16 -57
000030 a4 fb 6c e8 b6 b3 7f f6 04 81 07 03 26 7f 87 90
       -92 -5 108 -24 -74 -77 127 -10 4 -127 7 3 38 127 -121 -112
000040 73 1b ac 48 1e c8 dd 09 e3 45 06 5d 1a 03 c4 5d
       115 27 -84 72 30 -56 -35 9 -29 69 6 93 26 3 -60 93
000050 be c7 1e ee 6f 37 d1 ce d9 38 0c 55 df 1a 37 e7
       -66 -57 30 -18 111 55 -47 -50 -39 56 12 85 -33 26 55 -25
000060 98 ea a8 c9 d5 e9 40 c8 cf 26 d1 44 6f d5 1a a0
       -104 -22 -88 -55 -43 -23 64 -56 -49 38 -47 68 111 -43 26 -96
000070 d2 f3 45 f5 9a 81 72 ff e6 8b fe d2 12 45 a4 0e
       -46 -13 69 -11 -102 -127 114 -1 -26 -117 -2 -46 18 69 -92 14
000080 19 26 d6 28 34 c2 db d3 c5 6a f9 13 0c f5 00 62
       25 38 -42 40 52 -62 -37 -45 -59 106 -7 19 12 -11 0 98
000090 0f d4 4b e7 3f 18 f3 01 f5 00 0b 54 e0 37 45 e3
       15 -44 75 -25 63 24 -13 1 -11 0 11 84 -32 55 69 -29
0000a0 ba fb a9 35 31 f1 26 e3 04 07 f7 0c 41 d7 f5 81
       -70 -5 -87 53 49 -15 38 -29 4 7 -9 12 65 -41 -11 -127
0000b0 f3 fd 38 de ae 9c 47 f0 d4 a1 29 f4 13 4a c4 49
       -13 -3 56 -34 -82 -100 71 -16 -44 -95 41 -12 19 74 -60 73
0000c0 db 13 d5 19 0e e0 df 08 c4 7f 26 0a 09 e2 f2 7f
       -37 19 -43 25 14 -32 -33 8 -60 127 38 10 9 -30 -14 127
0000d0 e7 e8 55 d6 1a 13 19 11 e9 04 1f 58 e4 4e 34 11
       -25 -24 85 -42 26 19 25 17 -23 4 31 88 -28 78 52 17
0000e0 db ef 9c 36 27 f5 0f f7 f7 33 0d 1c 20 b4 df 8a
       -37 -17 -100 54 39 -11 15 -9 -9 51 13 28 32 -76 -33 -118
0000f0 47 e5 0c ed af 8d 08 ef e8 ee 25 fb 16 22 d3 7f
       71 -27 12 -19 -81 -115 8 -17 -24 -18 37 -5 22 34 -45 127

model_1/conv2d_8/Conv2D i1 [64, 1, 1, 64]
000000 5d b2 92 e8 01 de 2e ed bf ff 49 10 4c 03 57 e3
       93 -78 -110 -24 1 -34 46 -19 -65 -1 73 16 76 3 87 -29
000010 0f f6 3e 21 18 30 d8 be 05 e0 f1 fa 41 00 5d d0
       15 -10 62 33 24 48 -40 -66 5 -32 -15 -6 65 0 93 -48
000020 f9 1e 0d 7f 3f 06 c9 09 ed ac 1d 51 dd d9 fa e7
       -7 30 13 127 63 6 -55 9 -19 -84 29 81 -35 -39 -6 -25
000030 0b 16 d3 4b de 1f 14 7e dc 91 20 f1 ea 01 39 f1
       11 22 -45 75 -34 31 20 126 -36 -111 32 -15 -22 1 57 -15
000040 f6 7b ee de 01 a9 d1 21 e1 eb 35 fa 81 b1 fe cf
       -10 123 -18 -34 1 -87 -47 33 -31 -21 53 -6 -127 -79 -2 -49
000050 52 69 dc 20 dd de 9b ee d6 f9 f8 ed ec ec 4f 46
       82 105 -36 32 -35 -34 -101 -18 -42 -7 -8 -19 -20 -20 79 70
000060 fe 2a ef c9 d5 dc de 06 44 0c 12 19 fc 1d d0 13
       -2 42 -17 -55 -43 -36 -34 6 68 12 18 25 -4 29 -48 19
000070 ed f9 f9 07 2e a5 3a 0d f5 1a 49 38 f0 c9 31 32
       -19 -7 -7 7 46 -91 58 13 -11 26 73 56 -16 -55 49 50
000080 ec 26 4a 35 7f dd bc b5 19 e3 e0 42 22 ca c7 26
       -20 38 74 53 127 -35 -68 -75 25 -29 -32 66 34 -54 -57 38
000090 1a 14 28 14 22 ca 48 d9 38 b1 ee e9 dc d0 f3 0e
       26 20 40 20 34 -54 72 -39 56 -79 -18 -23 -36 -48 -13 14
0000a0 d1 e9 05 ee eb 2e ab df a4 6c 0d 38 06 c8 b7 d9
       -47 -23 5 -18 -21 46 -85 -33 -92 108 13 56 6 -56 -73 -39
0000b0 43 08 30 fc 47 1e 28 1b 5b 04 ad dd 58 f6 97 ab
       67 8 48 -4 71 30 40 27 91 4 -83 -35 88 -10 -105 -85
0000c0 c0 01 82 ec 2e 20 e3 1c 18 11 14 03 35 54 30 d0
       -64 1 -126 -20 46 32 -29 28 24 17 20 3 53 84 48 -48
0000d0 ee b1 fe 1f cf bf e3 4e 06 fd d5 27 d9 e3 ff d4
       -18 -79 -2 31 -49 -65 -29 78 6 -3 -43 39 -39 -29 -1 -44
0000e0 bc f9 fd 3c fa f1 03 47 a0 3e 3b 3c 81 19 eb e2
       -68 -7 -3 60 -6 -15 3 71 -96 62 59 60 -127 25 -21 -30
0000f0 e7 13 0e fc da 24 26 7d 17 bd 41 d7 2e 0d 0c e5
       -25 19 14 -4 -38 36 38 125 23 -67 65 -41 46 13 12 -27

model_1/depthwise_conv2d_6/depthwise i1 [1, 13, 1, 64]
000000 10 f6 81 81 ce a2 27 d2 6c 0b 04 05 3d 81 f7 c3
       16 -10 -127 -127 -50 -94 39 -46 108 11 4 5 61 -127 -9 -61
000010 8c 58 7f f4 b5 81 f2 81 25 29 98 34 70 81 d0 8a
       -116 88 127 -12 -75 -127 -14 -127 37 41 -104 52 112 -127 -48 -118
000020 1f 56 2b 7f f0 60 fd a3 cf d3 c2 e9 7f 7f b9 28
       31 86 43 127 -16 96 -3 -93 -49 -45 -62 -23 127 127 -71 40
000030 fa 28 dc 00 7f e7 bc 81 ea 07 bf 08 d4 20 7f f4
       -6 40 -36 0 127 -25 -68 -127 -22 7 -65 8 -44 32 127 -12
000040 01 f9 bf dd a7 c0 09 d4 f8 0f 06 f4 2f a5 ed c5
       1 -7 -65 -35 -89 -64 9 -44 -8 15 6 -12 47 -91 -19 -59
000050 05 06 55 01 a4 b9 34 9f b1 23 c1 08 7f 90 e4 94
       5 6 85 1 -92 -71 52 -97 -79 35 -63 8 127 -112 -28 -108
000060 15 0b 16 27 f7 14 0f 97 d9 92 cf e8 59 72 ea 7f
       21 11 22 39 -9 20 15 -105 -39 -110 -49 -24 89 114 -22 127
000070 0b 03 d6 26 7f fc f6 ad fc 44 b3 ef c8 0b 6d de
       11 3 -42 38 127 -4 -10 -83 -4 68 -77 -17 -56 11 109 -34
000080 f6 fd d6 ae a4 ae 0c ab d9 fa d5 e5 30 f3 f5 04
       -10 -3 -42 -82 -92 -82 12 -85 -39 -6 -43 -27 48 -13 -11 4
000090 de 13 28 e4 e6 ce 43 be 26 2a d5 f6 67 ba b2 81
       -34 19 40 -28 -26 -50 67 -66 38 42 -43 -10 103 -70 -78 -127
0000a0 ef 1d 3a 12 0c ff 01 8e 1f c6 d3 f2 1a 0d da 60
       -17 29 58 18 12 -1 1 -114 31 -58 -45 -14 26 13 -38 96
0000b0 09 fc 8f 25 53 e6 f3 d1 ed 66 b7 0d e1 1b 6f 0b
       9 -4 -113 37 83 -26 -13 -47 -19 102 -73 13 -31 27 111 11
0000c0 4a 07 ea d4 c0 df f1 bc 3e f1 15 f2 35 e9 fb 28
       74 7 -22 -44 -64 -33 -15 -68 62 -15 21 -14 53 -23 -5 40
0000d0 00 cd 1f dd 8f e7 46 2c e9 28 9d de 34 d9 e1 c9
       0 -51 31 -35 -113 -25 70 44 -23 40 -99 -34 52 -39 -31 -55
0000e0 ee 05 45 2d 14 e4 17 c4 e5 a6 ec 12 0c 2b ed ec
       -18 5 69 45 20 -28 23 -60 -27 -90 -20 18 12 43 -19 -20
0000f0 0d de c4 9f 21 ce e6 01 0c 36 d2 19 a1 04 4f 4f
       13 -34 -60 -97 33 -50 -26 1 12 54 -46 25 -95 4 79 79

model_1/conv2d_7/Conv2D i1 [64, 1, 1, 64]
000000 f7 de 55 c7 d2 3b 1a 93 0b e3 17 c2 7f 17 9c e1
       -9 -34 85 -57 -46 59 26 -109 11 -29 23 -62 127 23 -100 -31
000010 d2 0c 0d 3d 27 8c e7 d8 17 e2 ee 29 3a f3 bb 3c
       -46 12 13 61 39 -116 -25 -40 23 -30 -18 41 58 -13 -69 60
000020 38 0f cd 0f 09 fa 01 42 aa bf 0f 09 25 45 de 11
       56 15 -51 15 9 -6 1 66 -86 -65 15 9 37 69 -34 17
000030 18 01 c3 09 f6 1a 4e 54 e3 1c f9 df 40 0e 5a 5e
       24 1 -61 9 -10 26 78 84 -29 28 -7 -33 64 14 90 94
000040 16 17 31 0e d1 09 2b 59 2e 34 f5 02 01 da 31 44
       22 23 49 14 -47 9 43 89 46 52 -11 2 1 -38 49 68
000050 7f 0b 23 25 f8 00 bd e1 d9 4c 0a 57 06 99 0a af
       127 11 35 37 -8 0 -67 -31 -39 76 10 87 6 -103 10 -81
000060 e2 d0 e5 bf b3 e8 fa 25 ff f0 27 f2 c0 fa d4 e1
       -30 -48 -27 -65 -77 -24 -6 37 -1 -16 39 -14 -64 -6 -44 -31
000070 30 42 07 02 36 12 3d 0c e8 a9 67 b3 e1 0c 34 f6
       48 66 7 2 54 18 61 12 -24 -87 103 -77 -31 12 52 -10
000080 db 9f 25 16 4f c5 24 c5 cd f8 33 ef 0f 16 02 fe
       -37 -97 37 22 79 -59 36 -59 -51 -8 51 -17 15 22 2 -2
000090 e0 d8 f2 db 13 e1 2e 5f 76 1f e9 e3 25 e0 03 2c
       -32 -40 -14 -37 19 -31 46 95 118 31 -23 -29 37 -32 3 44
0000a0 e0 05 d5 ed 40 0b e2 2a 10 f3 08 4b 41 cf e6 2a
       -32 5 -43 -19 64 11 -30 42 16 -13 8 75 65 -49 -26 42
0000b0 81 c8 ff 3d f6 1c 12 12 2f 21 02 21 e4 09 d9 34
       -127 -56 -1 61 -10 28 18 18 47 33 2 33 -28 9 -39 52
0000c0 f3 48 ca 1d 1f f0 cd e2 bf 2f da 51 d0 d9 3d 67
       -13 72 -54 29 31 -16 -51 -30 -65 47 -38 81 -48 -39 61 103
0000d0 e8 27 09 19 f2 9c 00 23 27 6c 40 41 fe 01 f9 3d
       -24 39 9 25 -14 -100 0 35 39 108 64 65 -2 1 -7 61
0000e0 ad eb f3 a1 b6 05 ec 20 11 d3 2f 28 0c 2c 05 f3
       -83 -21 -13 -95 -74 5 -20 32 17 -45 47 40 12 44 5 -13
0000f0 f3 f9 7f 09 d0 dc fa 0d 22 c6 3b 02 ef 5e 35 06
       -13 -7 127 9 -48 -36 -6 13 34 -58 59 2 -17 94 53 6

model_1/depthwise_conv2d_5/depthwise i1 [1, 9, 1, 64]
000000 de 97 03 40 21 e5 09 da 81 75 5b 1e 07 99 55 81
       -34 -105 3 64 33 -27 9 -38 -127 117 91 30 7 -103 85 -127
000010 f7 2d a9 e7 03 a8 e9 7f 1f f4 c2 00 0c 2b 7f f1
       -9 45 -87 -25 3 -88 -23 127 31 -12 -62 0 12 43 127 -15
000020 7f ff d9 39 90 d2 e1 05 7f be 3b 7f eb 02 03 23
       127 -1 -39 57 -112 -46 -31 5 127 -66 59 127 -21 2 3 35
000030 81 17 38 4d 81 13 71 41 be 15 93 81 7f e1 ed b5
       -127 23 56 77 -127 19 113 65 -66 21 -109 -127 127 -31 -19 -75
000040 d1 9c f0 6d 26 da 2b c0 c0 d8 76 3b 52 a2 42 a2
       -47 -100 -16 109 38 -38 43 -64 -64 -40 118 59 82 -94 66 -94
000050 03 7f dc 9f 76 8b fe 3a 3a 0a 1d 08 21 2c 39 00
       3 127 -36 -97 118 -117 -2 58 58 10 29 8 33 44 57 0
000060 5e 27 12 6d d2 42 19 b7 23 bf 7f 68 81 d8 22 38
       94 39 18 109 -46 66 25 -73 35 -65 127 104 -127 -40 34 56
000070 ac eb 3c 3f e7 4d e0 fb 8b ff d6 cb 50 c1 2f f3
       -84 -21 60 63 -25 77 -32 -5 -117 -1 -42 -53 80 -63 47 -13
000080 fa d1 d5 11 07 d5 5a d3 08 ec 6d 0b 42 81 3b c5
       -6 -47 -43 17 7 -43 90 -45 8 -20 109 11 66 -127 59 -59
000090 ee 3c e1 03 14 81 02 29 67 fd 08 c8 44 d2 3d 12
       -18 60 -31 3 20 -127 2 41 103 -3 8 -56 68 -46 61 18
0000a0 3a 15 10 7f 35 48 ee cf 5a 50 2e 41 91 1b 0b 7f
       58 21 16 127 53 72 -18 -49 90 80 46 65 -111 27 11 127
0000b0 d0 d8 e0 f0 e2 6f 81 94 9d e3 1a bd 57 c8 3e 25
       -48 -40 -32 -16 -30 111 -127 -108 -99 -29 26 -67 87 -56 62 37
0000c0 02 c5 ee c6 f0 e8 0d 1e dc 9a 56 7f 7f f5 23 e4
       2 -59 -18 -58 -16 -24 13 30 -36 -102 86 127 127 -11 35 -28
0000d0 0c d2 6a 7f ab 93 ee d5 7f f2 45 b0 41 2f 45 fb
       12 -46 106 127 -85 -109 -18 -43 127 -14 69 -80 65 47 69 -5
0000e0 0b 22 34 50 5b 22 ce f4 3b 7f e5 54 db fe 36 5f
       11 34 52 80 91 34 -50 -12 59 127 -27 84 -37 -2 54 95
0000f0 e6 05 d4 1f f1 43 35 81 93 14 f3 6a 2b e7 1b 2f
       -26 5 -44 31 -15 67 53 -127 -109 20 -13 106 43 -25 27 47

model_1/conv2d_6/Conv2D i1 [64, 1, 1, 32]
000000 1d 08 e9 46 de db 2d d1 e3 dd 11 28 a3 0e 81 f9
       29 8 -23 70 -34 -37 45 -47 -29 -35 17 40 -93 14 -127 -7
000010 d3 de 70 40 10 0c fa 1c 45 f6 c7 c9 2c e7 6f 1a
       -45 -34 112 64 16 12 -6 28 69 -10 -57 -55 44 -25 111 26
000020 06 e4 df 89 13 c2 0c 56 ce f0 01 ec f5 ea 33 7f
       6 -28 -33 -119 19 -62 12 86 -50 -16 1 -20 -11 -22 51 127
000030 e8 de ed c8 eb ca ee ce f5 dc 2a d1 3d 04 f8 a3
       -24 -34 -19 -56 -21 -54 -18 -50 -11 -36 42 -47 61 4 -8 -93
000040 26 d2 f5 ec 34 e1 e6 f6 23 e5 00 0b 4f 22 f1 19
       38 -46 -11 -20 52 -31 -26 -10 35 -27 0 11 79 34 -15 25
000050 f4 0a 0c e6 c8 25 01 ee 0c d7 03 7f 96 e6 1b 12
       -12 10 12 -26 -56 37 1 -18 12 -41 3 127 -106 -26 27 18
000060 dc 2b 7f 44 0b 2d ce 9c 37 29 c1 22 d3 2b 07 d5
       -36 43 127 68 11 45 -50 -100 55 41 -63 34 -45 43 7 -43
000070 35 fd 3b ef cb 93 72 09 03 de 11 fe 1d d3 0c 9e
       53 -3 59 -17 -53 -109 114 9 3 -34 17 -2 29 -45 12 -98
000080 ed 81 b7 bf 06 ee 28 ad f7 19 33 b9 d4 e4 63 65
       -19 -127 -73 -65 6 -18 40 -83 -9 25 51 -71 -44 -28 99 101
000090 43 01 cf 8f f7 a5 21 3c a2 f1 50 0b 48 39 4d d4
       67 1 -49 -113 -9 -91 33 60 -94 -15 80 11 72 57 77 -44
0000a0 c6 24 39 21 21 cc 89 6f b4 17 14 fb 07 04 fc f0
       -58 36 57 33 33 -52 -119 111 -76 23 20 -5 7 4 -4 -16
0000b0 fa 23 0a f3 22 a2 3d bd cd 4f bb 3f b9 5e 7f 87
       -6 35 10 -13 34 -94 61 -67 -51 79 -69 63 -71 94 127 -121
0000c0 1f 1b f9 04 d2 0e 05 45 f3 1c 3c f5 e1 75 24 b8
       31 27 -7 4 -46 14 5 69 -13 28 60 -11 -31 117 36 -72
0000d0 e7 bd af 39 16 76 ce 0d ce fa 7f d2 85 5a 02 f1
       -25 -67 -81 57 22 118 -50 13 -50 -6 127 -46 -123 90 2 -15
0000e0 a9 98 a8 34 e7 d6 f0 d8 df 26 10 c8 ed 02 23 fa
       -87 -104 -88 52 -25 -42 -16 -40 -33 38 16 -56 -19 2 35 -6
0000f0 0b d5 7c cb ef 21 ec 7f b9 d7 c1 1c 39 15 fb 5c
       11 -43 124 -53 -17 33 -20 127 -71 -41 -63 28 57 21 -5 92

model_1/depthwise_conv2d_4/depthwise1 i1 [1, 5, 1, 32]
000000 d8 f0 b1 7f 92 cf 48 ba 6b 53 7f 81 cc 6c 23 b5
       -40 -16 -79 127 -110 -49 72 -70 107 83 127 -127 -52 108 35 -75
000010 ca b8 a3 77 f8 f4 f8 7f 7f 37 2d e7 2f df fb 29
       -54 -72 -93 119 -8 -12 -8 127 127 55 45 -25 47 -33 -5 41
000020 81 02 12 ce 47 3b 7f 9f 4d fc 39 06 81 03 ce 76
       -127 2 18 -50 71 59 127 -97 77 -4 57 6 -127 3 -50 118
000030 a0 32 59 81 bf 29 a1 70 41 27 2a 0a fd d7 99 3d
       -96 50 89 -127 -65 41 -95 112 65 39 42 10 -3 -41 -103 61
000040 58 9b 7f 95 7f 7f 74 a7 7f ad 9f 36 cd 81 3f 7f
       88 -101 127 -107 127 127 116 -89 127 -83 -97 54 -51 -127 63 127
000050 cc 4a 67 ab 17 2d d4 28 f3 e3 81 f3 56 db 8a 20
       -52 74 103 -85 23 45 -44 40 -13 -29 -127 -13 86 -37 -118 32
000060 f6 06 ed a0 2d 28 4e e2 54 81 d0 71 9e b3 2d 96
       -10 6 -19 -96 45 40 78 -30 84 -127 -48 113 -98 -77 45 -106
000070 dd 1b 81 e5 7f 7f 81 6d 50 bb d7 ad 66 8e d3 9b
       -35 27 -127 -27 127 127 -127 109 80 -69 -41 -83 102 -114 -45 -101
000080 a3 7f fe 73 57 b3 45 7f 41 aa f7 29 8a f5 81 ec
       -93 127 -2 115 87 -77 69 127 65 -86 -9 41 -118 -11 -127 -20
000090 81 7f 26 03 68 62 b8 ea ef 81 53 81 7f 81 81 81
       -127 127 38 3 104 98 -72 -22 -17 -127 83 -127 127 -127 -127 -127

model_1/stream_6/conv2d_5/Conv2D i1 [32, 5, 1, 40]
000000 43 2c 16 0f fe 11 48 08 39 08 22 09 0c fd eb d8
       67 44 22 15 -2 17 72 8 57 8 34 9 12 -3 -21 -40
000010 ee fd 49 20 0c 0c 04 10 14 1c 25 04 07 ef e5 fa
       -18 -3 73 32 12 12 4 16 20 28 37 4 7 -17 -27 -6
000020 32 d7 3e fa 30 ce 12 0b 4c 45 26 12 49 2e 32 ea
       50 -41 62 -6 48 -50 18 11 76 69 38 18 73 46 50 -22
000030 19 ef 1c ef 3a 04 f2 da f6 ed 13 15 e3 e8 19 ec
       25 -17 28 -17 58 4 -14 -38 -10 -19 19 21 -29 -24 25 -20
000040 14 23 0d fa eb d1 f2 27 22 d1 05 e8 0b d8 f2 22
       20 35 13 -6 -21 -47 -14 39 34 -47 5 -24 11 -40 -14 34
000050 70 48 3e 37 48 f2 5c 0b 32 f5 fe 1c 49 0e fa 0a
       112 72 62 55 72 -14 92 11 50 -11 -2 28 73 14 -6 10
000060 f5 e6 05 29 03 03 f8 fd 11 1e 0a f7 0f e8 fa 06
       -11 -26 5 41 3 3 -8 -3 17 30 10 -9 15 -24 -6 6
000070 41 c4 12 ec 2e ad 07 17 6f 34 2a 16 37 f1 32 04
       65 -60 18 -20 46 -83 7 23 111 52 42 22 55 -15 50 4
000080 1a f0 f7 13 35 08 08 0b 0b 02 08 14 0b fe e1 e7
       26 -16 -9 19 53 8 8 11 11 2 8 20 11 -2 -31 -25
000090 03 22 e7 db 0d db df 13 1d eb 22 28 36 b7 0f 45
       3 34 -25 -37 13 -37 -33 19 29 -21 34 40 54 -73 15 69
0000a0 7f 0e 10 0c 1d 1d 54 fc 17 fd 14 04 32 0c 2d 0e
       127 14 16 12 29 29 84 -4 23 -3 20 4 50 12 45 14
0000b0 1b ec 21 06 dc fd d2 0f 0f 21 fd 06 02 01 e6 fc
       27 -20 33 6 -36 -3 -46 15 15 33 -3 6 2 1 -26 -4
0000c0 21 cb 22 1e 2f d9 2d 4e 04 1c 35 58 20 ed fa f8
       33 -53 34 30 47 -39 45 78 4 28 53 88 32 -19 -6 -8
0000d0 e9 13 29 40 05 06 ee ee 09 ff 19 17 3e 0e 0e 26
       -23 19 41 64 5 6 -18 -18 9 -1 25 23 62 14 14 38
0000e0 02 e7 26 1c 3c 4d 00 0b 18 45 27 5b 11 6d 25 57
       2 -25 38 28 60 77 0 11 24 69 39 91 17 109 37 87
0000f0 41 4e 3f 3f 4f 35 24 41 ff 1e 1b e3 01 f6 13 fd
       65 78 63 63 79 53 36 65 -1 30 27 -29 1 -10 19 -3

tfl.pseudo_qconst i1 [1, 12, 1, 64] scale=0.035538685 zero_point=-128
000000 80 80 80 80 80 80 80 80 80 80 80 80 80 80 80 80
       0.0 0.0 0.0 0.0 0.0 0.0 0.0 0.0 0.0 0.0 0.0 0.0 0.0 0.0 0.0 0.0
000010 80 80 80 80 80 80 80 80 80 80 80 80 80 80 80 80
       0.0 0.0 0.0 0.0 0.0 0.0 0.0 0.0 0.0 0.0 0.0 0.0 0.0 0.0 0.0 0.0
000020 80 80 80 80 80 80 80 80 80 80 80 80 80 80 80 80
       0.0 0.0 0.0 0.0 0.0 0.0 0.0 0.0 0.0 0.0 0.0 0.0 0.0 0.0 0.0 0.0
000030 80 80 80 80 80 80 80 80 80 80 80 80 80 80 80 80
       0.0 0.0 0.0 0.0 0.0 0.0 0.0 0.0 0.0 0.0 0.0 0.0 0.0 0.0 0.0 0.0
000040 80 80 80 80 80 80 80 80 80 80 80 80 80 80 80 80
       0.0 0.0 0.0 0.0 0.0 0.0 0.0 0.0 0.0 0.0 0.0 0.0 0.0 0.0 0.0 0.0
000050 80 80 80 80 80 80 80 80 80 80 80 80 80 80 80 80
       0.0 0.0 0.0 0.0 0.0 0.0 0.0 0.0 0.0 0.0 0.0 0.0 0.0 0.0 0.0 0.0
000060 80 80 80 80 80 80 80 80 80 80 80 80 80 80 80 80
       0.0 0.0 0.0 0.0 0.0 0.0 0.0 0.0 0.0 0.0 0.0 0.0 0.0 0.0 0.0 0.0
000070 80 80 80 80 80 80 80 80 80 80 80 80 80 80 80 80
       0.0 0.0 0.0 0.0 0.0 0.0 0.0 0.0 0.0 0.0 0.0 0.0 0.0 0.0 0.0 0.0
000080 80 80 80 80 80 80 80 80 80 80 80 80 80 80 80 80
       0.0 0.0 0.0 0.0 0.0 0.0 0.0 0.0 0.0 0.0 0.0 0.0 0.0 0.0 0.0 0.0
000090 80 80 80 80 80 80 80 80 80 80 80 80 80 80 80 80
       0.0 0.0 0.0 0.0 0.0 0.0 0.0 0.0 0.0 0.0 0.0 0.0 0.0 0.0 0.0 0.0
0000a0 80 80 80 80 80 80 80 80 80 80 80 80 80 80 80 80
       0.0 0.0 0.0 0.0 0.0 0.0 0.0 0.0 0.0 0.0 0.0 0.0 0.0 0.0 0.0 0.0
0000b0 80 80 80 80 80 80 80 80 80 80 80 80 80 80 80 80
       0.0 0.0 0.0 0.0 0.0 0.0 0.0 0.0 0.0 0.0 0.0 0.0 0.0 0.0 0.0 0.0
0000c0 80 80 80 80 80 80 80 80 80 80 80 80 80 80 80 80
       0.0 0.0 0.0 0.0 0.0 0.0 0.0 0.0 0.0 0.0 0.0 0.0 0.0 0.0 0.0 0.0
0000d0 80 80 80 80 80 80 80 80 80 80 80 80 80 80 80 80
       0.0 0.0 0.0 0.0 0.0 0.0 0.0 0.0 0.0 0.0 0.0 0.0 0.0 0.0 0.0 0.0
0000e0 80 80 80 80 80 80 80 80 80 80 80 80 80 80 80 80
       0.0 0.0 0.0 0.0 0.0 0.0 0.0 0.0 0.0 0.0 0.0 0.0 0.0 0.0 0.0 0.0
0000f0 80 80 80 80 80 80 80 80 80 80 80 80 80 80 80 80
       0.0 0.0 0.0 0.0 0.0 0.0 0.0 0.0 0.0 0.0 0.0 0.0 0.0 0.0 0.0 0.0

tfl.pseudo_qconst1 i1 [1, 8, 1, 64] scale=0.033788435 zero_point=-128
000000 80 80 80 80 80 80 80 80 80 80 80 80 80 80 80 80
       0.0 0.0 0.0 0.0 0.0 0.0 0.0 0.0 0.0 0.0 0.0 0.0 0.0 0.0 0.0 0.0
000010 80 80 80 80 80 80 80 80 80 80 80 80 80 80 80 80
       0.0 0.0 0.0 0.0 0.0 0.0 0.0 0.0 0.0 0.0 0.0 0.0 0.0 0.0 0.0 0.0
000020 80 80 80 80 80 80 80 80 80 80 80 80 80 80 80 80
       0.0 0.0 0.0 0.0 0.0 0.0 0.0 0.0 0.0 0.0 0.0 0.0 0.0 0.0 0.0 0.0
000030 80 80 80 80 80 80 80 80 80 80 80 80 80 80 80 80
       0.0 0.0 0.0 0.0 0.0 0.0 0.0 0.0 0.0 0.0 0.0 0.0 0.0 0.0 0.0 0.0
000040 80 80 80 80 80 80 80 80 80 80 80 80 80 80 80 80
       0.0 0.0 0.0 0.0 0.0 0.0 0.0 0.0 0.0 0.0 0.0 0.0 0.0 0.0 0.0 0.0
000050 80 80 80 80 80 80 80 80 80 80 80 80 80 80 80 80
       0.0 0.0 0.0 0.0 0.0 0.0 0.0 0.0 0.0 0.0 0.0 0.0 0.0 0.0 0.0 0.0
000060 80 80 80 80 80 80 80 80 80 80 80 80 80 80 80 80
       0.0 0.0 0.0 0.0 0.0 0.0 0.0 0.0 0.0 0.0 0.0 0.0 0.0 0.0 0.0 0.0
000070 80 80 80 80 80 80 80 80 80 80 80 80 80 80 80 80
       0.0 0.0 0.0 0.0 0.0 0.0 0.0 0.0 0.0 0.0 0.0 0.0 0.0 0.0 0.0 0.0
000080 80 80 80 80 80 80 80 80 80 80 80 80 80 80 80 80
       0.0 0.0 0.0 0.0 0.0 0.0 0.0 0.0 0.0 0.0 0.0 0.0 0.0 0.0 0.0 0.0
000090 80 80 80 80 80 80 80 80 80 80 80 80 80 80 80 80
       0.0 0.0 0.0 0.0 0.0 0.0 0.0 0.0 0.0 0.0 0.0 0.0 0.0 0.0 0.0 0.0
0000a0 80 80 80 80 80 80 80 80 80 80 80 80 80 80 80 80
       0.0 0.0 0.0 0.0 0.0 0.0 0.0 0.0 0.0 0.0 0.0 0.0 0.0 0.0 0.0 0.0
0000b0 80 80 80 80 80 80 80 80 80 80 80 80 80 80 80 80
       0.0 0.0 0.0 0.0 0.0 0.0 0.0 0.0 0.0 0.0 0.0 0.0 0.0 0.0 0.0 0.0
0000c0 80 80 80 80 80 80 80 80 80 80 80 80 80 80 80 80
       0.0 0.0 0.0 0.0 0.0 0.0 0.0 0.0 0.0 0.0 0.0 0.0 0.0 0.0 0.0 0.0
0000d0 80 80 80 80 80 80 80 80 80 80 80 80 80 80 80 80
       0.0 0.0 0.0 0.0 0.0 0.0 0.0 0.0 0.0 0.0 0.0 0.0 0.0 0.0 0.0 0.0
0000e0 80 80 80 80 80 80 80 80 80 80 80 80 80 80 80 80
       0.0 0.0 0.0 0.0 0.0 0.0 0.0 0.0 0.0 0.0 0.0 0.0 0.0 0.0 0.0 0.0
0000f0 80 80 80 80 80 80 80 80 80 80 80 80 80 80 80 80
       0.0 0.0 0.0 0.0 0.0 0.0 0.0 0.0 0.0 0.0 0.0 0.0 0.0 0.0 0.0 0.0

tfl.pseudo_qconst2 i1 [1, 4, 1, 32] scale=1.5414208 zero_point=-128
000000 80 80 80 80 80 80 80 80 80 80 80 80 80 80 80 80
       0.0 0.0 0.0 0.0 0.0 0.0 0.0 0.0 0.0 0.0 0.0 0.0 0.0 0.0 0.0 0.0
000010 80 80 80 80 80 80 80 80 80 80 80 80 80 80 80 80
       0.0 0.0 0.0 0.0 0.0 0.0 0.0 0.0 0.0 0.0 0.0 0.0 0.0 0.0 0.0 0.0
000020 80 80 80 80 80 80 80 80 80 80 80 80 80 80 80 80
       0.0 0.0 0.0 0.0 0.0 0.0 0.0 0.0 0.0 0.0 0.0 0.0 0.0 0.0 0.0 0.0
000030 80 80 80 80 80 80 80 80 80 80 80 80 80 80 80 80
       0.0 0.0 0.0 0.0 0.0 0.0 0.0 0.0 0.0 0.0 0.0 0.0 0.0 0.0 0.0 0.0
000040 80 80 80 80 80 80 80 80 80 80 80 80 80 80 80 80
       0.0 0.0 0.0 0.0 0.0 0.0 0.0 0.0 0.0 0.0 0.0 0.0 0.0 0.0 0.0 0.0
000050 80 80 80 80 80 80 80 80 80 80 80 80 80 80 80 80
       0.0 0.0 0.0 0.0 0.0 0.0 0.0 0.0 0.0 0.0 0.0 0.0 0.0 0.0 0.0 0.0
000060 80 80 80 80 80 80 80 80 80 80 80 80 80 80 80 80
       0.0 0.0 0.0 0.0 0.0 0.0 0.0 0.0 0.0 0.0 0.0 0.0 0.0 0.0 0.0 0.0
000070 80 80 80 80 80 80 80 80 80 80 80 80 80 80 80 80
       0.0 0.0 0.0 0.0 0.0 0.0 0.0 0.0 0.0 0.0 0.0 0.0 0.0 0.0 0.0 0.0

tfl.pseudo_qconst3 i1 [1, 2, 1, 40] scale=0.101960786 zero_point=-128
000000 80 80 80 80 80 80 80 80 80 80 80 80 80 80 80 80
       0.0 0.0 0.0 0.0 0.0 0.0 0.0 0.0 0.0 0.0 0.0 0.0 0.0 0.0 0.0 0.0
000010 80 80 80 80 80 80 80 80 80 80 80 80 80 80 80 80
       0.0 0.0 0.0 0.0 0.0 0.0 0.0 0.0 0.0 0.0 0.0 0.0 0.0 0.0 0.0 0.0
000020 80 80 80 80 80 80 80 80 80 80 80 80 80 80 80 80
       0.0 0.0 0.0 0.0 0.0 0.0 0.0 0.0 0.0 0.0 0.0 0.0 0.0 0.0 0.0 0.0
000030 80 80 80 80 80 80 80 80 80 80 80 80 80 80 80 80
       0.0 0.0 0.0 0.0 0.0 0.0 0.0 0.0 0.0 0.0 0.0 0.0 0.0 0.0 0.0 0.0
000040 80 80 80 80 80 80 80 80 80 80 80 80 80 80 80 80
       0.0 0.0 0.0 0.0 0.0 0.0 0.0 0.0 0.0 0.0 0.0 0.0 0.0 0.0 0.0 0.0

tfl.pseudo_qconst4 i1 [1, 4, 1, 64] scale=0.019263769 zero_point=-128
000000 80 80 80 80 80 80 80 80 80 80 80 80 80 80 80 80
       0.0 0.0 0.0 0.0 0.0 0.0 0.0 0.0 0.0 0.0 0.0 0.0 0.0 0.0 0.0 0.0
000010 80 80 80 80 80 80 80 80 80 80 80 80 80 80 80 80
       0.0 0.0 0.0 0.0 0.0 0.0 0.0 0.0 0.0 0.0 0.0 0.0 0.0 0.0 0.0 0.0
000020 80 80 80 80 80 80 80 80 80 80 80 80 80 80 80 80
       0.0 0.0 0.0 0.0 0.0 0.0 0.0 0.0 0.0 0.0 0.0 0.0 0.0 0.0 0.0 0.0
000030 80 80 80 80 80 80 80 80 80 80 80 80 80 80 80 80
       0.0 0.0 0.0 0.0 0.0 0.0 0.0 0.0 0.0 0.0 0.0 0.0 0.0 0.0 0.0 0.0
000040 80 80 80 80 80 80 80 80 80 80 80 80 80 80 80 80
       0.0 0.0 0.0 0.0 0.0 0.0 0.0 0.0 0.0 0.0 0.0 0.0 0.0 0.0 0.0 0.0
000050 80 80 80 80 80 80 80 80 80 80 80 80 80 80 80 80
       0.0 0.0 0.0 0.0 0.0 0.0 0.0 0.0 0.0 0.0 0.0 0.0 0.0 0.0 0.0 0.0
000060 80 80 80 80 80 80 80 80 80 80 80 80 80 80 80 80
       0.0 0.0 0.0 0.0 0.0 0.0 0.0 0.0 0.0 0.0 0.0 0.0 0.0 0.0 0.0 0.0
000070 80 80 80 80 80 80 80 80 80 80 80 80 80 80 80 80
       0.0 0.0 0.0 0.0 0.0 0.0 0.0 0.0 0.0 0.0 0.0 0.0 0.0 0.0 0.0 0.0
000080 80 80 80 80 80 80 80 80 80 80 80 80 80 80 80 80
       0.0 0.0 0.0 0.0 0.0 0.0 0.0 0.0 0.0 0.0 0.0 0.0 0.0 0.0 0.0 0.0
000090 80 80 80 80 80 80 80 80 80 80 80 80 80 80 80 80
       0.0 0.0 0.0 0.0 0.0 0.0 0.0 0.0 0.0 0.0 0.0 0.0 0.0 0.0 0.0 0.0
0000a0 80 80 80 80 80 80 80 80 80 80 80 80 80 80 80 80
       0.0 0.0 0.0 0.0 0.0 0.0 0.0 0.0 0.0 0.0 0.0 0.0 0.0 0.0 0.0 0.0
0000b0 80 80 80 80 80 80 80 80 80 80 80 80 80 80 80 80
       0.0 0.0 0.0 0.0 0.0 0.0 0.0 0.0 0.0 0.0 0.0 0.0 0.0 0.0 0.0 0.0
0000c0 80 80 80 80 80 80 80 80 80 80 80 80 80 80 80 80
       0.0 0.0 0.0 0.0 0.0 0.0 0.0 0.0 0.0 0.0 0.0 0.0 0.0 0.0 0.0 0.0
0000d0 80 80 80 80 80 80 80 80 80 80 80 80 80 80 80 80
       0.0 0.0 0.0 0.0 0.0 0.0 0.0 0.0 0.0 0.0 0.0 0.0 0.0 0.0 0.0 0.0
0000e0 80 80 80 80 80 80 80 80 80 80 80 80 80 80 80 80
       0.0 0.0 0.0 0.0 0.0 0.0 0.0 0.0 0.0 0.0 0.0 0.0 0.0 0.0 0.0 0.0
0000f0 80 80 80 80 80 80 80 80 80 80 80 80 80 80 80 80
       0.0 0.0 0.0 0.0 0.0 0.0 0.0 0.0 0.0 0.0 0.0 0.0 0.0 0.0 0.0 0.0

tfl.pseudo_qconst5 i1 [1, 20, 1, 64] scale=0.037182353 zero_point=-128
000000 80 80 80 80 80 80 80 80 80 80 80 80 80 80 80 80
       0.0 0.0 0.0 0.0 0.0 0.0 0.0 0.0 0.0 0.0 0.0 0.0 0.0 0.0 0.0 0.0
000010 80 80 80 80 80 80 80 80 80 80 80 80 80 80 80 80
       0.0 0.0 0.0 0.0 0.0 0.0 0.0 0.0 0.0 0.0 0.0 0.0 0.0 0.0 0.0 0.0
000020 80 80 80 80 80 80 80 80 80 80 80 80 80 80 80 80
       0.0 0.0 0.0 0.0 0.0 0.0 0.0 0.0 0.0 0.0 0.0 0.0 0.0 0.0 0.0 0.0
000030 80 80 80 80 80 80 80 80 80 80 80 80 80 80 80 80
       0.0 0.0 0.0 0.0 0.0 0.0 0.0 0.0 0.0 0.0 0.0 0.0 0.0 0.0 0.0 0.0
000040 80 80 80 80 80 80 80 80 80 80 80 80 80 80 80 80
       0.0 0.0 0.0 0.0 0.0 0.0 0.0 0.0 0.0 0.0 0.0 0.0 0.0 0.0 0.0 0.0
000050 80 80 80 80 80 80 80 80 80 80 80 80 80 80 80 80
       0.0 0.0 0.0 0.0 0.0 0.0 0.0 0.0 0.0 0.0 0.0 0.0 0.0 0.0 0.0 0.0
000060 80 80 80 80 80 80 80 80 80 80 80 80 80 80 80 80
       0.0 0.0 0.0 0.0 0.0 0.0 0.0 0.0 0.0 0.0 0.0 0.0 0.0 0.0 0.0 0.0
000070 80 80 80 80 80 80 80 80 80 80 80 80 80 80 80 80
       0.0 0.0 0.0 0.0 0.0 0.0 0.0 0.0 0.0 0.0 0.0 0.0 0.0 0.0 0.0 0.0
000080 80 80 80 80 80 80 80 80 80 80 80 80 80 80 80 80
       0.0 0.0 0.0 0.0 0.0 0.0 0.0 0.0 0.0 0.0 0.0 0.0 0.0 0.0 0.0 0.0
000090 80 80 80 80 80 80 80 80 80 80 80 80 80 80 80 80
       0.0 0.0 0.0 0.0 0.0 0.0 0.0 0.0 0.0 0.0 0.0 0.0 0.0 0.0 0.0 0.0
0000a0 80 80 80 80 80 80 80 80 80 80 80 80 80 80 80 80
       0.0 0.0 0.0 0.0 0.0 0.0 0.0 0.0 0.0 0.0 0.0 0.0 0.0 0.0 0.0 0.0
0000b0 80 80 80 80 80 80 80 80 80 80 80 80 80 80 80 80
       0.0 0.0 0.0 0.0 0.0 0.0 0.0 0.0 0.0 0.0 0.0 0.0 0.0 0.0 0.0 0.0
0000c0 80 80 80 80 80 80 80 80 80 80 80 80 80 80 80 80
       0.0 0.0 0.0 0.0 0.0 0.0 0.0 0.0 0.0 0.0 0.0 0.0 0.0 0.0 0.0 0.0
0000d0 80 80 80 80 80 80 80 80 80 80 80 80 80 80 80 80
       0.0 0.0 0.0 0.0 0.0 0.0 0.0 0.0 0.0 0.0 0.0 0.0 0.0 0.0 0.0 0.0
0000e0 80 80 80 80 80 80 80 80 80 80 80 80 80 80 80 80
       0.0 0.0 0.0 0.0 0.0 0.0 0.0 0.0 0.0 0.0 0.0 0.0 0.0 0.0 0.0 0.0
0000f0 80 80 80 80 80 80 80 80 80 80 80 80 80 80 80 80
       0.0 0.0 0.0 0.0 0.0 0.0 0.0 0.0 0.0 0.0 0.0 0.0 0.0 0.0 0.0 0.0
