assist_satellite/wakewords/choo_choo_homie.tflite (tflite, 62112 bytes, 18 tensors)

model_1/dense_1/MatMul i1 [1, 1088] scale=0.004424117 zero_point=0
00000000: 0dee 34f3 ec17 e307 d202 f814 dcda 41f3
00000010: fc25 d2fb 2809 05d6 0c1e ec11 ffd7 03f7
00000020: 1115 0afd e3f5 f6ea 00f5 fecf f30f d0f2
00000030: dffb 1200 17dd f40e e812 d1e2 e110 e423
00000040: 11f4 2d06 e105 e5fa f708 f9f3 f7e6 3a13
00000050: f505 02ff 1619 07d8 1223 fafd 05e5 f201
00000060: 1200 e9fa e006 fb0a 0600 fe0a 1809 d7ef
00000070: e2ec 09f6 39f3 0213 ef03 f9ec c900 fe11
00000080: 0cf1 2405 da01 0704 d4fe 08d3 ecf9 2317
00000090: e91a 070c 0306 0cf9 fa19 ff0a eace 1fea
000000a0: 1df4 010f cb13 fd1a 0f01 ee33 0504 e9dd
000000b0: eff4 fd04 1df8 0a05 f50c 00d5 aaee 0009
000000c0: 08f4 3206 d7fa 2406 e608 05c7 f0e1 1e08
000000d0: ecf6 0cfb ee09 fff8 f50f 25ea fce4 36ee
000000e0: 1a07 f709 ca0c 1901 130c d301 ff01 08d7
000000f0: f0f2 f8df f0e4 120e effc e2f3 d4f1 f109
0.05751352 -0.07963411 0.23005408 -0.05751352 -0.08848234 0.101754695 -0.1282994 0.030968819
-0.20350939 0.008848234 -0.035392936 0.08848234 -0.15926822 -0.16811645 0.28756762 -0.05751352
-0.017696468 0.16369233 -0.20350939 -0.022120586 0.17696469 0.039817054 0.022120586 -0.18581292
0.053089403 0.13272351 -0.08848234 0.07520999 -0.004424117 -0.1813888 0.013272351 -0.039817054
0.07520999 0.09290646 0.04424117 -0.013272351 -0.1282994 -0.04866529 -0.04424117 -0.09733058
0.0 -0.04866529 -0.008848234 -0.21678174 -0.05751352 0.066361755 -0.21235761 -0.061937638
-0.14599586 -0.022120586 0.07963411 0.0 0.101754695 -0.15484409 -0.053089403 0.061937638
-0.106178805 0.07963411 -0.2079335 -0.13272351 -0.13714764 0.07078587 -0.123875275 0.15484409
0.07520999 -0.053089403 0.19908527 0.026544701 -0.13714764 0.022120586 -0.11945116 -0.026544701
-0.039817054 0.035392936 -0.030968819 -0.05751352 -0.039817054 -0.11502704 0.2565988 0.084058225
-0.04866529 0.022120586 0.008848234 -0.004424117 0.09733058 0.11060292 0.030968819 -0.17696469
0.07963411 0.15484409 -0.026544701 -0.013272351 0.022120586 -0.11945116 -0.061937638 0.004424117
0.07963411 0.0 -0.101754695 -0.026544701 -0.14157175 0.026544701 -0.022120586 0.04424117
0.026544701 0.0 -0.008848234 0.04424117 0.106178805 0.039817054 -0.1813888 -0.07520999
-0.13272351 -0.08848234 0.039817054 -0.04424117 0.25217468 -0.05751352 0.008848234 0.084058225
-0.07520999 0.013272351 -0.030968819 -0.08848234 -0.24332644 0.0 -0.008848234 0.07520999
0.053089403 -0.066361755 0.15926822 0.022120586 -0.16811645 0.004424117 0.030968819 0.017696468
-0.19466116 -0.008848234 0.035392936 -0.19908527 -0.08848234 -0.030968819 0.15484409 0.101754695
-0.101754695 0.11502704 0.030968819 0.053089403 0.013272351 0.026544701 0.053089403 -0.030968819
-0.026544701 0.11060292 -0.004424117 0.04424117 -0.09733058 -0.22120585 0.13714764 -0.09733058
0.1282994 -0.053089403 0.004424117 0.066361755 -0.2344782 0.084058225 -0.013272351 0.11502704
0.066361755 0.004424117 -0.07963411 0.22562997 0.022120586 0.017696468 -0.101754695 -0.15484409
-0.07520999 -0.053089403 -0.013272351 0.017696468 0.1282994 -0.035392936 0.04424117 0.022120586
-0.04866529 0.053089403 0.0 -0.19023703 -0.38047406 -0.07963411 0.0 0.039817054
0.035392936 -0.053089403 0.22120585 0.026544701 -0.1813888 -0.026544701 0.15926822 0.026544701
-0.11502704 0.035392936 0.022120586 -0.25217468 -0.07078587 -0.13714764 0.13272351 0.035392936
-0.08848234 -0.04424117 0.053089403 -0.022120586 -0.07963411 0.039817054 -0.004424117 -0.035392936
-0.04866529 0.066361755 0.16369233 -0.09733058 -0.017696468 -0.123875275 0.23890232 -0.07963411
0.11502704 0.030968819 -0.039817054 0.039817054 -0.23890232 0.053089403 0.11060292 0.004424117
0.084058225 0.053089403 -0.19908527 0.004424117 -0.004424117 0.004424117 0.035392936 -0.1813888
-0.07078587 -0.061937638 -0.035392936 -0.14599586 -0.07078587 -0.123875275 0.07963411 0.061937638
-0.07520999 -0.017696468 -0.13272351 -0.05751352 -0.19466116 -0.066361755 -0.066361755 0.039817054

model_1/conv2d_9/Conv2D i1 [64, 1, 1, 64]
00000000: 61f6 663b 33fb f9aa 00fc dc55 c2ea 2827
00000010: c9c0 0a1f 68c5 43ec 12ef 4ce1 4410 1dd3
00000020: aef3 fade 1017 24ce 3204 1bd7 9e4c e45d
00000030: d830 fb36 1ed5 fcca 5ef4 81f0 2f1f c800
00000040: fb16 f396 8dc4 8caf 0c9f c315 27d9 d9fd
00000050: 1256 20f9 8123 5054 53b4 2cf4 070d 3ab8
00000060: 43e3 ba31 ac2e 4d2b 31f6 02e7 40f6 0099
00000070: 0301 f2c7 a70c 961e 20ef 24bd f933 2cf9
00000080: 2cda 6ce1 27f0 06f0 944c 209a 211f bbf2
00000090: c42a 5ef2 c327 dba6 f67f ecc4 1b6a 1ed9
000000a0: dbad 6f06 2ffa 1b1f 2b6f db5c 34dc 38f7
000000b0: 532b b0c7 5ff2 3048 ccff 4446 042e df36
000000c0: c91f e32f efc0 4226 aa26 1f1c dedc fe27
000000d0: e337 d10b d93b fb3b c397 d8f2 fef9 17f7
000000e0: f0d1 bf09 fb08 1419 f5e6 3825 12d3 6da3
000000f0: 85cc 7fc4 a65a 3546 da22 032a 11f9 23d4
97 -10 102 59 51 -5 -7 -86
0 -4 -36 85 -62 -22 40 39
-55 -64 10 31 104 -59 67 -20
18 -17 76 -31 68 16 29 -45
-82 -13 -6 -34 16 23 36 -50
50 4 27 -41 -98 76 -28 93
-40 48 -5 54 30 -43 -4 -54
94 -12 -127 -16 47 31 -56 0
-5 22 -13 -106 -115 -60 -116 -81
12 -97 -61 21 39 -39 -39 -3
18 86 32 -7 -127 35 80 84
83 -76 44 -12 7 13 58 -72
67 -29 -70 49 -84 46 77 43
49 -10 2 -25 64 -10 0 -103
3 1 -14 -57 -89 12 -106 30
32 -17 36 -67 -7 51 44 -7
44 -38 108 -31 39 -16 6 -16
-108 76 32 -102 33 31 -69 -14
-60 42 94 -14 -61 39 -37 -90
-10 127 -20 -60 27 106 30 -39
-37 -83 111 6 47 -6 27 31
43 111 -37 92 52 -36 56 -9
83 43 -80 -57 95 -14 48 72
-52 -1 68 70 4 46 -33 54
-55 31 -29 47 -17 -64 66 38
-86 38 31 28 -34 -36 -2 39
-29 55 -47 11 -39 59 -5 59
-61 -105 -40 -14 -2 -7 23 -9
-16 -47 -65 9 -5 8 20 25
-11 -26 56 37 18 -45 109 -93
-123 -52 127 -60 -90 90 53 70
-38 34 3 42 17 -7 35 -44

model_1/depthwise_conv2d_11/depthwise i1 [1, 23, 1, 64]
00000000: 81d8 7987 cc2b 5847 c6f5 437f 4f81 7fe1
00000010: c973 ad7f 4ec7 0720 53a0 fc82 f5ed 2725
00000020: 1cf3 dda2 99d6 eeea 3677 05ec 8146 d429
00000030: d9c2 7f56 50e1 d881 e681 ee81 4058 25e9
00000040: db8b 6281 aa3b 781c 001e 6757 4f99 68d4
00000050: ae3b b52c 5081 e83f 2589 b581 2d02 5b0d
00000060: 5af6 da81 81e2 f7dc 7f38 a9a2 ae1d ed36
00000070: be9b 5443 40c6 a49d 068d e0e5 3243 1f07
00000080: e381 2f9d a12a 5429 1c5d 502a 63d5 75bf
00000090: 810c cd27 459e c640 2a81 cc96 23f4 2d00
000000a0: 7ffb 0c9a 95d1 e9da 787f ce81 c0f7 0839
000000b0: bf81 1b1a 34ed a5a7 0ae2 0310 1563 0f53
000000c0: d5a9 cfa5 9b42 2c32 6136 2b12 4be0 63d7
000000d0: 8717 c409 4bc2 bc50 e79e fdc3 3405 7f25
000000e0: 41ff 15c6 a9c7 edec 5e38 dfac ecff 170f
000000f0: e0a0 0d14 4e26 b1b0 f900 fb2d 1957 fc41
-127 -40 121 -121 -52 43 88 71
-58 -11 67 127 79 -127 127 -31
-55 115 -83 127 78 -57 7 32
83 -96 -4 -126 -11 -19 39 37
28 -13 -35 -94 -103 -42 -18 -22
54 119 5 -20 -127 70 -44 41
-39 -62 127 86 80 -31 -40 -127
-26 -127 -18 -127 64 88 37 -23
-37 -117 98 -127 -86 59 120 28
0 30 103 87 79 -103 104 -44
-82 59 -75 44 80 -127 -24 63
37 -119 -75 -127 45 2 91 13
90 -10 -38 -127 -127 -30 -9 -36
127 56 -87 -94 -82 29 -19 54
-66 -101 84 67 64 -58 -92 -99
6 -115 -32 -27 50 67 31 7
-29 -127 47 -99 -95 42 84 41
28 93 80 42 99 -43 117 -65
-127 12 -51 39 69 -98 -58 64
42 -127 -52 -106 35 -12 45 0
127 -5 12 -102 -107 -47 -23 -38
120 127 -50 -127 -64 -9 8 57
-65 -127 27 26 52 -19 -91 -89
10 -30 3 16 21 99 15 83
-43 -87 -49 -91 -101 66 44 50
97 54 43 18 75 -32 99 -41
-121 23 -60 9 75 -62 -68 80
-25 -98 -3 -61 52 5 127 37
65 -1 21 -58 -87 -57 -19 -20
94 56 -33 -84 -20 -1 23 15
-32 -96 13 20 78 38 -79 -80
-7 0 -5 45 25 87 -4 65

model_1/conv2d_8/Conv2D i1 [64, 1, 1, 64]
00000000: 2dce 2f01 5d16 e6f9 174c 6997 d111 ab28
00000010: a3d7 2a03 0f7f f795 0f5f eb1d 48f0 f07e
00000020: 33d3 d634 6fa0 3dcd cab6 f8f7 d7e5 b3e4
00000030: 0d94 f1da fecf d508 0de0 e0c0 2109 2339
00000040: d32b c594 2317 f7c8 36d9 e8f3 0236 ddaf
00000050: c831 f826 17be 9f91 e17e d718 7fcb 77ac
00000060: 21eb ff0d e509 e9c5 4fd8 d27a 42e7 de82
00000070: dba5 f307 cd18 c3da ef15 25b1 e471 24e8
00000080: 3933 d322 91fb 0a04 d038 4652 1bcc f2e3
00000090: 0b6f ffcc 0553 2adc 26d2 f9af 4d49 5c42
000000a0: 27db e215 3aeb 29e5 ff1f 964a ce12 fada
000000b0: 2031 7500 b40a af17 fb09 57f0 da19 287f
000000c0: 0a2f df97 0733 10f1 473a 2bf3 c027 b20c
000000d0: bf30 d769 fee8 7f10 2f01 080d 13da 4511
000000e0: df3c df61 1e10 c527 6ce6 d0fd 12a9 0474
000000f0: 2aef 0614 8914 d7b9 f6cd b61d c049 e84f
45 -50 47 1 93 22 -26 -7
23 76 105 -105 -47 17 -85 40
-93 -41 42 3 15 127 -9 -107
15 95 -21 29 72 -16 -16 126
51 -45 -42 52 111 -96 61 -51
-54 -74 -8 -9 -41 -27 -77 -28
13 -108 -15 -38 -2 -49 -43 8
13 -32 -32 -64 33 9 35 57
-45 43 -59 -108 35 23 -9 -56
54 -39 -24 -13 2 54 -35 -81
-56 49 -8 38 23 -66 -97 -111
-31 126 -41 24 127 -53 119 -84
33 -21 -1 13 -27 9 -23 -59
79 -40 -46 122 66 -25 -34 -126
-37 -91 -13 7 -51 24 -61 -38
-17 21 37 -79 -28 113 36 -24
57 51 -45 34 -111 -5 10 4
-48 56 70 82 27 -52 -14 -29
11 111 -1 -52 5 83 42 -36
38 -46 -7 -81 77 73 92 66
39 -37 -30 21 58 -21 41 -27
-1 31 -106 74 -50 18 -6 -38
32 49 117 0 -76 10 -81 23
-5 9 87 -16 -38 25 40 127
10 47 -33 -105 7 51 16 -15
71 58 43 -13 -64 39 -78 12
-65 48 -41 105 -2 -24 127 16
47 1 8 13 19 -38 69 17
-33 60 -33 97 30 16 -59 39
108 -26 -48 -3 18 -87 4 116
42 -17 6 20 -119 20 -41 -71
-10 -51 -74 29 -64 73 -24 79

model_1/depthwise_conv2d_10/depthwise1 i1 [1, 15, 1, 32]
00000000: 2d73 7fed f422 dc15 5681 a532 fe1b 8e02
00000010: 33fc 7186 b3e1 d681 1e5b c4ce 8678 10b8
00000020: 2a7f 6ce7 1f3f e7cd 38ba 2fe0 1157 e819
00000030: 0045 59a7 c9fa bcc3 2751 a9ee 907c 1fee
00000040: 3461 2fa7 2a29 f5ec 4cb9 7fbd fe60 c047
00000050: e828 4dcd b40d 949e 033b 874e a163 eaf7
00000060: 2953 24b7 521f b2a6 1be3 74bd 394d b950
00000070: 1968 fedb cb03 a1d8 1607 81aa fe4a e3da
00000080: 251a 4781 090e 8f97 0bd4 11ec 057f b829
00000090: 1e7f 29d3 f8bd c4b1 03c6 b2b1 0103 81c5
000000a0: 0c1f 02b7 ebde d2f2 0dba 17cf 3c32 e617
000000b0: 5771 c497 1fb2 ef17 cea3 260e 112c 88d4
000000c0: 0226 02bb e028 f2b0 11c8 23a8 1918 d1f3
000000d0: 511d 8181 4b81 4f0b fc90 37e5 e123 a2d2
000000e0: 1ded d7e1 8112 26c1 dcdb f4bc 271b 2910
000000f0: 2ffb d4db 5096 2bd9 f381 1e2a c68e f4e5
45 115 127 -19 -12 34 -36 21
86 -127 -91 50 -2 27 -114 2
51 -4 113 -122 -77 -31 -42 -127
30 91 -60 -50 -122 120 16 -72
42 127 108 -25 31 63 -25 -51
56 -70 47 -32 17 87 -24 25
0 69 89 -89 -55 -6 -68 -61
39 81 -87 -18 -112 124 31 -18
52 97 47 -89 42 41 -11 -20
76 -71 127 -67 -2 96 -64 71
-24 40 77 -51 -76 13 -108 -98
3 59 -121 78 -95 99 -22 -9
41 83 36 -73 82 31 -78 -90
27 -29 116 -67 57 77 -71 80
25 104 -2 -37 -53 3 -95 -40
22 7 -127 -86 -2 74 -29 -38
37 26 71 -127 9 14 -113 -105
11 -44 17 -20 5 127 -72 41
30 127 41 -45 -8 -67 -60 -79
3 -58 -78 -79 1 3 -127 -59
12 31 2 -73 -21 -34 -46 -14
13 -70 23 -49 60 50 -26 23
87 113 -60 -105 31 -78 -17 23
-50 -93 38 14 17 44 -120 -44
2 38 2 -69 -32 40 -14 -80
17 -56 35 -88 25 24 -47 -13
81 29 -127 -127 75 -127 79 11
-4 -112 55 -27 -31 35 -94 -46
29 -19 -41 -31 -127 18 38 -63
-36 -37 -12 -68 39 27 41 16
47 -5 -44 -37 80 -106 43 -39
-13 -127 30 42 -58 -114 -12 -27

model_1/depthwise_conv2d_9/depthwise i1 [1, 9, 1, 32]
00000000: 407f 2dd9 2ffb 7ffe 8ae1 b2e6 e91f 3305
00000010: 28b3 5986 bd26 7537 0231 1e1f 9d0d 5c0a
00000020: f049 02ba 30fa 211f b534 f6e7 2fe2 24c1
00000030: 33a8 7fde 8e18 5c7f 63d1 eb20 ccf2 1c29
00000040: eb02 edc4 5204 0cea ce13 bd09 1ec0 12b6
00000050: 01d3 4aa2 21ed 7274 c3cd 17c4 e38a a131
00000060: 200f 0dad 753b 47da 18d5 97cf 3ba8 08a8
00000070: 179b 04df 0397 7f38 e422 44e4 8881 8135
00000080: fdec 3809 460e 1adb 100b 81ed 32dd f8c0
00000090: 9f9a 577f 6eb4 3e22 c555 57a1 c48a d801
000000a0: 0ce5 66e5 5232 1d27 0be9 9981 7f1a 3922
000000b0: b3ba c55f 7f37 6807 7f7f 6997 dbd5 1141
000000c0: 37d6 5f45 0fe2 2779 049e bcb2 4918 1607
000000d0: 8110 e8e9 3272 48a3 f276 54fd 5c55 dc5f
000000e0: 74b4 7f7f 81b5 cd7f 1dde 9f98 3d4f 393d
000000f0: 9b1e 3de7 007f befd 8610 7f7f 7f73 de70
64 127 45 -39 47 -5 127 -2
-118 -31 -78 -26 -23 31 51 5
40 -77 89 -122 -67 38 117 55
2 49 30 31 -99 13 92 10
-16 73 2 -70 48 -6 33 31
-75 52 -10 -25 47 -30 36 -63
51 -88 127 -34 -114 24 92 127
99 -47 -21 32 -52 -14 28 41
-21 2 -19 -60 82 4 12 -22
-50 19 -67 9 30 -64 18 -74
1 -45 74 -94 33 -19 114 116
-61 -51 23 -60 -29 -118 -95 49
32 15 13 -83 117 59 71 -38
24 -43 -105 -49 59 -88 8 -88
23 -101 4 -33 3 -105 127 56
-28 34 68 -28 -120 -127 -127 53
-3 -20 56 9 70 14 26 -37
16 11 -127 -19 50 -35 -8 -64
-97 -102 87 127 110 -76 62 34
-59 85 87 -95 -60 -118 -40 1
12 -27 102 -27 82 50 29 39
11 -23 -103 -127 127 26 57 34
-77 -70 -59 95 127 55 104 7
127 127 105 -105 -37 -43 17 65
55 -42 95 69 15 -30 39 121
4 -98 -68 -78 73 24 22 7
-127 16 -24 -23 50 114 72 -93
-14 118 84 -3 92 85 -36 95
116 -76 127 127 -127 -75 -51 127
29 -34 -97 -104 61 79 57 61
-101 30 61 -25 0 127 -66 -3
-122 16 127 127 127 115 -34 112

model_1/conv2d_7/Conv2D i1 [64, 1, 1, 64]
00000000: 020f 3346 18e7 e6fc ece0 2124 a31c 24ec
00000010: f7cf 2dec eefd cf74 813c 8713 081f f32e
00000020: 0218 17e0 2842 ff08 d022 23c8 341c fbc0
00000030: 20ee ecf5 fa2c e908 2afb 45db 1013 1eeb
00000040: 53e4 f939 78ac 2ef7 2b1f 93b6 2759 2619
00000050: aeac 10dd abf5 ac4c 05cf db37 4b40 e403
00000060: 0e6c f03f b089 3840 c3e4 815d 20eb df6c
00000070: e412 fab6 2eb0 b537 3cb0 3d3b 0334 1bc5
00000080: 16e8 f2ff 09f7 1632 31b4 2347 baef 22f3
00000090: ed17 0134 d5fb df02 956d 15d6 e50c cd37
000000a0: 10f7 0d16 0d44 0eb8 e547 7f0e f4eb 13f8
000000b0: ea0d 17e2 08e6 1b2d f1dd e511 d9d7 0507
000000c0: e0e7 2ee5 d3a1 e036 b507 2bf1 e6cf f9cb
000000d0: f4b6 bafe 2efa e9f5 adff 3184 c881 3a40
000000e0: f8fe fe4b f1d6 ea64 eec6 dee7 025c 20df
000000f0: e723 0b5a 30cd 4031 0bad 10d4 1f2f 2024
2 15 51 70 24 -25 -26 -4
-20 -32 33 36 -93 28 36 -20
-9 -49 45 -20 -18 -3 -49 116
-127 60 -121 19 8 31 -13 46
2 24 23 -32 40 66 -1 8
-48 34 35 -56 52 28 -5 -64
32 -18 -20 -11 -6 44 -23 8
42 -5 69 -37 16 19 30 -21
83 -28 -7 57 120 -84 46 -9
43 31 -109 -74 39 89 38 25
-82 -84 16 -35 -85 -11 -84 76
5 -49 -37 55 75 64 -28 3
14 108 -16 63 -80 -119 56 64
-61 -28 -127 93 32 -21 -33 108
-28 18 -6 -74 46 -80 -75 55
60 -80 61 59 3 52 27 -59
22 -24 -14 -1 9 -9 22 50
49 -76 35 71 -70 -17 34 -13
-19 23 1 52 -43 -5 -33 2
-107 109 21 -42 -27 12 -51 55
16 -9 13 22 13 68 14 -72
-27 71 127 14 -12 -21 19 -8
-22 13 23 -30 8 -26 27 45
-15 -35 -27 17 -39 -41 5 7
-32 -25 46 -27 -45 -95 -32 54
-75 7 43 -15 -26 -49 -7 -53
-12 -74 -70 -2 46 -6 -23 -11
-83 -1 49 -124 -56 -127 58 64
-8 -2 -2 75 -15 -42 -22 100
-18 -58 -34 -25 2 92 32 -33
-25 35 11 90 48 -51 64 49
11 -83 16 -44 31 47 32 36

model_1/depthwise_conv2d_8/depthwise i1 [1, 11, 1, 32]
00000000: 81a7 877f 9958 1bad 01e3 bffc 2481 2101
00000010: 7f3b c01c 7fdb fd7f 2f81 290c 0281 6b6f
00000020: ccd6 b263 89ef 7ab4 0b9d de17 5081 1133
00000030: 47dd 085f 34b4 f374 7fd6 23d5 bebc 76f7
00000040: 9e31 a731 dbfe e11d d881 2209 0ec3 3366
00000050: 5ff2 1559 26a7 371e 551b db24 09bd 25ff
00000060: 8af8 0ed4 42df 81b4 f5b8 1d07 36be 1d48
00000070: 3885 16e1 1481 648b cc29 b50a 6b32 ccb4
00000080: bf04 fedf d4e7 f612 f9e6 241f 3cb6 da0b
00000090: 551a 2fbc eec1 fbe8 0032 d7f1 6cfb 81fa
000000a0: e640 0af7 de06 d8f8 2321 65ca 81d5 addf
000000b0: ea49 f081 b2d0 d84e 2428 138e 1ffc 8214
000000c0: f07a ee0f e150 41d7 faf8 e016 cbbb 812a
000000d0: ec49 d5bb 8a0c a5da 1227 4e81 c0d6 b97f
000000e0: f47f c6f3 77c0 583d 1add 8120 9caf c3dc
000000f0: d57f a70f c11a d382 e535 11ac e91a 187c
-127 -89 -121 127 -103 88 27 -83
1 -29 -65 -4 36 -127 33 1
127 59 -64 28 127 -37 -3 127
47 -127 41 12 2 -127 107 111
-52 -42 -78 99 -119 -17 122 -76
11 -99 -34 23 80 -127 17 51
71 -35 8 95 52 -76 -13 116
127 -42 35 -43 -66 -68 118 -9
-98 49 -89 49 -37 -2 -31 29
-40 -127 34 9 14 -61 51 102
95 -14 21 89 38 -89 55 30
85 27 -37 36 9 -67 37 -1
-118 -8 14 -44 66 -33 -127 -76
-11 -72 29 7 54 -66 29 72
56 -123 22 -31 20 -127 100 -117
-52 41 -75 10 107 50 -52 -76
-65 4 -2 -33 -44 -25 -10 18
-7 -26 36 31 60 -74 -38 11
85 26 47 -68 -18 -63 -5 -24
0 50 -41 -15 108 -5 -127 -6
-26 64 10 -9 -34 6 -40 -8
35 33 101 -54 -127 -43 -83 -33
-22 73 -16 -127 -78 -48 -40 78
36 40 19 -114 31 -4 -126 20
-16 122 -18 15 -31 80 65 -41
-6 -8 -32 22 -53 -69 -127 42
-20 73 -43 -69 -118 12 -91 -38
18 39 78 -127 -64 -42 -71 127
-12 127 -58 -13 119 -64 88 61
26 -35 -127 32 -100 -81 -61 -36
-43 127 -89 15 -63 26 -45 -126
-27 53 17 -84 -23 26 24 124

model_1/depthwise_conv2d_7/depthwise i1 [1, 7, 1, 32]
00000000: 3850 40cb 18ea 0460 558d 680d da15 2cdb
00000010: 0b41 3fcf 7fc6 4846 b8dc 8106 c4ab 77cd
00000020: 5848 4281 2481 6b4d 6ed2 25c5 8fc2 5a1e
00000030: f833 17cb 7e90 0b6d 2fa9 ad6f c8ae 7f81
00000040: d544 b3cf bdb2 4122 14cb a1c9 8d81 c5e0
00000050: 0f44 d7a2 4c81 327f 49e7 047f f568 5719
00000060: 81e5 d5ea 81ff bfac 2519 816e 3b8b 87cd
00000070: 3a97 927f 34b8 0801 b26a f965 f57f b79b
00000080: 8dd8 7f5e b902 81ca ece9 8d65 7fd9 2b76
00000090: 0db9 8170 c140 d2c8 b268 3069 a04b f099
000000a0: ee9e f43e 8a09 d6e4 d614 ae8f 59f2 7f67
000000b0: 818b 2da5 e667 63e9 3a90 64e8 81b5 00a8
000000c0: fb81 9c3d 9bf1 3c81 817f d281 c6f6 3f7f
000000d0: 9b81 c825 360d 7f4a 7f81 0af8 a385 2f83
56 80 64 -53 24 -22 4 96
85 -115 104 13 -38 21 44 -37
11 65 63 -49 127 -58 72 70
-72 -36 -127 6 -60 -85 119 -51
88 72 66 -127 36 -127 107 77
110 -46 37 -59 -113 -62 90 30
-8 51 23 -53 126 -112 11 109
47 -87 -83 111 -56 -82 127 -127
-43 68 -77 -49 -67 -78 65 34
20 -53 -95 -55 -115 -127 -59 -32
15 68 -41 -94 76 -127 50 127
73 -25 4 127 -11 104 87 25
-127 -27 -43 -22 -127 -1 -65 -84
37 25 -127 110 59 -117 -121 -51
58 -105 -110 127 52 -72 8 1
-78 106 -7 101 -11 127 -73 -101
-115 -40 127 94 -71 2 -127 -54
-20 -23 -115 101 127 -39 43 118
13 -71 -127 112 -63 64 -46 -56
-78 104 48 105 -96 75 -16 -103
-18 -98 -12 62 -118 9 -42 -28
-42 20 -82 -113 89 -14 127 103
-127 -117 45 -91 -26 103 99 -23
58 -112 100 -24 -127 -75 0 -88
-5 -127 -100 61 -101 -15 60 -127
-127 127 -46 -127 -58 -10 63 127
-101 -127 -56 37 54 13 127 74
127 -127 10 -8 -93 -123 47 -125

model_1/conv2d_6/Conv2D i1 [64, 1, 1, 32]
00000000: 1681 0c21 adea c4e8 d8ea d6b0 24f3 a9cc
00000010: f0fb 13ec e70c be13 d124 08ed 40df ceff
00000020: e2c9 c77a bb15 ecd9 7f00 ac56 fcd4 52bf
00000030: d90e 07e5 c3c0 18d4 0dcc 026c f8fe 4cd4
00000040: 700b 1803 1303 2e4f b67f 00e1 f1a5 e1e8
00000050: 3fdf fead f73b fd22 e33a 15d2 0e05 db15
00000060: 31f6 3501 ae19 8f0e d5be 2d15 e3ff 3416
00000070: b886 b347 5611 ca1a ea81 fc24 bbd0 e19a
00000080: fcd6 71ab 88fe 1506 060f 6bc3 5e9b cddf
00000090: 0882 997f 1542 1397 dd25 8f7e 2bd3 c817
000000a0: 2105 861f eb0f 161b eeae 262e 0c28 2734
000000b0: 0b17 1d0e 3740 a8d7 81fe e32d 0bc9 07ed
000000c0: 3faa cad4 a3b6 2ffb e8cd eefb c9cf 9881
000000d0: defe f6d2 e003 4619 ba41 e837 ec86 24dc
000000e0: ccd5 d57f f3de 1710 e07c 2235 1bdb ead4
000000f0: 19f7 0e3c e0d0 1039 f10b 05e5 cdfa 28cc
22 -127 12 33 -83 -22 -60 -24
-40 -22 -42 -80 36 -13 -87 -52
-16 -5 19 -20 -25 12 -66 19
-47 36 8 -19 64 -33 -50 -1
-30 -55 -57 122 -69 21 -20 -39
127 0 -84 86 -4 -44 82 -65
-39 14 7 -27 -61 -64 24 -44
13 -52 2 108 -8 -2 76 -44
112 11 24 3 19 3 46 79
-74 127 0 -31 -15 -91 -31 -24
63 -33 -2 -83 -9 59 -3 34
-29 58 21 -46 14 5 -37 21
49 -10 53 1 -82 25 -113 14
-43 -66 45 21 -29 -1 52 22
-72 -122 -77 71 86 17 -54 26
-22 -127 -4 36 -69 -48 -31 -102
-4 -42 113 -85 -120 -2 21 6
6 15 107 -61 94 -101 -51 -33
8 -126 -103 127 21 66 19 -105
-35 37 -113 126 43 -45 -56 23
33 5 -122 31 -21 15 22 27
-18 -82 38 46 12 40 39 52
11 23 29 14 55 64 -88 -41
-127 -2 -29 45 11 -55 7 -19
63 -86 -54 -44 -93 -74 47 -5
-24 -51 -18 -5 -55 -49 -104 -127
-34 -2 -10 -46 -32 3 70 25
-70 65 -24 55 -20 -122 36 -36
-52 -43 -43 127 -13 -34 23 16
-32 124 34 53 27 -37 -22 -44
25 -9 14 60 -32 -48 16 57
-15 11 5 -27 -51 -6 40 -52

model_1/depthwise_conv2d_6/depthwise i1 [1, 5, 1, 32]
00000000: ced0 050c 7fbc 81cf ad5b c5f3 d281 2247
00000010: edf8 5e23 28f3 0281 cc85 d945 f17f ee81
00000020: e8d4 b7eb 47f1 f218 c408 1681 7fb4 54e3
00000030: 27ca 7f21 43e9 7f91 9081 9f7f 46fd fabc
00000040: dce4 9b77 6e7f 6a7f d50e b3c3 498a 04b5
00000050: 7fd6 ccb6 c642 3bcc d323 8173 7f88 0f41
00000060: 7f45 6281 3660 0842 f7fe 81ca f4df 0443
00000070: 607f b781 817f 29a2 8141 f026 40bc 1c7e
00000080: 437f 7f92 ddb6 5b40 8181 b4df e920 817f
00000090: 0e56 0553 f709 2506 a3f9 11f2 6907 7ff6
-50 -48 5 12 127 -68 -127 -49
-83 91 -59 -13 -46 -127 34 71
-19 -8 94 35 40 -13 2 -127
-52 -123 -39 69 -15 127 -18 -127
-24 -44 -73 -21 71 -15 -14 24
-60 8 22 -127 127 -76 84 -29
39 -54 127 33 67 -23 127 -111
-112 -127 -97 127 70 -3 -6 -68
-36 -28 -101 119 110 127 106 127
-43 14 -77 -61 73 -118 4 -75
127 -42 -52 -74 -58 66 59 -52
-45 35 -127 115 127 -120 15 65
127 69 98 -127 54 96 8 66
-9 -2 -127 -54 -12 -33 4 67
96 127 -73 -127 -127 127 41 -94
-127 65 -16 38 64 -68 28 126
67 127 127 -110 -35 -74 91 64
-127 -127 -76 -33 -23 32 -127 127
14 86 5 83 -9 9 37 6
-93 -7 17 -14 105 7 127 -10

model_1/stream_6/conv2d_5/Conv2D i1 [32, 5, 1, 40]
00000000: 0ebf d1c4 eb12 11e8 0d5b 1517 1917 fe2e
00000010: 463a ed0c 12b9 b5b7 1b0d 1408 04ed fb1d
00000020: fdda df10 08f3 18c9 e7a3 c0c0 16f4 3f09
00000030: 6252 6139 2bf3 0e1a 5eff 0be2 12d9 bdd7
00000040: 362d 25fc 1b29 fffa 06b2 f209 fdd5 2dbf
00000050: dc9e 9db8 03ad ff09 5062 581e c9c5 fb0c
00000060: 3209 f4f7 110b d9ab e702 33ce fcda 190a
00000070: e2d6 a0f3 d9f2 0ce6 efa9 a2a0 0cd5 1718
00000080: 401e 1333 ccd9 2c04 6931 ea0f 05d8 ceb4
00000090: fd2a 2521 2c1e 083b d918 ee3b fb02 f228
000000a0: dcc8 81d1 12e9 333d 2409 4624 11e5 2427
000000b0: 522d 2f08 28f2 e7f9 0325 0d0a 0323 1021
000000c0: c82a ff52 f760 5137 0e11 31e6 3208 051e
000000d0: d4c4 f1d5 e1b3 f8e2 36f7 0d09 1222 e020
000000e0: 4562 17f4 f1dd e81a 4726 15d2 ecb1 f2cd
000000f0: 3963 625c 1eed fdf2 e5af 0006 e39e 17d7
14 -65 -47 -60 -21 18 17 -24
13 91 21 23 25 23 -2 46
70 58 -19 12 18 -71 -75 -73
27 13 20 8 4 -19 -5 29
-3 -38 -33 16 8 -13 24 -55
-25 -93 -64 -64 22 -12 63 9
98 82 97 57 43 -13 14 26
94 -1 11 -30 18 -39 -67 -41
54 45 37 -4 27 41 -1 -6
6 -78 -14 9 -3 -43 45 -65
-36 -98 -99 -72 3 -83 -1 9
80 98 88 30 -55 -59 -5 12
50 9 -12 -9 17 11 -39 -85
-25 2 51 -50 -4 -38 25 10
-30 -42 -96 -13 -39 -14 12 -26
-17 -87 -94 -96 12 -43 23 24
64 30 19 51 -52 -39 44 4
105 49 -22 15 5 -40 -50 -76
-3 42 37 33 44 30 8 59
-39 24 -18 59 -5 2 -14 40
-36 -56 -127 -47 18 -23 51 61
36 9 70 36 17 -27 36 39
82 45 47 8 40 -14 -25 -7
3 37 13 10 3 35 16 33
-56 42 -1 82 -9 96 81 55
14 17 49 -26 50 8 5 30
-44 -60 -15 -43 -31 -77 -8 -30
54 -9 13 9 18 34 -32 32
69 98 23 -12 -15 -35 -24 26
71 38 21 -46 -20 -79 -14 -51
57 99 98 92 30 -19 -3 -14
-27 -81 0 6 -29 -98 23 -41

tfl.pseudo_qconst i1 [1, 14, 1, 64] scale=0.03238422 zero_point=-128
00000000: 8080 8080 8080 8080 8080 8080 8080 8080
00000010: 8080 8080 8080 8080 8080 8080 8080 8080
00000020: 8080 8080 8080 8080 8080 8080 8080 8080
00000030: 8080 8080 8080 8080 8080 8080 8080 8080
00000040: 8080 8080 8080 8080 8080 8080 8080 8080
00000050: 8080 8080 8080 8080 8080 8080 8080 8080
00000060: 8080 8080 8080 8080 8080 8080 8080 8080
00000070: 8080 8080 8080 8080 8080 8080 8080 8080
00000080: 8080 8080 8080 8080 8080 8080 8080 8080
00000090: 8080 8080 8080 8080 8080 8080 8080 8080
000000a0: 8080 8080 8080 8080 8080 8080 8080 8080
000000b0: 8080 8080 8080 8080 8080 8080 8080 8080
000000c0: 8080 8080 8080 8080 8080 8080 8080 8080
000000d0: 8080 8080 8080 8080 8080 8080 8080 8080
000000e0: 8080 8080 8080 8080 8080 8080 8080 8080
000000f0: 8080 8080 8080 8080 8080 8080 8080 8080
0.0 0.0 0.0 0.0 0.0 0.0 0.0 0.0
0.0 0.0 0.0 0.0 0.0 0.0 0.0 0.0
0.0 0.0 0.0 0.0 0.0 0.0 0.0 0.0
0.0 0.0 0.0 0.0 0.0 0.0 0.0 0.0
0.0 0.0 0.0 0.0 0.0 0.0 0.0 0.0
0.0 0.0 0.0 0.0 0.0 0.0 0.0 0.0
0.0 0.0 0.0 0.0 0.0 0.0 0.0 0.0
0.0 0.0 0.0 0.0 0.0 0.0 0.0 0.0
0.0 0.0 0.0 0.0 0.0 0.0 0.0 0.0
0.0 0.0 0.0 0.0 0.0 0.0 0.0 0.0
0.0 0.0 0.0 0.0 0.0 0.0 0.0 0.0
0.0 0.0 0.0 0.0 0.0 0.0 0.0 0.0
0.0 0.0 0.0 0.0 0.0 0.0 0.0 0.0
0.0 0.0 0.0 0.0 0.0 0.0 0.0 0.0
0.0 0.0 0.0 0.0 0.0 0.0 0.0 0.0
0.0 0.0 0.0 0.0 0.0 0.0 0.0 0.0
0.0 0.0 0.0 0.0 0.0 0.0 0.0 0.0
0.0 0.0 0.0 0.0 0.0 0.0 0.0 0.0
0.0 0.0 0.0 0.0 0.0 0.0 0.0 0.0
0.0 0.0 0.0 0.0 0.0 0.0 0.0 0.0
0.0 0.0 0.0 0.0 0.0 0.0 0.0 0.0
0.0 0.0 0.0 0.0 0.0 0.0 0.0 0.0
0.0 0.0 0.0 0.0 0.0 0.0 0.0 0.0
0.0 0.0 0.0 0.0 0.0 0.0 0.0 0.0
0.0 0.0 0.0 0.0 0.0 0.0 0.0 0.0
0.0 0.0 0.0 0.0 0.0 0.0 0.0 0.0
0.0 0.0 0.0 0.0 0.0 0.0 0.0 0.0
0.0 0.0 0.0 0.0 0.0 0.0 0.0 0.0
0.0 0.0 0.0 0.0 0.0 0.0 0.0 0.0
0.0 0.0 0.0 0.0 0.0 0.0 0.0 0.0
0.0 0.0 0.0 0.0 0.0 0.0 0.0 0.0
0.0 0.0 0.0 0.0 0.0 0.0 0.0 0.0

tfl.pseudo_qconst1 i1 [1, 10, 1, 64] scale=0.04318805 zero_point=-128
00000000: 8080 8080 8080 8080 8080 8080 8080 8080
00000010: 8080 8080 8080 8080 8080 8080 8080 8080
00000020: 8080 8080 8080 8080 8080 8080 8080 8080
00000030: 8080 8080 8080 8080 8080 8080 8080 8080
00000040: 8080 8080 8080 8080 8080 8080 8080 8080
00000050: 8080 8080 8080 8080 8080 8080 8080 8080
00000060: 8080 8080 8080 8080 8080 8080 8080 8080
00000070: 8080 8080 8080 8080 8080 8080 8080 8080
00000080: 8080 8080 8080 8080 8080 8080 8080 8080
00000090: 8080 8080 8080 8080 8080 8080 8080 8080
000000a0: 8080 8080 8080 8080 8080 8080 8080 8080
000000b0: 8080 8080 8080 8080 8080 8080 8080 8080
000000c0: 8080 8080 8080 8080 8080 8080 8080 8080
000000d0: 8080 8080 8080 8080 8080 8080 8080 8080
000000e0: 8080 8080 8080 8080 8080 8080 8080 8080
000000f0: 8080 8080 8080 8080 8080 8080 8080 8080
0.0 0.0 0.0 0.0 0.0 0.0 0.0 0.0
0.0 0.0 0.0 0.0 0.0 0.0 0.0 0.0
0.0 0.0 0.0 0.0 0.0 0.0 0.0 0.0
0.0 0.0 0.0 0.0 0.0 0.0 0.0 0.0
0.0 0.0 0.0 0.0 0.0 0.0 0.0 0.0
0.0 0.0 0.0 0.0 0.0 0.0 0.0 0.0
0.0 0.0 0.0 0.0 0.0 0.0 0.0 0.0
0.0 0.0 0.0 0.0 0.0 0.0 0.0 0.0
0.0 0.0 0.0 0.0 0.0 0.0 0.0 0.0
0.0 0.0 0.0 0.0 0.0 0.0 0.0 0.0
0.0 0.0 0.0 0.0 0.0 0.0 0.0 0.0
0.0 0.0 0.0 0.0 0.0 0.0 0.0 0.0
0.0 0.0 0.0 0.0 0.0 0.0 0.0 0.0
0.0 0.0 0.0 0.0 0.0 0.0 0.0 0.0
0.0 0.0 0.0 0.0 0.0 0.0 0.0 0.0
0.0 0.0 0.0 0.0 0.0 0.0 0.0 0.0
0.0 0.0 0.0 0.0 0.0 0.0 0.0 0.0
0.0 0.0 0.0 0.0 0.0 0.0 0.0 0.0
0.0 0.0 0.0 0.0 0.0 0.0 0.0 0.0
0.0 0.0 0.0 0.0 0.0 0.0 0.0 0.0
0.0 0.0 0.0 0.0 0.0 0.0 0.0 0.0
0.0 0.0 0.0 0.0 0.0 0.0 0.0 0.0
0.0 0.0 0.0 0.0 0.0 0.0 0.0 0.0
0.0 0.0 0.0 0.0 0.0 0.0 0.0 0.0
0.0 0.0 0.0 0.0 0.0 0.0 0.0 0.0
0.0 0.0 0.0 0.0 0.0 0.0 0.0 0.0
0.0 0.0 0.0 0.0 0.0 0.0 0.0 0.0
0.0 0.0 0.0 0.0 0.0 0.0 0.0 0.0
0.0 0.0 0.0 0.0 0.0 0.0 0.0 0.0
0.0 0.0 0.0 0.0 0.0 0.0 0.0 0.0
0.0 0.0 0.0 0.0 0.0 0.0 0.0 0.0
0.0 0.0 0.0 0.0 0.0 0.0 0.0 0.0

tfl.pseudo_qconst2 i1 [1, 4, 1, 32] scale=1.0855945 zero_point=-128
00000000: 8080 8080 8080 8080 8080 8080 8080 8080
00000010: 8080 8080 8080 8080 8080 8080 8080 8080
00000020: 8080 8080 8080 8080 8080 8080 8080 8080
00000030: 8080 8080 8080 8080 8080 8080 8080 8080
00000040: 8080 8080 8080 8080 8080 8080 8080 8080
00000050: 8080 8080 8080 8080 8080 8080 8080 8080
00000060: 8080 8080 8080 8080 8080 8080 8080 8080
00000070: 8080 8080 8080 8080 8080 8080 8080 8080
0.0 0.0 0.0 0.0 0.0 0.0 0.0 0.0
0.0 0.0 0.0 0.0 0.0 0.0 0.0 0.0
0.0 0.0 0.0 0.0 0.0 0.0 0.0 0.0
0.0 0.0 0.0 0.0 0.0 0.0 0.0 0.0
0.0 0.0 0.0 0.0 0.0 0.0 0.0 0.0
0.0 0.0 0.0 0.0 0.0 0.0 0.0 0.0
0.0 0.0 0.0 0.0 0.0 0.0 0.0 0.0
0.0 0.0 0.0 0.0 0.0 0.0 0.0 0.0
0.0 0.0 0.0 0.0 0.0 0.0 0.0 0.0
0.0 0.0 0.0 0.0 0.0 0.0 0.0 0.0
0.0 0.0 0.0 0.0 0.0 0.0 0.0 0.0
0.0 0.0 0.0 0.0 0.0 0.0 0.0 0.0
0.0 0.0 0.0 0.0 0.0 0.0 0.0 0.0
0.0 0.0 0.0 0.0 0.0 0.0 0.0 0.0
0.0 0.0 0.0 0.0 0.0 0.0 0.0 0.0
0.0 0.0 0.0 0.0 0.0 0.0 0.0 0.0

tfl.pseudo_qconst3 i1 [1, 2, 1, 40] scale=0.101960786 zero_point=-128
00000000: 8080 8080 8080 8080 8080 8080 8080 8080
00000010: 8080 8080 8080 8080 8080 8080 8080 8080
00000020: 8080 8080 8080 8080 8080 8080 8080 8080
00000030: 8080 8080 8080 8080 8080 8080 8080 8080
00000040: 8080 8080 8080 8080 8080 8080 8080 8080
0.0 0.0 0.0 0.0 0.0 0.0 0.0 0.0
0.0 0.0 0.0 0.0 0.0 0.0 0.0 0.0
0.0 0.0 0.0 0.0 0.0 0.0 0.0 0.0
0.0 0.0 0.0 0.0 0.0 0.0 0.0 0.0
0.0 0.0 0.0 0.0 0.0 0.0 0.0 0.0
0.0 0.0 0.0 0.0 0.0 0.0 0.0 0.0
0.0 0.0 0.0 0.0 0.0 0.0 0.0 0.0
0.0 0.0 0.0 0.0 0.0 0.0 0.0 0.0
0.0 0.0 0.0 0.0 0.0 0.0 0.0 0.0
0.0 0.0 0.0 0.0 0.0 0.0 0.0 0.0

tfl.pseudo_qconst4 i1 [1, 16, 1, 64] scale=0.022676554 zero_point=-128
00000000: 8080 8080 8080 8080 8080 8080 8080 8080
00000010: 8080 8080 8080 8080 8080 8080 8080 8080
00000020: 8080 8080 8080 8080 8080 8080 8080 8080
00000030: 8080 8080 8080 8080 8080 8080 8080 8080
00000040: 8080 8080 8080 8080 8080 8080 8080 8080
00000050: 8080 8080 8080 8080 8080 8080 8080 8080
00000060: 8080 8080 8080 8080 8080 8080 8080 8080
00000070: 8080 8080 8080 8080 8080 8080 8080 8080
00000080: 8080 8080 8080 8080 8080 8080 8080 8080
00000090: 8080 8080 8080 8080 8080 8080 8080 8080
000000a0: 8080 8080 8080 8080 8080 8080 8080 8080
000000b0: 8080 8080 8080 8080 8080 8080 8080 8080
000000c0: 8080 8080 8080 8080 8080 8080 8080 8080
000000d0: 8080 8080 8080 8080 8080 8080 8080 8080
000000e0: 8080 8080 8080 8080 8080 8080 8080 8080
000000f0: 8080 8080 8080 8080 8080 8080 8080 8080
0.0 0.0 0.0 0.0 0.0 0.0 0.0 0.0
0.0 0.0 0.0 0.0 0.0 0.0 0.0 0.0
0.0 0.0 0.0 0.0 0.0 0.0 0.0 0.0
0.0 0.0 0.0 0.0 0.0 0.0 0.0 0.0
0.0 0.0 0.0 0.0 0.0 0.0 0.0 0.0
0.0 0.0 0.0 0.0 0.0 0.0 0.0 0.0
0.0 0.0 0.0 0.0 0.0 0.0 0.0 0.0
0.0 0.0 0.0 0.0 0.0 0.0 0.0 0.0
0.0 0.0 0.0 0.0 0.0 0.0 0.0 0.0
0.0 0.0 0.0 0.0 0.0 0.0 0.0 0.0
0.0 0.0 0.0 0.0 0.0 0.0 0.0 0.0
0.0 0.0 0.0 0.0 0.0 0.0 0.0 0.0
0.0 0.0 0.0 0.0 0.0 0.0 0.0 0.0
0.0 0.0 0.0 0.0 0.0 0.0 0.0 0.0
0.0 0.0 0.0 0.0 0.0 0.0 0.0 0.0
0.0 0.0 0.0 0.0 0.0 0.0 0.0 0.0
0.0 0.0 0.0 0.0 0.0 0.0 0.0 0.0
0.0 0.0 0.0 0.0 0.0 0.0 0.0 0.0
0.0 0.0 0.0 0.0 0.0 0.0 0.0 0.0
0.0 0.0 0.0 0.0 0.0 0.0 0.0 0.0
0.0 0.0 0.0 0.0 0.0 0.0 0.0 0.0
0.0 0.0 0.0 0.0 0.0 0.0 0.0 0.0
0.0 0.0 0.0 0.0 0.0 0.0 0.0 0.0
0.0 0.0 0.0 0.0 0.0 0.0 0.0 0.0
0.0 0.0 0.0 0.0 0.0 0.0 0.0 0.0
0.0 0.0 0.0 0.0 0.0 0.0 0.0 0.0
0.0 0.0 0.0 0.0 0.0 0.0 0.0 0.0
0.0 0.0 0.0 0.0 0.0 0.0 0.0 0.0
0.0 0.0 0.0 0.0 0.0 0.0 0.0 0.0
0.0 0.0 0.0 0.0 0.0 0.0 0.0 0.0
0.0 0.0 0.0 0.0 0.0 0.0 0.0 0.0
0.0 0.0 0.0 0.0 0.0 0.0 0.0 0.0

tfl.pseudo_qconst5 i1 [1, 22, 1, 64] scale=0.03188509 zero_point=-128
00000000: 8080 8080 8080 8080 8080 8080 8080 8080
00000010: 8080 8080 8080 8080 8080 8080 8080 8080
00000020: 8080 8080 8080 8080 8080 8080 8080 8080
00000030: 8080 8080 8080 8080 8080 8080 8080 8080
00000040: 8080 8080 8080 8080 8080 8080 8080 8080
00000050: 8080 8080 8080 8080 8080 8080 8080 8080
00000060: 8080 8080 8080 8080 8080 8080 8080 8080
00000070: 8080 8080 8080 8080 8080 8080 8080 8080
00000080: 8080 8080 8080 8080 8080 8080 8080 8080
00000090: 8080 8080 8080 8080 8080 8080 8080 8080
000000a0: 8080 8080 8080 8080 8080 8080 8080 8080
000000b0: 8080 8080 8080 8080 8080 8080 8080 8080
000000c0: 8080 8080 8080 8080 8080 8080 8080 8080
000000d0: 8080 8080 8080 8080 8080 8080 8080 8080
000000e0: 8080 8080 8080 8080 8080 8080 8080 8080
000000f0: 8080 8080 8080 8080 8080 8080 8080 8080
0.0 0.0 0.0 0.0 0.0 0.0 0.0 0.0
0.0 0.0 0.0 0.0 0.0 0.0 0.0 0.0
0.0 0.0 0.0 0.0 0.0 0.0 0.0 0.0
0.0 0.0 0.0 0.0 0.0 0.0 0.0 0.0
0.0 0.0 0.0 0.0 0.0 0.0 0.0 0.0
0.0 0.0 0.0 0.0 0.0 0.0 0.0 0.0
0.0 0.0 0.0 0.0 0.0 0.0 0.0 0.0
0.0 0.0 0.0 0.0 0.0 0.0 0.0 0.0
0.0 0.0 0.0 0.0 0.0 0.0 0.0 0.0
0.0 0.0 0.0 0.0 0.0 0.0 0.0 0.0
0.0 0.0 0.0 0.0 0.0 0.0 0.0 0.0
0.0 0.0 0.0 0.0 0.0 0.0 0.0 0.0
0.0 0.0 0.0 0.0 0.0 0.0 0.0 0.0
0.0 0.0 0.0 0.0 0.0 0.0 0.0 0.0
0.0 0.0 0.0 0.0 0.0 0.0 0.0 0.0
0.0 0.0 0.0 0.0 0.0 0.0 0.0 0.0
0.0 0.0 0.0 0.0 0.0 0.0 0.0 0.0
0.0 0.0 0.0 0.0 0.0 0.0 0.0 0.0
0.0 0.0 0.0 0.0 0.0 0.0 0.0 0.0
0.0 0.0 0.0 0.0 0.0 0.0 0.0 0.0
0.0 0.0 0.0 0.0 0.0 0.0 0.0 0.0
0.0 0.0 0.0 0.0 0.0 0.0 0.0 0.0
0.0 0.0 0.0 0.0 0.0 0.0 0.0 0.0
0.0 0.0 0.0 0.0 0.0 0.0 0.0 0.0
0.0 0.0 0.0 0.0 0.0 0.0 0.0 0.0
0.0 0.0 0.0 0.0 0.0 0.0 0.0 0.0
0.0 0.0 0.0 0.0 0.0 0.0 0.0 0.0
0.0 0.0 0.0 0.0 0.0 0.0 0.0 0.0
0.0 0.0 0.0 0.0 0.0 0.0 0.0 0.0
0.0 0.0 0.0 0.0 0.0 0.0 0.0 0.0
0.0 0.0 0.0 0.0 0.0 0.0 0.0 0.0
0.0 0.0 0.0 0.0 0.0 0.0 0.0 0.0
