assist_satellite/wakewords/hey_luna.tflite (tflite, 75616 bytes, 18 tensors)

tfl.pseudo_qconst1 i1 [1, 1088] scale=0.0019887062 zero_point=0
0	0x3e	0.123299785
1	0xda	-0.07557084
2	0x01	0.0019887062
3	0x00	0.0
4	0xfd	-0.0059661185
5	0x3b	0.117333665
6	0x0f	0.029830594
7	0xdd	-0.06960472
8	0x12	0.03579671
9	0x18	0.04772895
10	0xe1	-0.061649892
11	0xd8	-0.07954825
12	0x0f	0.029830594
13	0xdb	-0.07358213
14	0xbc	-0.13523202
15	0x13	0.03778542
16	0xf0	-0.0318193
17	0xef	-0.033808004
18	0x16	0.043751538
19	0xd2	-0.091480486
20	0x25	0.07358213
21	0xc7	-0.113356255
22	0x01	0.0019887062
23	0x9a	-0.20284803
24	0xdb	-0.07358213
25	0x29	0.081536956
26	0xc2	-0.123299785
27	0x2d	0.08949178
28	0x22	0.06761601
29	0xe8	-0.04772895
30	0x0c	0.023864474
31	0x31	0.097446606
32	0x16	0.043751538
33	0xf7	-0.017898355
34	0xe9	-0.045740243
35	0x2b	0.08551437
36	0xac	-0.16705132
37	0xeb	-0.04176283
38	0x17	0.045740243
39	0x26	0.07557084
40	0xe2	-0.059661187
41	0x35	0.10540143
42	0xf0	-0.0318193
43	0xe6	-0.05170636
44	0xed	-0.03778542
45	0xc9	-0.10937884
46	0xc4	-0.119322374
47	0xc1	-0.12528849
48	0x02	0.0039774124
49	0xe8	-0.04772895
50	0xb8	-0.14318684
51	0x10	0.0318193
52	0xda	-0.07557084
53	0xf0	-0.0318193
54	0xff	-0.0019887062
55	0x0e	0.027841887
56	0xda	-0.07557084
57	0xd9	-0.07755954
58	0xfe	-0.0039774124
59	0xba	-0.13920943
60	0xbd	-0.13324331
61	0x43	0.13324331
62	0xd4	-0.087503076
63	0x02	0.0039774124
64	0x34	0.10341272
65	0xb3	-0.15313038
66	0xdb	-0.07358213
67	0xe1	-0.061649892
68	0xe1	-0.061649892
69	0x09	0.017898355
70	0xcf	-0.097446606
71	0xf9	-0.013920943
72	0x0a	0.019887062
73	0xf4	-0.023864474
74	0xfd	-0.0059661185
75	0x11	0.033808004
76	0x00	0.0
77	0xe4	-0.055683773
78	0xc0	-0.1272772
79	0x14	0.039774124
80	0x08	0.01590965
81	0xee	-0.03579671
82	0x2c	0.087503076
83	0xc5	-0.117333665
84	0x18	0.04772895
85	0xd7	-0.081536956
86	0xfd	-0.0059661185
87	0xb0	-0.1590965
88	0xc9	-0.10937884
89	0xe3	-0.05767248
90	0xaa	-0.17102873
91	0x1b	0.053695068
92	0x10	0.0318193
93	0xdd	-0.06960472
94	0xd3	-0.08949178
95	0x06	0.011932237
96	0x00	0.0
97	0xfe	-0.0039774124
98	0xcc	-0.10341272
99	0x0e	0.027841887
100	0xec	-0.039774124
101	0xdb	-0.07358213
102	0x04	0.007954825
103	0x17	0.045740243
104	0xc6	-0.11534496
105	0x0e	0.027841887
106	0xd8	-0.07954825
107	0x12	0.03579671
108	0xdd	-0.06960472
109	0xf4	-0.023864474
110	0xcf	-0.097446606
111	0xfc	-0.007954825
112	0xea	-0.043751538
113	0xf4	-0.023864474
114	0xce	-0.09943531
115	0x11	0.033808004
116	0xfa	-0.011932237
117	0xfd	-0.0059661185
118	0x0d	0.02585318
119	0xe6	-0.05170636
120	0xd6	-0.08352566
121	0xe9	-0.045740243
122	0xe9	-0.045740243
123	0xdc	-0.07159342
124	0xf0	-0.0318193
125	0xfc	-0.007954825
126	0xd3	-0.08949178
127	0xdb	-0.07358213
128	0x06	0.011932237
129	0xf0	-0.0318193
130	0xf2	-0.027841887
131	0xf1	-0.029830594
132	0xfc	-0.007954825
133	0x1c	0.055683773
134	0xcd	-0.101424016
135	0xc6	-0.11534496
136	0xd3	-0.08949178
137	0xdb	-0.07358213
138	0xf0	-0.0318193
139	0xfd	-0.0059661185
140	0xee	-0.03579671
141	0xeb	-0.04176283
142	0xd9	-0.07755954
143	0x0c	0.023864474
144	0xf9	-0.013920943
145	0xfd	-0.0059661185
146	0x16	0.043751538
147	0xea	-0.043751538
148	0x24	0.07159342
149	0xfa	-0.011932237
150	0xf4	-0.023864474
151	0xdb	-0.07358213
152	0xe3	-0.05767248
153	0xf3	-0.02585318
154	0xe5	-0.053695068
155	0xf1	-0.029830594
156	0xd9	-0.07755954
157	0xe7	-0.049717654
158	0xc4	-0.119322374
159	0xf2	-0.027841887
160	0xd6	-0.08352566
161	0xe5	-0.053695068
162	0xd7	-0.081536956
163	0x15	0.04176283
164	0xbd	-0.13324331
165	0xd7	-0.081536956
166	0xf0	-0.0318193
167	0x1a	0.05170636
168	0xec	-0.039774124
169	0x04	0.007954825
170	0xe8	-0.04772895
171	0x0f	0.029830594
172	0xd4	-0.087503076
173	0xcb	-0.10540143
174	0xce	-0.09943531
175	0x18	0.04772895
176	0xfb	-0.009943531
177	0xdf	-0.06562731
178	0xea	-0.043751538
179	0xe2	-0.059661187
180	0xee	-0.03579671
181	0x09	0.017898355
182	0x06	0.011932237
183	0x16	0.043751538
184	0xff	-0.0019887062
185	0x0f	0.029830594
186	0x06	0.011932237
187	0xfd	-0.0059661185
188	0xd2	-0.091480486
189	0x25	0.07358213
190	0x00	0.0
191	0x20	0.0636386
192	0xf7	-0.017898355
193	0xd4	-0.087503076
194	0xca	-0.107390136
195	0x10	0.0318193
196	0xfa	-0.011932237
197	0x30	0.0954579
198	0xf6	-0.019887062
199	0xdb	-0.07358213
200	0xe0	-0.0636386
201	0xef	-0.033808004
202	0xfe	-0.0039774124
203	0x15	0.04176283
204	0x03	0.0059661185
205	0xd6	-0.08352566
206	0xb5	-0.14915296
207	0xf0	-0.0318193
208	0xde	-0.06761601
209	0xd6	-0.08352566
210	0x0c	0.023864474
211	0xe1	-0.061649892
212	0x19	0.049717654
213	0xd0	-0.0954579
214	0x04	0.007954825
215	0xad	-0.1650626
216	0x16	0.043751538
217	0x14	0.039774124
218	0x02	0.0039774124
219	0xec	-0.039774124
220	0xdf	-0.06562731
221	0xfd	-0.0059661185
222	0xe1	-0.061649892
223	0x0d	0.02585318
224	0xd8	-0.07954825
225	0xc5	-0.117333665
226	0xcf	-0.097446606
227	0x15	0.04176283
228	0x05	0.009943531
229	0xdd	-0.06960472
230	0x00	0.0
231	0x0b	0.021875769
232	0xf8	-0.01590965
233	0xda	-0.07557084
234	0xcc	-0.10341272
235	0xfc	-0.007954825
236	0xd4	-0.087503076
237	0xf6	-0.019887062
238	0xcc	-0.10341272
239	0xdf	-0.06562731
240	0xd7	-0.081536956
241	0xf7	-0.017898355
242	0xfc	-0.007954825
243	0xf3	-0.02585318
244	0xd1	-0.09346919
245	0xf4	-0.023864474
246	0xff	-0.0019887062
247	0xef	-0.033808004
248	0xed	-0.03778542
249	0xdb	-0.07358213
250	0x0d	0.02585318
251	0xd1	-0.09346919
252	0xdc	-0.07159342
253	0xe0	-0.0636386
254	0xf5	-0.021875769
255	0x2c	0.087503076

tfl.pseudo_qconst3 i1 [64, 1, 1, 64]
0	0x81	-127
1	0x2d	45
2	0x2a	42
3	0xe3	-29
4	0xb4	-76
5	0x90	-112
6	0x96	-106
7	0xeb	-21
8	0x07	7
9	0x44	68
10	0xf5	-11
11	0xbc	-68
12	0x0d	13
13	0x9a	-102
14	0x26	38
15	0x46	70
16	0x0d	13
17	0x47	71
18	0xf1	-15
19	0xda	-38
20	0xf9	-7
21	0xf1	-15
22	0xfe	-2
23	0x1a	26
24	0xf9	-7
25	0x28	40
26	0x00	0
27	0xf3	-13
28	0x08	8
29	0xb5	-75
30	0x8d	-115
31	0xda	-38
32	0xe4	-28
33	0xea	-22
34	0xeb	-21
35	0x3c	60
36	0xbd	-67
37	0xe9	-23
38	0xf7	-9
39	0xb1	-79
40	0xe8	-24
41	0x41	65
42	0x15	21
43	0x01	1
44	0xd9	-39
45	0x2b	43
46	0x34	52
47	0xfd	-3
48	0xc7	-57
49	0xe1	-31
50	0x29	41
51	0x1e	30
52	0xd9	-39
53	0x09	9
54	0xd8	-40
55	0x37	55
56	0x87	-121
57	0x1e	30
58	0x6c	108
59	0x10	16
60	0xc5	-59
61	0xe1	-31
62	0x5b	91
63	0xca	-54
64	0xc5	-59
65	0x1f	31
66	0xc6	-58
67	0x3b	59
68	0xd5	-43
69	0xdb	-37
70	0xf5	-11
71	0xd6	-42
72	0x54	84
73	0x24	36
74	0x03	3
75	0xf0	-16
76	0x1d	29
77	0x06	6
78	0xd3	-45
79	0xe5	-27
80	0x24	36
81	0x45	69
82	0xf2	-14
83	0x20	32
84	0x55	85
85	0x35	53
86	0x1b	27
87	0x25	37
88	0x12	18
89	0xf7	-9
90	0xb1	-79
91	0x0d	13
92	0x17	23
93	0xf3	-13
94	0xfc	-4
95	0xfc	-4
96	0x38	56
97	0xe8	-24
98	0x00	0
99	0x43	67
100	0xa4	-92
101	0x41	65
102	0x29	41
103	0xd9	-39
104	0x25	37
105	0x7f	127
106	0x17	23
107	0xf4	-12
108	0xb6	-74
109	0x23	35
110	0x13	19
111	0x32	50
112	0xe5	-27
113	0x3d	61
114	0xfc	-4
115	0xc8	-56
116	0xdb	-37
117	0xed	-19
118	0x06	6
119	0x3f	63
120	0x1e	30
121	0xf4	-12
122	0xcc	-52
123	0xc5	-59
124	0xfa	-6
125	0x03	3
126	0xee	-18
127	0x19	25
128	0xea	-22
129	0xfd	-3
130	0xfa	-6
131	0xda	-38
132	0x3f	63
133	0xd3	-45
134	0xbf	-65
135	0x28	40
136	0x17	23
137	0x63	99
138	0xdc	-36
139	0x37	55
140	0x1f	31
141	0x14	20
142	0x03	3
143	0xc5	-59
144	0x01	1
145	0xc7	-57
146	0xe8	-24
147	0x88	-120
148	0x30	48
149	0xbe	-66
150	0x08	8
151	0xe2	-30
152	0x03	3
153	0x51	81
154	0xce	-50
155	0xbd	-67
156	0xf4	-12
157	0x2f	47
158	0x06	6
159	0x08	8
160	0xb6	-74
161	0x42	66
162	0xd9	-39
163	0x25	37
164	0x09	9
165	0x0d	13
166	0x27	39
167	0xc2	-62
168	0x13	19
169	0xb8	-72
170	0xfd	-3
171	0xe1	-31
172	0x3a	58
173	0xa3	-93
174	0xba	-70
175	0x40	64
176	0xb4	-76
177	0x53	83
178	0xbe	-66
179	0xc1	-63
180	0x1e	30
181	0x26	38
182	0xc4	-60
183	0x4c	76
184	0x81	-127
185	0xaa	-86
186	0x13	19
187	0x57	87
188	0x09	9
189	0x1f	31
190	0x9e	-98
191	0xe5	-27
192	0xfc	-4
193	0xa9	-87
194	0x37	55
195	0xd1	-47
196	0x11	17
197	0xe2	-30
198	0x40	64
199	0x79	121
200	0x43	67
201	0x34	52
202	0x63	99
203	0x74	116
204	0x73	115
205	0x1e	30
206	0xe3	-29
207	0x5c	92
208	0x47	71
209	0x03	3
210	0x15	21
211	0xd3	-45
212	0xe8	-24
213	0x25	37
214	0xfb	-5
215	0xbf	-65
216	0xeb	-21
217	0xc9	-55
218	0x4a	74
219	0xe7	-25
220	0xf1	-15
221	0x35	53
222	0x27	39
223	0x0c	12
224	0x46	70
225	0x45	69
226	0x11	17
227	0x93	-109
228	0xcf	-49
229	0x2a	42
230	0x02	2
231	0x48	72
232	0x28	40
233	0xe7	-25
234	0xd0	-48
235	0xcc	-52
236	0x08	8
237	0xe1	-31
238	0xe0	-32
239	0xfb	-5
240	0xe8	-24
241	0x0e	14
242	0x15	21
243	0x13	19
244	0x23	35
245	0xc9	-55
246	0xa2	-94
247	0xb1	-79
248	0xd5	-43
249	0x2d	45
250	0xd4	-44
251	0x1a	26
252	0xc5	-59
253	0x56	86
254	0x81	-127
255	0x2c	44

tfl.pseudo_qconst5 i1 [1, 23, 1, 64]
0	0x07	7
1	0x03	3
2	0xae	-82
3	0x7f	127
4	0xae	-82
5	0x3e	62
6	0xeb	-21
7	0xb9	-71
8	0x53	83
9	0xa4	-92
10	0xa6	-90
11	0x69	105
12	0xe6	-26
13	0xff	-1
14	0xf5	-11
15	0x43	67
16	0xcf	-49
17	0x61	97
18	0x81	-127
19	0x7f	127
20	0x55	85
21	0x85	-123
22	0x13	19
23	0x16	22
24	0xc5	-59
25	0xb9	-71
26	0xcf	-49
27	0xe2	-30
28	0xd8	-40
29	0x7f	127
30	0xd0	-48
31	0x00	0
32	0xfc	-4
33	0x38	56
34	0xf5	-11
35	0x09	9
36	0xba	-70
37	0xea	-22
38	0x18	24
39	0xbc	-68
40	0x75	117
41	0xbd	-67
42	0x81	-127
43	0x51	81
44	0x7b	123
45	0xbc	-68
46	0xe6	-26
47	0x54	84
48	0x2c	44
49	0x0f	15
50	0x81	-127
51	0x00	0
52	0xc2	-62
53	0x56	86
54	0x57	87
55	0xf9	-7
56	0x7f	127
57	0xfb	-5
58	0x7f	127
59	0x13	19
60	0x54	84
61	0xcd	-51
62	0x7f	127
63	0xf1	-15
64	0xa7	-89
65	0x5c	92
66	0xca	-54
67	0x2f	47
68	0xa7	-89
69	0x28	40
70	0xde	-34
71	0xae	-82
72	0x7f	127
73	0xae	-82
74	0xd7	-41
75	0xfc	-4
76	0xe6	-26
77	0x06	6
78	0x6f	111
79	0x7f	127
80	0x05	5
81	0x3f	63
82	0xac	-84
83	0x57	87
84	0x56	86
85	0xd1	-47
86	0x2e	46
87	0x27	39
88	0xec	-20
89	0xab	-85
90	0xc6	-58
91	0x02	2
92	0x89	-119
93	0x5f	95
94	0xcf	-49
95	0xed	-19
96	0x16	22
97	0x42	66
98	0xfe	-2
99	0x29	41
100	0xf2	-14
101	0xbc	-68
102	0x2b	43
103	0x0f	15
104	0x7b	123
105	0xad	-83
106	0x98	-104
107	0x1e	30
108	0x7f	127
109	0x9a	-102
110	0xf0	-16
111	0x2e	46
112	0x25	37
113	0x44	68
114	0xb3	-77
115	0xdf	-33
116	0x06	6
117	0x46	70
118	0x6d	109
119	0xac	-84
120	0x71	113
121	0x81	-127
122	0x57	87
123	0x01	1
124	0x13	19
125	0xed	-19
126	0x44	68
127	0x25	37
128	0x0f	15
129	0x52	82
130	0xc0	-64
131	0x0c	12
132	0x4c	76
133	0xdd	-35
134	0xef	-17
135	0xce	-50
136	0x35	53
137	0xe4	-28
138	0xe7	-25
139	0x1c	28
140	0xec	-20
141	0xe7	-25
142	0x61	97
143	0x29	41
144	0xdf	-33
145	0x35	53
146	0xd1	-47
147	0x2b	43
148	0x42	66
149	0xc7	-57
150	0xd3	-45
151	0x40	64
152	0xef	-17
153	0xc6	-58
154	0x15	21
155	0x29	41
156	0xaa	-86
157	0x7d	125
158	0xc8	-56
159	0x00	0
160	0x20	32
161	0x40	64
162	0x38	56
163	0x20	32
164	0xaa	-86
165	0xcc	-52
166	0x24	36
167	0xd7	-41
168	0x67	103
169	0xa6	-90
170	0xca	-54
171	0x32	50
172	0x67	103
173	0x82	-126
174	0xfa	-6
175	0x52	82
176	0x37	55
177	0x4c	76
178	0xc3	-61
179	0xed	-19
180	0xcf	-49
181	0xf0	-16
182	0x29	41
183	0x81	-127
184	0x60	96
185	0xb5	-75
186	0x25	37
187	0x3c	60
188	0x03	3
189	0x20	32
190	0x51	81
191	0xf4	-12
192	0xa4	-92
193	0x15	21
194	0x98	-104
195	0x31	49
196	0xf3	-13
197	0x92	-110
198	0x1d	29
199	0x0b	11
200	0x4e	78
201	0x2a	42
202	0xe1	-31
203	0x7f	127
204	0xfc	-4
205	0x06	6
206	0x51	81
207	0x2b	43
208	0xe8	-24
209	0xf9	-7
210	0xcd	-51
211	0x26	38
212	0x38	56
213	0xf3	-13
214	0xb9	-71
215	0x7f	127
216	0xe5	-27
217	0xf1	-15
218	0xe7	-25
219	0xe5	-27
220	0xc3	-61
221	0x5f	95
222	0xc5	-59
223	0x1a	26
224	0xf9	-7
225	0x36	54
226	0x0a	10
227	0x28	40
228	0xd0	-48
229	0x12	18
230	0x1b	27
231	0xdc	-36
232	0x6e	110
233	0xa7	-89
234	0x20	32
235	0x0d	13
236	0x31	49
237	0x9a	-102
238	0xdb	-37
239	0xdd	-35
240	0x43	67
241	0x14	20
242	0xf0	-16
243	0x42	66
244	0x2a	42
245	0x27	39
246	0x41	65
247	0x2e	46
248	0x20	32
249	0xa2	-94
250	0x01	1
251	0x08	8
252	0x8c	-116
253	0xe2	-30
254	0xfc	-4
255	0x00	0

tfl.pseudo_qconst7 i1 [64, 1, 1, 64]
0	0xee	-18
1	0xea	-22
2	0xd6	-42
3	0xdc	-36
4	0x61	97
5	0xee	-18
6	0x8e	-114
7	0xea	-22
8	0x19	25
9	0x59	89
10	0x32	50
11	0x6c	108
12	0x3a	58
13	0xf1	-15
14	0xea	-22
15	0x3a	58
16	0xba	-70
17	0x3e	62
18	0x11	17
19	0x0e	14
20	0xce	-50
21	0x22	34
22	0x2f	47
23	0xc6	-58
24	0x0b	11
25	0xa9	-87
26	0xca	-54
27	0x27	39
28	0xe9	-23
29	0xfc	-4
30	0x10	16
31	0x18	24
32	0x53	83
33	0xeb	-21
34	0x2b	43
35	0x14	20
36	0xa6	-90
37	0x42	66
38	0xff	-1
39	0x7f	127
40	0xed	-19
41	0xc9	-55
42	0xf4	-12
43	0xca	-54
44	0x28	40
45	0xc1	-63
46	0xc4	-60
47	0xb3	-77
48	0x99	-103
49	0xe9	-23
50	0x90	-112
51	0xa4	-92
52	0x3b	59
53	0xb1	-79
54	0x12	18
55	0x4e	78
56	0xbb	-69
57	0xae	-82
58	0xc3	-61
59	0xf0	-16
60	0xff	-1
61	0x0e	14
62	0x24	36
63	0xa2	-94
64	0x02	2
65	0x34	52
66	0x99	-103
67	0xfe	-2
68	0x3d	61
69	0xb9	-71
70	0x2d	45
71	0x25	37
72	0x42	66
73	0x34	52
74	0xf5	-11
75	0xd5	-43
76	0x17	23
77	0xa7	-89
78	0x16	22
79	0x74	116
80	0xdf	-33
81	0xcf	-49
82	0x25	37
83	0xd3	-45
84	0xff	-1
85	0x74	116
86	0xfc	-4
87	0xd9	-39
88	0x28	40
89	0x17	23
90	0x6d	109
91	0xb1	-79
92	0x84	-124
93	0xb3	-77
94	0xca	-54
95	0x0d	13
96	0x32	50
97	0xf6	-10
98	0xfc	-4
99	0x5d	93
100	0x6f	111
101	0xbc	-68
102	0x29	41
103	0x13	19
104	0x5e	94
105	0xed	-19
106	0x56	86
107	0xcc	-52
108	0x21	33
109	0xf7	-9
110	0x6a	106
111	0x13	19
112	0xf4	-12
113	0xab	-85
114	0xb4	-76
115	0x89	-119
116	0x22	34
117	0x25	37
118	0xad	-83
119	0xf2	-14
120	0x7f	127
121	0xca	-54
122	0x8f	-113
123	0x5f	95
124	0x22	34
125	0x03	3
126	0xf3	-13
127	0x06	6
128	0x4e	78
129	0xc7	-57
130	0xcf	-49
131	0x47	71
132	0xd7	-41
133	0xeb	-21
134	0xa1	-95
135	0xec	-20
136	0xd3	-45
137	0x09	9
138	0x5f	95
139	0x53	83
140	0x46	70
141	0x32	50
142	0x1f	31
143	0x01	1
144	0xfc	-4
145	0x1e	30
146	0x2c	44
147	0x1c	28
148	0xd9	-39
149	0x1e	30
150	0x2d	45
151	0x39	57
152	0xdc	-36
153	0x2f	47
154	0xf7	-9
155	0xd4	-44
156	0x4a	74
157	0x43	67
158	0x91	-111
159	0xe2	-30
160	0xf7	-9
161	0x47	71
162	0x13	19
163	0x54	84
164	0xfa	-6
165	0xbb	-69
166	0xd8	-40
167	0x75	117
168	0xe3	-29
169	0x0b	11
170	0xd3	-45
171	0x09	9
172	0x48	72
173	0xe8	-24
174	0x30	48
175	0xf5	-11
176	0xd2	-46
177	0x0d	13
178	0x92	-110
179	0x5c	92
180	0x0c	12
181	0x81	-127
182	0xf6	-10
183	0x28	40
184	0xe4	-28
185	0x6f	111
186	0x09	9
187	0x44	68
188	0x06	6
189	0xf0	-16
190	0xfd	-3
191	0x4c	76
192	0xff	-1
193	0x32	50
194	0xf4	-12
195	0x06	6
196	0x16	22
197	0x42	66
198	0xd5	-43
199	0xf7	-9
200	0x29	41
201	0x23	35
202	0xc5	-59
203	0x0d	13
204	0x36	54
205	0xb4	-76
206	0x13	19
207	0xda	-38
208	0x03	3
209	0x33	51
210	0x08	8
211	0x2a	42
212	0xf0	-16
213	0x01	1
214	0xfd	-3
215	0xfc	-4
216	0x2d	45
217	0xda	-38
218	0xdc	-36
219	0xf6	-10
220	0x81	-127
221	0x3e	62
222	0x0c	12
223	0x0b	11
224	0xee	-18
225	0x0e	14
226	0xa7	-89
227	0xee	-18
228	0xe0	-32
229	0x11	17
230	0xc7	-57
231	0xda	-38
232	0xe8	-24
233	0xe9	-23
234	0xdb	-37
235	0xbf	-65
236	0x2d	45
237	0x04	4
238	0x4c	76
239	0x26	38
240	0x09	9
241	0xb1	-79
242	0x34	52
243	0x08	8
244	0xbc	-68
245	0x3f	63
246	0xd4	-44
247	0xd4	-44
248	0x99	-103
249	0xed	-19
250	0xf8	-8
251	0xea	-22
252	0x21	33
253	0x13	19
254	0xcd	-51
255	0x3c	60

tfl.pseudo_qconst9 i1 [1, 15, 1, 32]
0	0x96	-106
1	0xab	-85
2	0x97	-105
3	0xeb	-21
4	0xde	-34
5	0x4b	75
6	0xb6	-74
7	0x33	51
8	0x5f	95
9	0xda	-38
10	0x81	-127
11	0x27	39
12	0x17	23
13	0x1e	30
14	0xbf	-65
15	0x81	-127
16	0x7f	127
17	0x10	16
18	0xea	-22
19	0x34	52
20	0x81	-127
21	0x81	-127
22	0x05	5
23	0x5f	95
24	0x4d	77
25	0xad	-83
26	0x19	25
27	0x08	8
28	0xdc	-36
29	0xd9	-39
30	0xb1	-79
31	0x4d	77
32	0xfb	-5
33	0xac	-84
34	0xa2	-94
35	0xf3	-13
36	0xca	-54
37	0x6c	108
38	0x29	41
39	0xe6	-26
40	0x27	39
41	0xbf	-65
42	0xfd	-3
43	0x0c	12
44	0x4d	77
45	0xdf	-33
46	0x4d	77
47	0x81	-127
48	0x22	34
49	0x17	23
50	0xd4	-44
51	0x6b	107
52	0xb5	-75
53	0xdf	-33
54	0x32	50
55	0x42	66
56	0x04	4
57	0xf6	-10
58	0x1f	31
59	0xc3	-61
60	0x04	4
61	0xb5	-75
62	0x0c	12
63	0xe2	-30
64	0x12	18
65	0xdf	-33
66	0xfc	-4
67	0x01	1
68	0xe2	-30
69	0x4a	74
70	0xda	-38
71	0xb7	-73
72	0x49	73
73	0x3f	63
74	0xb9	-71
75	0x4a	74
76	0xdc	-36
77	0x11	17
78	0xec	-20
79	0x31	49
80	0x41	65
81	0x4b	75
82	0xc5	-59
83	0x5c	92
84	0xb6	-74
85	0xb5	-75
86	0x4e	78
87	0x79	121
88	0x7f	127
89	0x31	49
90	0x2b	43
91	0xd2	-46
92	0x33	51
93	0xb9	-71
94	0xdf	-33
95	0x27	39
96	0xf9	-7
97	0x5a	90
98	0xbe	-66
99	0x0f	15
100	0xac	-84
101	0x7f	127
102	0x13	19
103	0x42	66
104	0x52	82
105	0x67	103
106	0xb6	-74
107	0x36	54
108	0x87	-121
109	0xf3	-13
110	0x20	32
111	0x70	112
112	0x19	25
113	0x69	105
114	0xef	-17
115	0xf8	-8
116	0x10	16
117	0xdc	-36
118	0x0f	15
119	0x7f	127
120	0x3f	63
121	0xad	-83
122	0x81	-127
123	0xff	-1
124	0x52	82
125	0xbd	-67
126	0x11	17
127	0x81	-127
128	0xf6	-10
129	0x52	82
130	0xb4	-76
131	0x1e	30
132	0x81	-127
133	0x2b	43
134	0xe9	-23
135	0x1e	30
136	0xde	-34
137	0xd2	-46
138	0x0a	10
139	0xc8	-56
140	0x47	71
141	0xd9	-39
142	0x45	69
143	0x69	105
144	0xcf	-49
145	0x1f	31
146	0xd4	-44
147	0x7f	127
148	0xeb	-21
149	0x0c	12
150	0xcc	-52
151	0xc2	-62
152	0x47	71
153	0xaf	-81
154	0xae	-82
155	0x2e	46
156	0x52	82
157	0xd6	-42
158	0xbe	-66
159	0xba	-70
160	0xe8	-24
161	0x53	83
162	0x00	0
163	0x0e	14
164	0xd1	-47
165	0xc2	-62
166	0x88	-120
167	0xd7	-41
168	0xba	-70
169	0x7c	124
170	0xc6	-58
171	0x91	-111
172	0x7f	127
173	0xf1	-15
174	0x36	54
175	0xe8	-24
176	0xa3	-93
177	0x6e	110
178	0xd3	-45
179	0x2b	43
180	0x48	72
181	0xf4	-12
182	0x50	80
183	0x31	49
184	0x2f	47
185	0x11	17
186	0xae	-82
187	0x1e	30
188	0x77	119
189	0x32	50
190	0xc2	-62
191	0x3b	59
192	0xd7	-41
193	0xb6	-74
194	0xc6	-58
195	0x1f	31
196	0x0b	11
197	0xb3	-77
198	0x0c	12
199	0x07	7
200	0xed	-19
201	0x7f	127
202	0xb7	-73
203	0x81	-127
204	0x14	20
205	0x25	37
206	0x3a	58
207	0xd2	-46
208	0x0c	12
209	0x4b	75
210	0x00	0
211	0x12	18
212	0x50	80
213	0xea	-22
214	0x73	115
215	0xd2	-46
216	0x69	105
217	0x0e	14
218	0xeb	-21
219	0xe3	-29
220	0x34	52
221	0xf0	-16
222	0x8c	-116
223	0x3d	61
224	0xe9	-23
225	0x12	18
226	0x81	-127
227	0x00	0
228	0xce	-50
229	0xe9	-23
230	0x8e	-114
231	0xbd	-67
232	0x81	-127
233	0x1e	30
234	0xd0	-48
235	0xb2	-78
236	0xd8	-40
237	0x14	20
238	0x11	17
239	0x2e	46
240	0xdf	-33
241	0x8f	-113
242	0x4a	74
243	0x23	35
244	0x37	55
245	0xd0	-48
246	0x7f	127
247	0xc9	-55
248	0x51	81
249	0x12	18
250	0xca	-54
251	0x2d	45
252	0x7f	127
253	0x58	88
254	0x0e	14
255	0x32	50

tfl.pseudo_qconst11 i1 [1, 9, 1, 32]
0	0x7f	127
1	0x5c	92
2	0xcf	-49
3	0xb5	-75
4	0x19	25
5	0x4f	79
6	0x23	35
7	0x19	25
8	0x63	99
9	0x7f	127
10	0x9e	-98
11	0xf8	-8
12	0xd0	-48
13	0x67	103
14	0x1e	30
15	0x08	8
16	0x81	-127
17	0x35	53
18	0xd6	-42
19	0x45	69
20	0x06	6
21	0x5c	92
22	0xb9	-71
23	0x20	32
24	0x94	-108
25	0x36	54
26	0x20	32
27	0x30	48
28	0x81	-127
29	0xb5	-75
30	0x7f	127
31	0x8a	-118
32	0x49	73
33	0x67	103
34	0x1f	31
35	0x5d	93
36	0x01	1
37	0x50	80
38	0x03	3
39	0x66	102
40	0xcb	-53
41	0x7a	122
42	0xab	-85
43	0x22	34
44	0xd9	-39
45	0x33	51
46	0x7f	127
47	0x3b	59
48	0x20	32
49	0xd7	-41
50	0xad	-83
51	0x7f	127
52	0xe2	-30
53	0xb4	-76
54	0x12	18
55	0xef	-17
56	0xa9	-87
57	0xa4	-92
58	0x40	64
59	0x17	23
60	0xab	-85
61	0x1a	26
62	0x53	83
63	0x81	-127
64	0xbc	-68
65	0x63	99
66	0x27	39
67	0x7f	127
68	0xf3	-13
69	0x6a	106
70	0xa0	-96
71	0x7f	127
72	0x91	-111
73	0x20	32
74	0xde	-34
75	0xd1	-47
76	0x2f	47
77	0xed	-19
78	0x23	35
79	0x14	20
80	0xa1	-95
81	0x31	49
82	0x31	49
83	0xce	-50
84	0x61	97
85	0xcd	-51
86	0x94	-108
87	0xf4	-12
88	0x81	-127
89	0x1d	29
90	0x10	16
91	0xff	-1
92	0x0c	12
93	0xcc	-52
94	0x07	7
95	0x13	19
96	0x5c	92
97	0x28	40
98	0x4b	75
99	0xe0	-32
100	0x93	-109
101	0xea	-22
102	0x27	39
103	0x6c	108
104	0xc2	-62
105	0x20	32
106	0x3a	58
107	0xd1	-47
108	0xd3	-45
109	0x7c	124
110	0x58	88
111	0x14	20
112	0x0e	14
113	0xba	-70
114	0xf6	-10
115	0xf1	-15
116	0x53	83
117	0xe4	-28
118	0xcb	-53
119	0x31	49
120	0x47	71
121	0x52	82
122	0x29	41
123	0x1d	29
124	0xf3	-13
125	0x8f	-113
126	0x37	55
127	0xde	-34
128	0x71	113
129	0xb1	-79
130	0xea	-22
131	0x9a	-102
132	0x51	81
133	0x2c	44
134	0x0a	10
135	0x53	83
136	0xfb	-5
137	0xf2	-14
138	0xfd	-3
139	0x55	85
140	0xe9	-23
141	0x38	56
142	0x2e	46
143	0x58	88
144	0x3d	61
145	0x84	-124
146	0x57	87
147	0xd9	-39
148	0x0f	15
149	0xf8	-8
150	0xf2	-14
151	0xef	-17
152	0x13	19
153	0xc9	-55
154	0xfa	-6
155	0xc6	-58
156	0xd5	-43
157	0xf3	-13
158	0x36	54
159	0xb3	-77
160	0x05	5
161	0x19	25
162	0x40	64
163	0x27	39
164	0x81	-127
165	0x72	114
166	0xf8	-8
167	0x5a	90
168	0x09	9
169	0x4c	76
170	0x08	8
171	0x37	55
172	0xf0	-16
173	0x0e	14
174	0xc9	-55
175	0x2f	47
176	0xe1	-31
177	0xfc	-4
178	0x5c	92
179	0xce	-50
180	0xd5	-43
181	0x35	53
182	0x45	69
183	0xea	-22
184	0x28	40
185	0x20	32
186	0xf3	-13
187	0x28	40
188	0xf2	-14
189	0x81	-127
190	0x6a	106
191	0xe9	-23
192	0x83	-125
193	0x90	-112
194	0xf2	-14
195	0x76	118
196	0xf0	-16
197	0x8b	-117
198	0x5b	91
199	0x27	39
200	0xe2	-30
201	0xbe	-66
202	0xc1	-63
203	0x22	34
204	0xb6	-74
205	0x7f	127
206	0xc1	-63
207	0x7f	127
208	0xe3	-29
209	0x09	9
210	0x3e	62
211	0xef	-17
212	0xf2	-14
213	0x5e	94
214	0x7f	127
215	0x1a	26
216	0x29	41
217	0xbb	-69
218	0x78	120
219	0x6d	109
220	0x1a	26
221	0xf4	-12
222	0xc4	-60
223	0xd7	-41
224	0x83	-125
225	0x92	-110
226	0x6b	107
227	0x2d	45
228	0x2e	46
229	0x81	-127
230	0x7f	127
231	0xda	-38
232	0x6a	106
233	0x5b	91
234	0x4c	76
235	0x64	100
236	0xa4	-92
237	0x4f	79
238	0xee	-18
239	0x46	70
240	0x42	66
241	0x9d	-99
242	0x7f	127
243	0xb3	-77
244	0x65	101
245	0x7f	127
246	0x59	89
247	0xea	-22
248	0x0c	12
249	0xc6	-58
250	0x7f	127
251	0xa3	-93
252	0x68	104
253	0xb5	-75
254	0x2a	42
255	0xd6	-42

tfl.pseudo_qconst13 i1 [64, 1, 1, 64]
0	0xbc	-68
1	0x3a	58
2	0x0a	10
3	0x0e	14
4	0x30	48
5	0xf3	-13
6	0xf9	-7
7	0x1c	28
8	0xf1	-15
9	0x06	6
10	0xe5	-27
11	0x05	5
12	0xb7	-73
13	0xa4	-92
14	0x51	81
15	0x7f	127
16	0xd2	-46
17	0x2e	46
18	0xe7	-25
19	0x67	103
20	0x15	21
21	0x2c	44
22	0x0d	13
23	0x8c	-116
24	0x60	96
25	0x5a	90
26	0x56	86
27	0xb6	-74
28	0x8c	-116
29	0xe4	-28
30	0x1d	29
31	0xc2	-62
32	0x25	37
33	0x38	56
34	0x0d	13
35	0xd9	-39
36	0x5b	91
37	0x9e	-98
38	0x9f	-97
39	0xdf	-33
40	0x40	64
41	0x06	6
42	0x60	96
43	0x9e	-98
44	0xbd	-67
45	0xc7	-57
46	0x71	113
47	0xb5	-75
48	0x2e	46
49	0xb8	-72
50	0xb6	-74
51	0x5b	91
52	0xdf	-33
53	0xb1	-79
54	0x05	5
55	0xed	-19
56	0x8c	-116
57	0x63	99
58	0x37	55
59	0x1a	26
60	0xa4	-92
61	0xbe	-66
62	0x54	84
63	0x2c	44
64	0x28	40
65	0xef	-17
66	0xd8	-40
67	0x46	70
68	0x78	120
69	0x96	-106
70	0xcb	-53
71	0x08	8
72	0xfe	-2
73	0xe9	-23
74	0xce	-50
75	0x2b	43
76	0x35	53
77	0xe9	-23
78	0xe9	-23
79	0x67	103
80	0xd5	-43
81	0x81	-127
82	0xb7	-73
83	0xd4	-44
84	0xe7	-25
85	0x50	80
86	0xe4	-28
87	0x0f	15
88	0x2d	45
89	0xe4	-28
90	0xda	-38
91	0x60	96
92	0x33	51
93	0x31	49
94	0xe3	-29
95	0xd7	-41
96	0x08	8
97	0xe1	-31
98	0xac	-84
99	0xb7	-73
100	0x5f	95
101	0x44	68
102	0xef	-17
103	0x44	68
104	0xf0	-16
105	0x28	40
106	0x43	67
107	0x45	69
108	0xca	-54
109	0xc0	-64
110	0x0e	14
111	0xee	-18
112	0xca	-54
113	0xd7	-41
114	0xef	-17
115	0x2e	46
116	0x9b	-101
117	0x1e	30
118	0xfb	-5
119	0xfc	-4
120	0x34	52
121	0xf7	-9
122	0x53	83
123	0x25	37
124	0x62	98
125	0x9d	-99
126	0xeb	-21
127	0xc4	-60
128	0xc6	-58
129	0xe2	-30
130	0xa6	-90
131	0x5d	93
132	0x79	121
133	0x44	68
134	0xbc	-68
135	0x17	23
136	0xbd	-67
137	0x23	35
138	0x3f	63
139	0xf5	-11
140	0x00	0
141	0x27	39
142	0x67	103
143	0x61	97
144	0x7f	127
145	0xba	-70
146	0x66	102
147	0x28	40
148	0xfd	-3
149	0xbe	-66
150	0x1d	29
151	0xfc	-4
152	0xeb	-21
153	0x07	7
154	0x1f	31
155	0xb3	-77
156	0xef	-17
157	0xae	-82
158	0x7b	123
159	0x1c	28
160	0x12	18
161	0x33	51
162	0x51	81
163	0x1c	28
164	0x18	24
165	0x20	32
166	0x04	4
167	0xd6	-42
168	0xaf	-81
169	0x10	16
170	0x3e	62
171	0x07	7
172	0x9f	-97
173	0xcb	-53
174	0x0d	13
175	0x27	39
176	0xf3	-13
177	0xd6	-42
178	0xc9	-55
179	0x3c	60
180	0xda	-38
181	0xd8	-40
182	0xa9	-87
183	0xe0	-32
184	0x0e	14
185	0x3f	63
186	0x25	37
187	0xe3	-29
188	0xc6	-58
189	0x3f	63
190	0x38	56
191	0xd6	-42
192	0x9b	-101
193	0x59	89
194	0xbf	-65
195	0xf9	-7
196	0xd4	-44
197	0x08	8
198	0xd7	-41
199	0xba	-70
200	0xc4	-60
201	0x04	4
202	0x36	54
203	0x33	51
204	0x53	83
205	0x2d	45
206	0x59	89
207	0xb4	-76
208	0x5f	95
209	0x56	86
210	0x54	84
211	0x0c	12
212	0xad	-83
213	0x60	96
214	0x0c	12
215	0xe7	-25
216	0x93	-109
217	0xe2	-30
218	0xfc	-4
219	0xfe	-2
220	0x2c	44
221	0x3b	59
222	0x24	36
223	0x00	0
224	0x0b	11
225	0x87	-121
226	0x4c	76
227	0x50	80
228	0xc8	-56
229	0x0d	13
230	0x42	66
231	0x0c	12
232	0x63	99
233	0xb4	-76
234	0xf9	-7
235	0x05	5
236	0x18	24
237	0xfc	-4
238	0x49	73
239	0x8d	-115
240	0x5a	90
241	0x1b	27
242	0xfc	-4
243	0x1f	31
244	0xfa	-6
245	0x4a	74
246	0x2c	44
247	0x7f	127
248	0xfa	-6
249	0x16	22
250	0x59	89
251	0xd6	-42
252	0x18	24
253	0xdd	-35
254	0x47	71
255	0xf6	-10

tfl.pseudo_qconst15 i1 [1, 11, 1, 32]
0	0x64	100
1	0x83	-125
2	0xd5	-43
3	0x81	-127
4	0x2d	45
5	0x18	24
6	0xfe	-2
7	0x12	18
8	0x5e	94
9	0xd2	-46
10	0x7f	127
11	0x3c	60
12	0x89	-119
13	0xbf	-65
14	0xe9	-23
15	0x7f	127
16	0xaf	-81
17	0x7f	127
18	0xb5	-75
19	0x0a	10
20	0x7f	127
21	0x81	-127
22	0xd5	-43
23	0x1b	27
24	0x11	17
25	0x58	88
26	0x33	51
27	0x66	102
28	0xc6	-58
29	0x01	1
30	0x7f	127
31	0x26	38
32	0x64	100
33	0xe1	-31
34	0x81	-127
35	0x09	9
36	0x61	97
37	0x3e	62
38	0x6a	106
39	0x86	-122
40	0x88	-120
41	0xaf	-81
42	0xb7	-73
43	0xeb	-21
44	0x94	-108
45	0xe8	-24
46	0x7e	126
47	0x7c	124
48	0xc8	-56
49	0x36	54
50	0x65	101
51	0x1f	31
52	0x1e	30
53	0xe0	-32
54	0xc3	-61
55	0x33	51
56	0x1d	29
57	0x05	5
58	0xe7	-25
59	0x48	72
60	0x40	64
61	0x13	19
62	0x43	67
63	0x1b	27
64	0x2b	43
65	0xd8	-40
66	0x93	-109
67	0xeb	-21
68	0x32	50
69	0x4c	76
70	0xd9	-39
71	0xc4	-60
72	0xb5	-75
73	0xfb	-5
74	0xf1	-15
75	0x39	57
76	0x8a	-118
77	0x42	66
78	0x18	24
79	0x5f	95
80	0xe1	-31
81	0xf7	-9
82	0xff	-1
83	0xbd	-67
84	0xdf	-33
85	0xcc	-52
86	0x15	21
87	0x43	67
88	0x2d	45
89	0x00	0
90	0x57	87
91	0x0e	14
92	0x7f	127
93	0x46	70
94	0xed	-19
95	0xbd	-67
96	0x21	33
97	0x7f	127
98	0xe6	-26
99	0x13	19
100	0xfd	-3
101	0x2b	43
102	0x4d	77
103	0x15	21
104	0x87	-121
105	0xf9	-7
106	0xde	-34
107	0x24	36
108	0xe1	-31
109	0x98	-104
110	0x31	49
111	0x7f	127
112	0x74	116
113	0x01	1
114	0xb1	-79
115	0xb8	-72
116	0x41	65
117	0xd7	-41
118	0x36	54
119	0xf6	-10
120	0x3f	63
121	0xaf	-81
122	0xe6	-26
123	0xbc	-68
124	0x6e	110
125	0xf9	-7
126	0x01	1
127	0x86	-122
128	0x7f	127
129	0x35	53
130	0xd6	-42
131	0x37	55
132	0x06	6
133	0xb8	-72
134	0x7f	127
135	0x81	-127
136	0x0e	14
137	0xe8	-24
138	0x40	64
139	0x9c	-100
140	0x37	55
141	0xe8	-24
142	0xe1	-31
143	0x54	84
144	0xbc	-68
145	0x2c	44
146	0xb3	-77
147	0xa8	-88
148	0x3e	62
149	0x55	85
150	0xfa	-6
151	0x29	41
152	0x26	38
153	0x38	56
154	0xed	-19
155	0x26	38
156	0x01	1
157	0x02	2
158	0xb0	-80
159	0xcc	-52
160	0xea	-22
161	0x4d	77
162	0x21	33
163	0x65	101
164	0x4f	79
165	0xd8	-40
166	0x44	68
167	0x2d	45
168	0x7f	127
169	0x1b	27
170	0xb4	-76
171	0xb7	-73
172	0xd8	-40
173	0x2c	44
174	0x7f	127
175	0x48	72
176	0x89	-119
177	0xe9	-23
178	0x81	-127
179	0x78	120
180	0xce	-50
181	0x34	52
182	0xca	-54
183	0x6b	107
184	0x60	96
185	0x8a	-118
186	0xdc	-36
187	0x39	57
188	0xd8	-40
189	0x81	-127
190	0x4a	74
191	0xeb	-21
192	0x77	119
193	0xc7	-57
194	0x7a	122
195	0x28	40
196	0xd4	-44
197	0xfd	-3
198	0x2e	46
199	0xc0	-64
200	0x6e	110
201	0xb9	-71
202	0xed	-19
203	0x81	-127
204	0x5e	94
205	0x2f	47
206	0xcd	-51
207	0x39	57
208	0xb2	-78
209	0xc6	-58
210	0x91	-111
211	0x7f	127
212	0x1d	29
213	0x34	52
214	0xdf	-33
215	0x6a	106
216	0xf3	-13
217	0x81	-127
218	0x1d	29
219	0x81	-127
220	0xdc	-36
221	0xc1	-63
222	0xe7	-25
223	0xa3	-93
224	0x1c	28
225	0x6b	107
226	0x78	120
227	0x08	8
228	0x81	-127
229	0x81	-127
230	0x8c	-116
231	0x4f	79
232	0xc2	-62
233	0x02	2
234	0x14	20
235	0x8d	-115
236	0x6c	108
237	0x7f	127
238	0xad	-83
239	0xd3	-45
240	0x81	-127
241	0x4c	76
242	0x43	67
243	0xd7	-41
244	0x46	70
245	0x26	38
246	0x1d	29
247	0x7f	127
248	0x05	5
249	0x91	-111
250	0x22	34
251	0xea	-22
252	0x8c	-116
253	0xec	-20
254	0xb7	-73
255	0xb5	-75

tfl.pseudo_qconst17 i1 [1, 7, 1, 32]
0	0x82	-126
1	0xb5	-75
2	0x7f	127
3	0xba	-70
4	0x45	69
5	0xe4	-28
6	0xe2	-30
7	0x01	1
8	0xb3	-77
9	0x47	71
10	0xda	-38
11	0xca	-54
12	0x7f	127
13	0xbf	-65
14	0x3e	62
15	0xc8	-56
16	0xac	-84
17	0xa7	-89
18	0xdd	-35
19	0xf2	-14
20	0x7f	127
21	0x1d	29
22	0xb1	-79
23	0xb5	-75
24	0x84	-124
25	0xde	-34
26	0xe3	-29
27	0x1c	28
28	0xac	-84
29	0x3a	58
30	0xea	-22
31	0xc1	-63
32	0x9f	-97
33	0x40	64
34	0x6f	111
35	0xb2	-78
36	0xf4	-12
37	0x0c	12
38	0x28	40
39	0xe2	-30
40	0x7f	127
41	0xf0	-16
42	0xd6	-42
43	0x3d	61
44	0x35	53
45	0xc6	-58
46	0x56	86
47	0xc7	-57
48	0xca	-54
49	0x08	8
50	0xfb	-5
51	0x43	67
52	0x5c	92
53	0x66	102
54	0x81	-127
55	0xa5	-91
56	0xfa	-6
57	0xff	-1
58	0x81	-127
59	0x1d	29
60	0x81	-127
61	0x31	49
62	0xd0	-48
63	0x99	-103
64	0xc4	-60
65	0xfb	-5
66	0xd2	-46
67	0x81	-127
68	0xd7	-41
69	0x7f	127
70	0xfc	-4
71	0xb2	-78
72	0xf6	-10
73	0x41	65
74	0xbb	-69
75	0x51	81
76	0xc4	-60
77	0x81	-127
78	0x3b	59
79	0xb1	-79
80	0xd7	-41
81	0xf7	-9
82	0xd8	-40
83	0x6a	106
84	0x10	16
85	0x64	100
86	0xcb	-53
87	0xf4	-12
88	0x59	89
89	0x6f	111
90	0x9e	-98
91	0x47	71
92	0x32	50
93	0x43	67
94	0x0b	11
95	0x6c	108
96	0x81	-127
97	0x7f	127
98	0xf8	-8
99	0x3c	60
100	0xe6	-26
101	0x50	80
102	0x19	25
103	0xc7	-57
104	0xb7	-73
105	0xd2	-46
106	0xc6	-58
107	0x37	55
108	0xb0	-80
109	0x11	17
110	0xb7	-73
111	0xac	-84
112	0x20	32
113	0x6b	107
114	0x9d	-99
115	0x35	53
116	0xaf	-81
117	0x7f	127
118	0x8b	-117
119	0x0a	10
120	0x13	19
121	0x03	3
122	0xce	-50
123	0x81	-127
124	0x69	105
125	0x81	-127
126	0x4a	74
127	0xf3	-13
128	0xca	-54
129	0x5b	91
130	0xb9	-71
131	0x7b	123
132	0x20	32
133	0xcd	-51
134	0x33	51
135	0xe5	-27
136	0x5d	93
137	0x0b	11
138	0x78	120
139	0x3a	58
140	0x98	-104
141	0xed	-19
142	0x81	-127
143	0x29	41
144	0x61	97
145	0x72	114
146	0x7f	127
147	0x7f	127
148	0xeb	-21
149	0xb7	-73
150	0xa1	-95
151	0x9a	-102
152	0x37	55
153	0x5b	91
154	0xe2	-30
155	0x97	-105
156	0x7b	123
157	0xe5	-27
158	0x53	83
159	0x7f	127
160	0xb1	-79
161	0x29	41
162	0x37	55
163	0x58	88
164	0xc3	-61
165	0xc1	-63
166	0x64	100
167	0x7f	127
168	0x25	37
169	0x50	80
170	0x58	88
171	0xf2	-14
172	0x0d	13
173	0xab	-85
174	0x0e	14
175	0xdb	-37
176	0x4f	79
177	0x99	-103
178	0xc7	-57
179	0x1c	28
180	0xea	-22
181	0xc1	-63
182	0xbb	-69
183	0x96	-106
184	0xe2	-30
185	0xfb	-5
186	0x37	55
187	0x4d	77
188	0xf8	-8
189	0xee	-18
190	0xde	-34
191	0x0a	10
192	0x43	67
193	0x2f	47
194	0x45	69
195	0x7d	125
196	0x81	-127
197	0x1d	29
198	0x7f	127
199	0x5f	95
200	0xac	-84
201	0x7f	127
202	0x7f	127
203	0x81	-127
204	0x32	50
205	0x05	5
206	0xd9	-39
207	0x7f	127
208	0x7f	127
209	0x81	-127
210	0x55	85
211	0x36	54
212	0xaf	-81
213	0x30	48
214	0x5a	90
215	0x81	-127
216	0x81	-127
217	0x7f	127
218	0x03	3
219	0x68	104
220	0x8a	-118
221	0x8d	-115
222	0x81	-127
223	0x98	-104

tfl.pseudo_qconst19 i1 [64, 1, 1, 32]
0	0x04	4
1	0xad	-83
2	0x0c	12
3	0x31	49
4	0x34	52
5	0x00	0
6	0x69	105
7	0x5c	92
8	0x3d	61
9	0xdd	-35
10	0x1a	26
11	0x9e	-98
12	0xdf	-33
13	0x60	96
14	0xa9	-87
15	0x81	-127
16	0x3c	60
17	0x1d	29
18	0x36	54
19	0xe5	-27
20	0x5e	94
21	0xcb	-53
22	0xfb	-5
23	0x0e	14
24	0x1a	26
25	0xc7	-57
26	0x79	121
27	0xd3	-45
28	0xd5	-43
29	0x46	70
30	0x1b	27
31	0x32	50
32	0x22	34
33	0xac	-84
34	0x12	18
35	0xed	-19
36	0xf8	-8
37	0x8a	-118
38	0xfd	-3
39	0x5f	95
40	0xde	-34
41	0xe7	-25
42	0x93	-109
43	0xf8	-8
44	0xe3	-29
45	0x22	34
46	0x9c	-100
47	0x1f	31
48	0x62	98
49	0x05	5
50	0x8b	-117
51	0xa5	-91
52	0x0b	11
53	0xe1	-31
54	0x7f	127
55	0x01	1
56	0x47	71
57	0xf4	-12
58	0x28	40
59	0x8a	-118
60	0xd5	-43
61	0xab	-85
62	0x92	-110
63	0xee	-18
64	0xb4	-76
65	0x30	48
66	0x1f	31
67	0x05	5
68	0xbb	-69
69	0xb5	-75
70	0x2d	45
71	0x28	40
72	0x4c	76
73	0xac	-84
74	0x30	48
75	0x2a	42
76	0x0f	15
77	0x00	0
78	0xec	-20
79	0x91	-111
80	0x17	23
81	0x5a	90
82	0x65	101
83	0x56	86
84	0x1b	27
85	0x49	73
86	0x9b	-101
87	0x1e	30
88	0x92	-110
89	0x5d	93
90	0x81	-127
91	0xa6	-90
92	0x26	38
93	0x9c	-100
94	0x79	121
95	0xaf	-81
96	0x57	87
97	0xea	-22
98	0xf9	-7
99	0xae	-82
100	0xf2	-14
101	0xd7	-41
102	0x1b	27
103	0x06	6
104	0xdb	-37
105	0xc7	-57
106	0x10	16
107	0xea	-22
108	0xfd	-3
109	0x2b	43
110	0x33	51
111	0x20	32
112	0x63	99
113	0x8a	-118
114	0x2b	43
115	0xcf	-49
116	0x81	-127
117	0x3e	62
118	0x46	70
119	0xe6	-26
120	0xb1	-79
121	0x08	8
122	0x12	18
123	0x2f	47
124	0x46	70
125	0x36	54
126	0x0c	12
127	0xcb	-53
128	0x6f	111
129	0xdb	-37
130	0x2a	42
131	0x97	-105
132	0x1b	27
133	0xe7	-25
134	0xe7	-25
135	0xa9	-87
136	0x5e	94
137	0xb9	-71
138	0x8c	-116
139	0xdc	-36
140	0x2d	45
141	0x58	88
142	0x9d	-99
143	0x4e	78
144	0x23	35
145	0x27	39
146	0x67	103
147	0x60	96
148	0x1a	26
149	0x4c	76
150	0xbf	-65
151	0xca	-54
152	0xb9	-71
153	0x7f	127
154	0x19	25
155	0x38	56
156	0x4c	76
157	0x46	70
158	0xce	-50
159	0x0c	12
160	0xf4	-12
161	0x8c	-116
162	0xbf	-65
163	0xc0	-64
164	0x2c	44
165	0x85	-123
166	0x7d	125
167	0x7f	127
168	0xf8	-8
169	0x5f	95
170	0x1d	29
171	0xe2	-30
172	0xe0	-32
173	0x08	8
174	0x07	7
175	0x99	-103
176	0x3d	61
177	0x3b	59
178	0xa7	-89
179	0xc5	-59
180	0x03	3
181	0xbd	-67
182	0xca	-54
183	0xd5	-43
184	0x2d	45
185	0xfb	-5
186	0x96	-106
187	0xd3	-45
188	0xd1	-47
189	0xe9	-23
190	0x90	-112
191	0x19	25
192	0xa5	-91
193	0x37	55
194	0x46	70
195	0xed	-19
196	0xda	-38
197	0x85	-123
198	0xfe	-2
199	0xc3	-61
200	0xb8	-72
201	0xfe	-2
202	0xb3	-77
203	0xfc	-4
204	0xca	-54
205	0xa7	-89
206	0xcf	-49
207	0xf7	-9
208	0xe9	-23
209	0x13	19
210	0xdc	-36
211	0x1d	29
212	0x35	53
213	0xc9	-55
214	0x04	4
215	0xd4	-44
216	0xf7	-9
217	0xc6	-58
218	0x61	97
219	0x27	39
220	0x17	23
221	0xd9	-39
222	0x81	-127
223	0x1e	30
224	0x05	5
225	0xf2	-14
226	0xd9	-39
227	0xc8	-56
228	0x68	104
229	0xdd	-35
230	0x03	3
231	0xe3	-29
232	0x5a	90
233	0x3f	63
234	0xf7	-9
235	0x88	-120
236	0x15	21
237	0xff	-1
238	0xfa	-6
239	0xe9	-23
240	0x25	37
241	0x5c	92
242	0x16	22
243	0x2e	46
244	0x7f	127
245	0x1a	26
246	0xc9	-55
247	0x38	56
248	0x4e	78
249	0x4a	74
250	0x33	51
251	0xbb	-69
252	0x1a	26
253	0xf4	-12
254	0xee	-18
255	0xfe	-2

tfl.pseudo_qconst21 i1 [1, 5, 1, 32]
0	0x0c	12
1	0xf8	-8
2	0xc6	-58
3	0x20	32
4	0x98	-104
5	0x81	-127
6	0x81	-127
7	0x2b	43
8	0x7f	127
9	0x24	36
10	0x26	38
11	0x7f	127
12	0x6d	109
13	0x52	82
14	0x81	-127
15	0x7f	127
16	0x81	-127
17	0x64	100
18	0x44	68
19	0x7f	127
20	0x7d	125
21	0x93	-109
22	0x54	84
23	0x0d	13
24	0xc0	-64
25	0x8d	-115
26	0x81	-127
27	0x5e	94
28	0x81	-127
29	0x81	-127
30	0xa4	-92
31	0x78	120
32	0x81	-127
33	0xb4	-76
34	0x27	39
35	0x2f	47
36	0x9e	-98
37	0xd2	-46
38	0x9d	-99
39	0xc3	-61
40	0x4b	75
41	0x5e	94
42	0x14	20
43	0x4e	78
44	0xf4	-12
45	0x7f	127
46	0x9b	-101
47	0x5f	95
48	0x43	67
49	0x7a	122
50	0x7f	127
51	0x6e	110
52	0x7d	125
53	0x91	-111
54	0xb3	-77
55	0x7f	127
56	0x58	88
57	0x6a	106
58	0xea	-22
59	0x6d	109
60	0x29	41
61	0xeb	-21
62	0x2d	45
63	0xcd	-51
64	0x40	64
65	0xcd	-51
66	0xee	-18
67	0x2c	44
68	0x7f	127
69	0x6c	108
70	0x01	1
71	0x81	-127
72	0xf2	-14
73	0xa7	-89
74	0x71	113
75	0x48	72
76	0xcc	-52
77	0x27	39
78	0xa0	-96
79	0xef	-17
80	0xd9	-39
81	0x2f	47
82	0xf0	-16
83	0xe1	-31
84	0x7f	127
85	0xbc	-68
86	0x81	-127
87	0x63	99
88	0x6c	108
89	0x3c	60
90	0x0a	10
91	0xab	-85
92	0x28	40
93	0x94	-108
94	0x7f	127
95	0x81	-127
96	0x6c	108
97	0x81	-127
98	0x7f	127
99	0x81	-127
100	0x13	19
101	0x14	20
102	0x48	72
103	0x81	-127
104	0x17	23
105	0x81	-127
106	0x7f	127
107	0x5c	92
108	0x07	7
109	0x1a	26
110	0xf6	-10
111	0x4a	74
112	0xab	-85
113	0x81	-127
114	0xda	-38
115	0xa5	-91
116	0xe7	-25
117	0x81	-127
118	0xb0	-80
119	0xb3	-77
120	0x7f	127
121	0x7f	127
122	0xaa	-86
123	0x15	21
124	0xd0	-48
125	0x0c	12
126	0x3a	58
127	0x77	119
128	0x60	96
129	0xfc	-4
130	0xd8	-40
131	0xd3	-45
132	0xc9	-55
133	0x27	39
134	0x35	53
135	0xe5	-27
136	0x8f	-113
137	0xc9	-55
138	0x1f	31
139	0xa7	-89
140	0x81	-127
141	0x7c	124
142	0xcc	-52
143	0x9f	-97
144	0xb0	-80
145	0xfe	-2
146	0xd1	-47
147	0x39	57
148	0x71	113
149	0x99	-103
150	0xb6	-74
151	0x83	-125
152	0x4e	78
153	0x76	118
154	0x71	113
155	0x7f	127
156	0x66	102
157	0x34	52
158	0x2a	42
159	0x2e	46

tfl.pseudo_qconst23 i1 [32, 5, 1, 40]
0	0x60	96
1	0x34	52
2	0x42	66
3	0xdf	-33
4	0xe2	-30
5	0x06	6
6	0x28	40
7	0x48	72
8	0xe0	-32
9	0x1b	27
10	0x0c	12
11	0x18	24
12	0x02	2
13	0x08	8
14	0xc5	-59
15	0xe7	-25
16	0xd0	-48
17	0xd7	-41
18	0xc0	-64
19	0x2d	45
20	0x19	25
21	0xf0	-16
22	0x0b	11
23	0xf8	-8
24	0x02	2
25	0xd2	-46
26	0x39	57
27	0x09	9
28	0xd2	-46
29	0xe3	-29
30	0x22	34
31	0xb8	-72
32	0x39	57
33	0xec	-20
34	0x4c	76
35	0x16	22
36	0xd5	-43
37	0xee	-18
38	0x0a	10
39	0xd6	-42
40	0x46	70
41	0xe6	-26
42	0x3c	60
43	0x2f	47
44	0xfd	-3
45	0xe6	-26
46	0x28	40
47	0x1b	27
48	0xe8	-24
49	0xee	-18
50	0xfc	-4
51	0x2a	42
52	0x34	52
53	0xe0	-32
54	0xc9	-55
55	0xf6	-10
56	0xf0	-16
57	0xe6	-26
58	0xfe	-2
59	0xf1	-15
60	0x02	2
61	0x0f	15
62	0xe6	-26
63	0x56	86
64	0x10	16
65	0x36	54
66	0xcf	-49
67	0x26	38
68	0x07	7
69	0xd5	-43
70	0x2d	45
71	0xea	-22
72	0x43	67
73	0x02	2
74	0x21	33
75	0x1b	27
76	0x24	36
77	0xde	-34
78	0xc4	-60
79	0x44	68
80	0x57	87
81	0x11	17
82	0xff	-1
83	0x17	23
84	0x51	81
85	0x23	35
86	0x2a	42
87	0x73	115
88	0x43	67
89	0xde	-34
90	0x33	51
91	0x0e	14
92	0xdf	-33
93	0x15	21
94	0xff	-1
95	0x9b	-101
96	0x9e	-98
97	0x84	-124
98	0xc4	-60
99	0xdd	-35
100	0x00	0
101	0x2d	45
102	0x50	80
103	0x1d	29
104	0x59	89
105	0x2e	46
106	0x0d	13
107	0xe6	-26
108	0xe9	-23
109	0xff	-1
110	0xb4	-76
111	0xb8	-72
112	0x27	39
113	0x11	17
114	0xdc	-36
115	0xd4	-44
116	0xbf	-65
117	0xb2	-78
118	0xeb	-21
119	0xcc	-52
120	0x66	102
121	0x0c	12
122	0x34	52
123	0x13	19
124	0x51	81
125	0xfa	-6
126	0x14	20
127	0xef	-17
128	0x30	48
129	0x12	18
130	0x2d	45
131	0x06	6
132	0xd9	-39
133	0x12	18
134	0xa3	-93
135	0xe1	-31
136	0xb0	-80
137	0xdd	-35
138	0xa5	-91
139	0xdd	-35
140	0x01	1
141	0x08	8
142	0x06	6
143	0x04	4
144	0x05	5
145	0x25	37
146	0x37	55
147	0x3c	60
148	0x1b	27
149	0x01	1
150	0x0a	10
151	0xd6	-42
152	0x29	41
153	0xa9	-87
154	0x1f	31
155	0x1c	28
156	0x05	5
157	0xb4	-76
158	0xd4	-44
159	0x16	22
160	0x25	37
161	0x11	17
162	0x11	17
163	0x52	82
164	0x18	24
165	0x27	39
166	0xd9	-39
167	0x49	73
168	0x01	1
169	0xe5	-27
170	0xc2	-62
171	0xaf	-81
172	0x2e	46
173	0x24	36
174	0xad	-83
175	0xd4	-44
176	0xfd	-3
177	0x81	-127
178	0xa6	-90
179	0xb3	-77
180	0xc5	-59
181	0x00	0
182	0x37	55
183	0x3e	62
184	0x36	54
185	0x3c	60
186	0x1c	28
187	0xf2	-14
188	0x08	8
189	0xa4	-92
190	0xb0	-80
191	0x26	38
192	0xf3	-13
193	0xee	-18
194	0x3f	63
195	0x04	4
196	0xcc	-52
197	0xb8	-72
198	0x0d	13
199	0xe6	-26
200	0xe5	-27
201	0x1f	31
202	0x31	49
203	0x4c	76
204	0x27	39
205	0x39	57
206	0x4c	76
207	0xea	-22
208	0x15	21
209	0xf0	-16
210	0xe8	-24
211	0xaf	-81
212	0xb1	-79
213	0x81	-127
214	0xd7	-41
215	0xe9	-23
216	0xeb	-21
217	0xf5	-11
218	0x21	33
219	0x00	0
220	0x26	38
221	0x40	64
222	0xed	-19
223	0xe9	-23
224	0x08	8
225	0x10	16
226	0x29	41
227	0x07	7
228	0x3b	59
229	0x1e	30
230	0x06	6
231	0x3e	62
232	0x21	33
233	0xcb	-53
234	0x15	21
235	0x0e	14
236	0x17	23
237	0x1a	26
238	0xed	-19
239	0x17	23
240	0xe5	-27
241	0xda	-38
242	0x18	24
243	0x38	56
244	0x41	65
245	0x34	52
246	0x19	25
247	0xe7	-25
248	0x05	5
249	0xc0	-64
250	0xd9	-39
251	0x12	18
252	0xa4	-92
253	0xd0	-48
254	0xd5	-43
255	0x15	21

arith.constant19 f4 [1, 14, 1, 64]
0	0x00000000	0.0
1	0x00000000	0.0
2	0x00000000	0.0
3	0x00000000	0.0
4	0x00000000	0.0
5	0x00000000	0.0
6	0x00000000	0.0
7	0x00000000	0.0
8	0x00000000	0.0
9	0x00000000	0.0
10	0x00000000	0.0
11	0x00000000	0.0
12	0x00000000	0.0
13	0x00000000	0.0
14	0x00000000	0.0
15	0x00000000	0.0
16	0x00000000	0.0
17	0x00000000	0.0
18	0x00000000	0.0
19	0x00000000	0.0
20	0x00000000	0.0
21	0x00000000	0.0
22	0x00000000	0.0
23	0x00000000	0.0
24	0x00000000	0.0
25	0x00000000	0.0
26	0x00000000	0.0
27	0x00000000	0.0
28	0x00000000	0.0
29	0x00000000	0.0
30	0x00000000	0.0
31	0x00000000	0.0
32	0x00000000	0.0
33	0x00000000	0.0
34	0x00000000	0.0
35	0x00000000	0.0
36	0x00000000	0.0
37	0x00000000	0.0
38	0x00000000	0.0
39	0x00000000	0.0
40	0x00000000	0.0
41	0x00000000	0.0
42	0x00000000	0.0
43	0x00000000	0.0
44	0x00000000	0.0
45	0x00000000	0.0
46	0x00000000	0.0
47	0x00000000	0.0
48	0x00000000	0.0
49	0x00000000	0.0
50	0x00000000	0.0
51	0x00000000	0.0
52	0x00000000	0.0
53	0x00000000	0.0
54	0x00000000	0.0
55	0x00000000	0.0
56	0x00000000	0.0
57	0x00000000	0.0
58	0x00000000	0.0
59	0x00000000	0.0
60	0x00000000	0.0
61	0x00000000	0.0
62	0x00000000	0.0
63	0x00000000	0.0
64	0x00000000	0.0
65	0x00000000	0.0
66	0x00000000	0.0
67	0x00000000	0.0
68	0x00000000	0.0
69	0x00000000	0.0
70	0x00000000	0.0
71	0x00000000	0.0
72	0x00000000	0.0
73	0x00000000	0.0
74	0x00000000	0.0
75	0x00000000	0.0
76	0x00000000	0.0
77	0x00000000	0.0
78	0x00000000	0.0
79	0x00000000	0.0
80	0x00000000	0.0
81	0x00000000	0.0
82	0x00000000	0.0
83	0x00000000	0.0
84	0x00000000	0.0
85	0x00000000	0.0
86	0x00000000	0.0
87	0x00000000	0.0
88	0x00000000	0.0
89	0x00000000	0.0
90	0x00000000	0.0
91	0x00000000	0.0
92	0x00000000	0.0
93	0x00000000	0.0
94	0x00000000	0.0
95	0x00000000	0.0
96	0x00000000	0.0
97	0x00000000	0.0
98	0x00000000	0.0
99	0x00000000	0.0
100	0x00000000	0.0
101	0x00000000	0.0
102	0x00000000	0.0
103	0x00000000	0.0
104	0x00000000	0.0
105	0x00000000	0.0
106	0x00000000	0.0
107	0x00000000	0.0
108	0x00000000	0.0
109	0x00000000	0.0
110	0x00000000	0.0
111	0x00000000	0.0
112	0x00000000	0.0
113	0x00000000	0.0
114	0x00000000	0.0
115	0x00000000	0.0
116	0x00000000	0.0
117	0x00000000	0.0
118	0x00000000	0.0
119	0x00000000	0.0
120	0x00000000	0.0
121	0x00000000	0.0
122	0x00000000	0.0
123	0x00000000	0.0
124	0x00000000	0.0
125	0x00000000	0.0
126	0x00000000	0.0
127	0x00000000	0.0
128	0x00000000	0.0
129	0x00000000	0.0
130	0x00000000	0.0
131	0x00000000	0.0
132	0x00000000	0.0
133	0x00000000	0.0
134	0x00000000	0.0
135	0x00000000	0.0
136	0x00000000	0.0
137	0x00000000	0.0
138	0x00000000	0.0
139	0x00000000	0.0
140	0x00000000	0.0
141	0x00000000	0.0
142	0x00000000	0.0
143	0x00000000	0.0
144	0x00000000	0.0
145	0x00000000	0.0
146	0x00000000	0.0
147	0x00000000	0.0
148	0x00000000	0.0
149	0x00000000	0.0
150	0x00000000	0.0
151	0x00000000	0.0
152	0x00000000	0.0
153	0x00000000	0.0
154	0x00000000	0.0
155	0x00000000	0.0
156	0x00000000	0.0
157	0x00000000	0.0
158	0x00000000	0.0
159	0x00000000	0.0
160	0x00000000	0.0
161	0x00000000	0.0
162	0x00000000	0.0
163	0x00000000	0.0
164	0x00000000	0.0
165	0x00000000	0.0
166	0x00000000	0.0
167	0x00000000	0.0
168	0x00000000	0.0
169	0x00000000	0.0
170	0x00000000	0.0
171	0x00000000	0.0
172	0x00000000	0.0
173	0x00000000	0.0
174	0x00000000	0.0
175	0x00000000	0.0
176	0x00000000	0.0
177	0x00000000	0.0
178	0x00000000	0.0
179	0x00000000	0.0
180	0x00000000	0.0
181	0x00000000	0.0
182	0x00000000	0.0
183	0x00000000	0.0
184	0x00000000	0.0
185	0x00000000	0.0
186	0x00000000	0.0
187	0x00000000	0.0
188	0x00000000	0.0
189	0x00000000	0.0
190	0x00000000	0.0
191	0x00000000	0.0
192	0x00000000	0.0
193	0x00000000	0.0
194	0x00000000	0.0
195	0x00000000	0.0
196	0x00000000	0.0
197	0x00000000	0.0
198	0x00000000	0.0
199	0x00000000	0.0
200	0x00000000	0.0
201	0x00000000	0.0
202	0x00000000	0.0
203	0x00000000	0.0
204	0x00000000	0.0
205	0x00000000	0.0
206	0x00000000	0.0
207	0x00000000	0.0
208	0x00000000	0.0
209	0x00000000	0.0
210	0x00000000	0.0
211	0x00000000	0.0
212	0x00000000	0.0
213	0x00000000	0.0
214	0x00000000	0.0
215	0x00000000	0.0
216	0x00000000	0.0
217	0x00000000	0.0
218	0x00000000	0.0
219	0x00000000	0.0
220	0x00000000	0.0
221	0x00000000	0.0
222	0x00000000	0.0
223	0x00000000	0.0
224	0x00000000	0.0
225	0x00000000	0.0
226	0x00000000	0.0
227	0x00000000	0.0
228	0x00000000	0.0
229	0x00000000	0.0
230	0x00000000	0.0
231	0x00000000	0.0
232	0x00000000	0.0
233	0x00000000	0.0
234	0x00000000	0.0
235	0x00000000	0.0
236	0x00000000	0.0
237	0x00000000	0.0
238	0x00000000	0.0
239	0x00000000	0.0
240	0x00000000	0.0
241	0x00000000	0.0
242	0x00000000	0.0
243	0x00000000	0.0
244	0x00000000	0.0
245	0x00000000	0.0
246	0x00000000	0.0
247	0x00000000	0.0
248	0x00000000	0.0
249	0x00000000	0.0
250	0x00000000	0.0
251	0x00000000	0.0
252	0x00000000	0.0
253	0x00000000	0.0
254	0x00000000	0.0
255	0x00000000	0.0

arith.constant20 f4 [1, 10, 1, 64]
0	0x00000000	0.0
1	0x00000000	0.0
2	0x00000000	0.0
3	0x00000000	0.0
4	0x00000000	0.0
5	0x00000000	0.0
6	0x00000000	0.0
7	0x00000000	0.0
8	0x00000000	0.0
9	0x00000000	0.0
10	0x00000000	0.0
11	0x00000000	0.0
12	0x00000000	0.0
13	0x00000000	0.0
14	0x00000000	0.0
15	0x00000000	0.0
16	0x00000000	0.0
17	0x00000000	0.0
18	0x00000000	0.0
19	0x00000000	0.0
20	0x00000000	0.0
21	0x00000000	0.0
22	0x00000000	0.0
23	0x00000000	0.0
24	0x00000000	0.0
25	0x00000000	0.0
26	0x00000000	0.0
27	0x00000000	0.0
28	0x00000000	0.0
29	0x00000000	0.0
30	0x00000000	0.0
31	0x00000000	0.0
32	0x00000000	0.0
33	0x00000000	0.0
34	0x00000000	0.0
35	0x00000000	0.0
36	0x00000000	0.0
37	0x00000000	0.0
38	0x00000000	0.0
39	0x00000000	0.0
40	0x00000000	0.0
41	0x00000000	0.0
42	0x00000000	0.0
43	0x00000000	0.0
44	0x00000000	0.0
45	0x00000000	0.0
46	0x00000000	0.0
47	0x00000000	0.0
48	0x00000000	0.0
49	0x00000000	0.0
50	0x00000000	0.0
51	0x00000000	0.0
52	0x00000000	0.0
53	0x00000000	0.0
54	0x00000000	0.0
55	0x00000000	0.0
56	0x00000000	0.0
57	0x00000000	0.0
58	0x00000000	0.0
59	0x00000000	0.0
60	0x00000000	0.0
61	0x00000000	0.0
62	0x00000000	0.0
63	0x00000000	0.0
64	0x00000000	0.0
65	0x00000000	0.0
66	0x00000000	0.0
67	0x00000000	0.0
68	0x00000000	0.0
69	0x00000000	0.0
70	0x00000000	0.0
71	0x00000000	0.0
72	0x00000000	0.0
73	0x00000000	0.0
74	0x00000000	0.0
75	0x00000000	0.0
76	0x00000000	0.0
77	0x00000000	0.0
78	0x00000000	0.0
79	0x00000000	0.0
80	0x00000000	0.0
81	0x00000000	0.0
82	0x00000000	0.0
83	0x00000000	0.0
84	0x00000000	0.0
85	0x00000000	0.0
86	0x00000000	0.0
87	0x00000000	0.0
88	0x00000000	0.0
89	0x00000000	0.0
90	0x00000000	0.0
91	0x00000000	0.0
92	0x00000000	0.0
93	0x00000000	0.0
94	0x00000000	0.0
95	0x00000000	0.0
96	0x00000000	0.0
97	0x00000000	0.0
98	0x00000000	0.0
99	0x00000000	0.0
100	0x00000000	0.0
101	0x00000000	0.0
102	0x00000000	0.0
103	0x00000000	0.0
104	0x00000000	0.0
105	0x00000000	0.0
106	0x00000000	0.0
107	0x00000000	0.0
108	0x00000000	0.0
109	0x00000000	0.0
110	0x00000000	0.0
111	0x00000000	0.0
112	0x00000000	0.0
113	0x00000000	0.0
114	0x00000000	0.0
115	0x00000000	0.0
116	0x00000000	0.0
117	0x00000000	0.0
118	0x00000000	0.0
119	0x00000000	0.0
120	0x00000000	0.0
121	0x00000000	0.0
122	0x00000000	0.0
123	0x00000000	0.0
124	0x00000000	0.0
125	0x00000000	0.0
126	0x00000000	0.0
127	0x00000000	0.0
128	0x00000000	0.0
129	0x00000000	0.0
130	0x00000000	0.0
131	0x00000000	0.0
132	0x00000000	0.0
133	0x00000000	0.0
134	0x00000000	0.0
135	0x00000000	0.0
136	0x00000000	0.0
137	0x00000000	0.0
138	0x00000000	0.0
139	0x00000000	0.0
140	0x00000000	0.0
141	0x00000000	0.0
142	0x00000000	0.0
143	0x00000000	0.0
144	0x00000000	0.0
145	0x00000000	0.0
146	0x00000000	0.0
147	0x00000000	0.0
148	0x00000000	0.0
149	0x00000000	0.0
150	0x00000000	0.0
151	0x00000000	0.0
152	0x00000000	0.0
153	0x00000000	0.0
154	0x00000000	0.0
155	0x00000000	0.0
156	0x00000000	0.0
157	0x00000000	0.0
158	0x00000000	0.0
159	0x00000000	0.0
160	0x00000000	0.0
161	0x00000000	0.0
162	0x00000000	0.0
163	0x00000000	0.0
164	0x00000000	0.0
165	0x00000000	0.0
166	0x00000000	0.0
167	0x00000000	0.0
168	0x00000000	0.0
169	0x00000000	0.0
170	0x00000000	0.0
171	0x00000000	0.0
172	0x00000000	0.0
173	0x00000000	0.0
174	0x00000000	0.0
175	0x00000000	0.0
176	0x00000000	0.0
177	0x00000000	0.0
178	0x00000000	0.0
179	0x00000000	0.0
180	0x00000000	0.0
181	0x00000000	0.0
182	0x00000000	0.0
183	0x00000000	0.0
184	0x00000000	0.0
185	0x00000000	0.0
186	0x00000000	0.0
187	0x00000000	0.0
188	0x00000000	0.0
189	0x00000000	0.0
190	0x00000000	0.0
191	0x00000000	0.0
192	0x00000000	0.0
193	0x00000000	0.0
194	0x00000000	0.0
195	0x00000000	0.0
196	0x00000000	0.0
197	0x00000000	0.0
198	0x00000000	0.0
199	0x00000000	0.0
200	0x00000000	0.0
201	0x00000000	0.0
202	0x00000000	0.0
203	0x00000000	0.0
204	0x00000000	0.0
205	0x00000000	0.0
206	0x00000000	0.0
207	0x00000000	0.0
208	0x00000000	0.0
209	0x00000000	0.0
210	0x00000000	0.0
211	0x00000000	0.0
212	0x00000000	0.0
213	0x00000000	0.0
214	0x00000000	0.0
215	0x00000000	0.0
216	0x00000000	0.0
217	0x00000000	0.0
218	0x00000000	0.0
219	0x00000000	0.0
220	0x00000000	0.0
221	0x00000000	0.0
222	0x00000000	0.0
223	0x00000000	0.0
224	0x00000000	0.0
225	0x00000000	0.0
226	0x00000000	0.0
227	0x00000000	0.0
228	0x00000000	0.0
229	0x00000000	0.0
230	0x00000000	0.0
231	0x00000000	0.0
232	0x00000000	0.0
233	0x00000000	0.0
234	0x00000000	0.0
235	0x00000000	0.0
236	0x00000000	0.0
237	0x00000000	0.0
238	0x00000000	0.0
239	0x00000000	0.0
240	0x00000000	0.0
241	0x00000000	0.0
242	0x00000000	0.0
243	0x00000000	0.0
244	0x00000000	0.0
245	0x00000000	0.0
246	0x00000000	0.0
247	0x00000000	0.0
248	0x00000000	0.0
249	0x00000000	0.0
250	0x00000000	0.0
251	0x00000000	0.0
252	0x00000000	0.0
253	0x00000000	0.0
254	0x00000000	0.0
255	0x00000000	0.0

arith.constant21 f4 [1, 4, 1, 32]
0	0x00000000	0.0
1	0x00000000	0.0
2	0x00000000	0.0
3	0x00000000	0.0
4	0x00000000	0.0
5	0x00000000	0.0
6	0x00000000	0.0
7	0x00000000	0.0
8	0x00000000	0.0
9	0x00000000	0.0
10	0x00000000	0.0
11	0x00000000	0.0
12	0x00000000	0.0
13	0x00000000	0.0
14	0x00000000	0.0
15	0x00000000	0.0
16	0x00000000	0.0
17	0x00000000	0.0
18	0x00000000	0.0
19	0x00000000	0.0
20	0x00000000	0.0
21	0x00000000	0.0
22	0x00000000	0.0
23	0x00000000	0.0
24	0x00000000	0.0
25	0x00000000	0.0
26	0x00000000	0.0
27	0x00000000	0.0
28	0x00000000	0.0
29	0x00000000	0.0
30	0x00000000	0.0
31	0x00000000	0.0
32	0x00000000	0.0
33	0x00000000	0.0
34	0x00000000	0.0
35	0x00000000	0.0
36	0x00000000	0.0
37	0x00000000	0.0
38	0x00000000	0.0
39	0x00000000	0.0
40	0x00000000	0.0
41	0x00000000	0.0
42	0x00000000	0.0
43	0x00000000	0.0
44	0x00000000	0.0
45	0x00000000	0.0
46	0x00000000	0.0
47	0x00000000	0.0
48	0x00000000	0.0
49	0x00000000	0.0
50	0x00000000	0.0
51	0x00000000	0.0
52	0x00000000	0.0
53	0x00000000	0.0
54	0x00000000	0.0
55	0x00000000	0.0
56	0x00000000	0.0
57	0x00000000	0.0
58	0x00000000	0.0
59	0x00000000	0.0
60	0x00000000	0.0
61	0x00000000	0.0
62	0x00000000	0.0
63	0x00000000	0.0
64	0x00000000	0.0
65	0x00000000	0.0
66	0x00000000	0.0
67	0x00000000	0.0
68	0x00000000	0.0
69	0x00000000	0.0
70	0x00000000	0.0
71	0x00000000	0.0
72	0x00000000	0.0
73	0x00000000	0.0
74	0x00000000	0.0
75	0x00000000	0.0
76	0x00000000	0.0
77	0x00000000	0.0
78	0x00000000	0.0
79	0x00000000	0.0
80	0x00000000	0.0
81	0x00000000	0.0
82	0x00000000	0.0
83	0x00000000	0.0
84	0x00000000	0.0
85	0x00000000	0.0
86	0x00000000	0.0
87	0x00000000	0.0
88	0x00000000	0.0
89	0x00000000	0.0
90	0x00000000	0.0
91	0x00000000	0.0
92	0x00000000	0.0
93	0x00000000	0.0
94	0x00000000	0.0
95	0x00000000	0.0
96	0x00000000	0.0
97	0x00000000	0.0
98	0x00000000	0.0
99	0x00000000	0.0
100	0x00000000	0.0
101	0x00000000	0.0
102	0x00000000	0.0
103	0x00000000	0.0
104	0x00000000	0.0
105	0x00000000	0.0
106	0x00000000	0.0
107	0x00000000	0.0
108	0x00000000	0.0
109	0x00000000	0.0
110	0x00000000	0.0
111	0x00000000	0.0
112	0x00000000	0.0
113	0x00000000	0.0
114	0x00000000	0.0
115	0x00000000	0.0
116	0x00000000	0.0
117	0x00000000	0.0
118	0x00000000	0.0
119	0x00000000	0.0
120	0x00000000	0.0
121	0x00000000	0.0
122	0x00000000	0.0
123	0x00000000	0.0
124	0x00000000	0.0
125	0x00000000	0.0
126	0x00000000	0.0
127	0x00000000	0.0
