assist_satellite/wakewords/hey_home_assistant.tflite (tflite, 62112 bytes, 18 tensors)

model_1/dense_1/MatMul i1 [1, 1088] scale=0.0012801897 zero_point=0
0	0x13	0.024323605
1	0xc6	-0.074251
2	0xfb	-0.0064009484
3	0xc2	-0.079371765
4	0xd3	-0.057608537
5	0xd3	-0.057608537
6	0xa1	-0.121618025
7	0x28	0.051207587
8	0xad	-0.10625575
9	0x33	0.065289676
10	0xb7	-0.09345385
11	0xf2	-0.017922657
12	0xd3	-0.057608537
13	0x9c	-0.12801898
14	0xe0	-0.04096607
15	0xa9	-0.11137651
16	0x30	0.061449107
17	0x18	0.030724553
18	0xc3	-0.07809158
19	0xed	-0.024323605
20	0x0c	0.015362277
21	0xe6	-0.033284932
22	0xf7	-0.011521707
23	0xf8	-0.010241518
24	0x06	0.0076811383
25	0xe3	-0.0371255
26	0xd2	-0.058888726
27	0x07	0.008961328
28	0x31	0.0627293
29	0xeb	-0.026883984
30	0xda	-0.04864721
31	0xb3	-0.09857461
32	0xd9	-0.0499274
33	0x00	0.0
34	0xe5	-0.03456512
35	0xe2	-0.03840569
36	0x2b	0.055048157
37	0xb7	-0.09345385
38	0xfc	-0.005120759
39	0x99	-0.13185954
40	0x0e	0.017922657
41	0x1f	0.039685883
42	0xc0	-0.08193214
43	0xa5	-0.11649726
44	0xf0	-0.020483036
45	0xeb	-0.026883984
46	0xd9	-0.0499274
47	0xf0	-0.020483036
48	0x07	0.008961328
49	0xcf	-0.0627293
50	0x21	0.04224626
51	0xf5	-0.014082087
52	0x15	0.026883984
53	0xd1	-0.06016892
54	0xf8	-0.010241518
55	0x28	0.051207587
56	0xf0	-0.020483036
57	0x2e	0.058888726
58	0xd7	-0.05248778
59	0xe0	-0.04096607
60	0xaa	-0.11009631
61	0xc8	-0.07169063
62	0xc0	-0.08193214
63	0x57	0.11137651
64	0x35	0.06785005
65	0xa7	-0.113936886
66	0xe7	-0.032004744
67	0xd5	-0.055048157
68	0xb5	-0.09601423
69	0xda	-0.04864721
70	0xc3	-0.07809158
71	0xf5	-0.014082087
72	0xf7	-0.011521707
73	0x23	0.04480664
74	0xc8	-0.07169063
75	0xe1	-0.039685883
76	0xca	-0.06913024
77	0xde	-0.043526452
78	0xeb	-0.026883984
79	0xe2	-0.03840569
80	0x24	0.04608683
81	0xab	-0.108816124
82	0xf3	-0.016642466
83	0xdf	-0.04224626
84	0xfa	-0.0076811383
85	0xff	-0.0012801897
86	0x00	0.0
87	0xf5	-0.014082087
88	0xf6	-0.012801897
89	0xf8	-0.010241518
90	0xd0	-0.061449107
91	0xc0	-0.08193214
92	0x46	0.08961328
93	0xf6	-0.012801897
94	0x9c	-0.12801898
95	0xdd	-0.04480664
96	0xcf	-0.0627293
97	0xbb	-0.08833309
98	0xa6	-0.115217075
99	0xe1	-0.039685883
100	0x21	0.04224626
101	0xc4	-0.07681138
102	0xdb	-0.04736702
103	0xb3	-0.09857461
104	0xdb	-0.04736702
105	0x2e	0.058888726
106	0xdd	-0.04480664
107	0xca	-0.06913024
108	0x26	0.04864721
109	0x07	0.008961328
110	0xb4	-0.09729442
111	0xd4	-0.05632835
112	0x19	0.032004744
113	0x99	-0.13185954
114	0xdb	-0.04736702
115	0xb3	-0.09857461
116	0x13	0.024323605
117	0xde	-0.043526452
118	0xdf	-0.04224626
119	0x2b	0.055048157
120	0xcb	-0.06785005
121	0x13	0.024323605
122	0x0f	0.019202845
123	0x2f	0.06016892
124	0xfd	-0.0038405692
125	0x9b	-0.12929916
126	0xee	-0.023043415
127	0x3a	0.074251
128	0x33	0.065289676
129	0xc5	-0.07553119
130	0xd9	-0.0499274
131	0xa6	-0.115217075
132	0xd1	-0.06016892
133	0x15	0.026883984
134	0x0a	0.012801897
135	0x23	0.04480664
136	0xa7	-0.113936886
137	0xf2	-0.017922657
138	0x06	0.0076811383
139	0xd4	-0.05632835
140	0xa7	-0.113936886
141	0xeb	-0.026883984
142	0xa3	-0.11905765
143	0xea	-0.028164174
144	0x15	0.026883984
145	0x03	0.0038405692
146	0x9f	-0.1241784
147	0x0a	0.012801897
148	0xea	-0.028164174
149	0xc4	-0.07681138
150	0xec	-0.025603794
151	0x00	0.0
152	0xb8	-0.09217366
153	0xdb	-0.04736702
154	0xf0	-0.020483036
155	0xfd	-0.0038405692
156	0xd8	-0.051207587
157	0xaf	-0.10369537
158	0xf1	-0.019202845
159	0xc3	-0.07809158
160	0xac	-0.107535936
161	0xb3	-0.09857461
162	0xfa	-0.0076811383
163	0x08	0.010241518
164	0xd1	-0.06016892
165	0x08	0.010241518
166	0xc4	-0.07681138
167	0x03	0.0038405692
168	0x0b	0.014082087
169	0x17	0.029444363
170	0xea	-0.028164174
171	0x1a	0.033284932
172	0xf6	-0.012801897
173	0x15	0.026883984
174	0x9f	-0.1241784
175	0xa0	-0.12289821
176	0x20	0.04096607
177	0xc0	-0.08193214
178	0xb2	-0.0998548
179	0xeb	-0.026883984
180	0x15	0.026883984
181	0xdd	-0.04480664
182	0xd0	-0.061449107
183	0xe2	-0.03840569
184	0x81	-0.1625841
185	0x35	0.06785005
186	0xe5	-0.03456512
187	0xd0	-0.061449107
188	0xa4	-0.11777745
189	0xa6	-0.115217075
190	0xfa	-0.0076811383
191	0x29	0.05248778
192	0x25	0.04736702
193	0xd0	-0.061449107
194	0x07	0.008961328
195	0xe5	-0.03456512
196	0xcd	-0.065289676
197	0x04	0.005120759
198	0xf1	-0.019202845
199	0x3b	0.07553119
200	0xb3	-0.09857461
201	0x25	0.04736702
202	0x13	0.024323605
203	0x90	-0.14338125
204	0xae	-0.10497556
205	0xde	-0.043526452
206	0xbd	-0.08577271
207	0x0f	0.019202845
208	0x0b	0.014082087
209	0xaa	-0.11009631
210	0xdb	-0.04736702
211	0x0b	0.014082087
212	0xab	-0.108816124
213	0xfe	-0.0025603794
214	0xec	-0.025603794
215	0xda	-0.04864721
216	0xe9	-0.029444363
217	0xf5	-0.014082087
218	0x10	0.020483036
219	0xa1	-0.121618025
220	0xfc	-0.005120759
221	0xda	-0.04864721
222	0xe5	-0.03456512
223	0xfc	-0.005120759
224	0xce	-0.06400949
225	0x05	0.0064009484
226	0xdf	-0.04224626
227	0xea	-0.028164174
228	0xe2	-0.03840569
229	0x1f	0.039685883
230	0x05	0.0064009484
231	0xe8	-0.030724553
232	0x18	0.030724553
233	0x40	0.08193214
234	0xa8	-0.1126567
235	0xca	-0.06913024
236	0x02	0.0025603794
237	0x04	0.005120759
238	0xf6	-0.012801897
239	0xb0	-0.102415174
240	0xee	-0.023043415
241	0xb2	-0.0998548
242	0xbc	-0.087052904
243	0xaa	-0.11009631
244	0xd1	-0.06016892
245	0xd7	-0.05248778
246	0x13	0.024323605
247	0xde	-0.043526452
248	0xa6	-0.115217075
249	0xec	-0.025603794
250	0xaa	-0.11009631
251	0x19	0.032004744
252	0xd5	-0.055048157
253	0xc9	-0.07041044
254	0xe3	-0.0371255
255	0x2d	0.057608537

model_1/conv2d_9/Conv2D i1 [64, 1, 1, 64]
0	0x2e	46
1	0xdc	-36
2	0x68	104
3	0x20	32
4	0x57	87
5	0xe7	-25
6	0xf0	-16
7	0xb4	-76
8	0x12	18
9	0xf3	-13
10	0xf0	-16
11	0x77	119
12	0xc1	-63
13	0x17	23
14	0x0b	11
15	0x37	55
16	0x94	-108
17	0xc5	-59
18	0xfe	-2
19	0xf0	-16
20	0x22	34
21	0xf5	-11
22	0x3a	58
23	0xbf	-65
24	0xf4	-12
25	0xec	-20
26	0x30	48
27	0xc6	-58
28	0x3c	60
29	0xfb	-5
30	0x29	41
31	0xb2	-78
32	0xe6	-26
33	0x26	38
34	0xd7	-41
35	0xe2	-30
36	0x15	21
37	0xf7	-9
38	0x37	55
39	0xc2	-62
40	0x24	36
41	0x12	18
42	0x30	48
43	0xde	-34
44	0xcc	-52
45	0x7f	127
46	0xce	-50
47	0x4c	76
48	0x2d	45
49	0x4b	75
50	0xff	-1
51	0x27	39
52	0x15	21
53	0xc6	-58
54	0xd1	-47
55	0x05	5
56	0x67	103
57	0x39	57
58	0x87	-121
59	0xe2	-30
60	0x59	89
61	0x02	2
62	0xd0	-48
63	0x20	32
64	0x0c	12
65	0x19	25
66	0x12	18
67	0xa4	-92
68	0xac	-84
69	0x13	19
70	0xb4	-76
71	0xdf	-33
72	0x22	34
73	0xcd	-51
74	0xef	-17
75	0x0c	12
76	0x26	38
77	0xd5	-43
78	0xba	-70
79	0xfa	-6
80	0x0e	14
81	0x41	65
82	0x23	35
83	0xf5	-11
84	0x8f	-113
85	0x3e	62
86	0x2d	45
87	0x50	80
88	0x7f	127
89	0xbf	-65
90	0x61	97
91	0x3e	62
92	0x0d	13
93	0x6b	107
94	0x40	64
95	0xbe	-66
96	0x04	4
97	0x2d	45
98	0xa2	-94
99	0x52	82
100	0xe2	-30
101	0x34	52
102	0x31	49
103	0xd4	-44
104	0x22	34
105	0xfd	-3
106	0x12	18
107	0xa3	-93
108	0x2d	45
109	0xb2	-78
110	0x0e	14
111	0xb4	-76
112	0xf4	-12
113	0xe9	-23
114	0x0c	12
115	0xc5	-59
116	0x8d	-115
117	0xf3	-13
118	0xa3	-93
119	0xe6	-26
120	0x0e	14
121	0xe5	-27
122	0x04	4
123	0xb1	-79
124	0xf2	-14
125	0x2f	47
126	0x09	9
127	0x04	4
128	0xf5	-11
129	0xcf	-49
130	0x5f	95
131	0xd9	-39
132	0x32	50
133	0xf2	-14
134	0x08	8
135	0xdf	-33
136	0xa1	-95
137	0x38	56
138	0x3b	59
139	0x81	-127
140	0x41	65
141	0x5f	95
142	0xdf	-33
143	0xe4	-28
144	0x20	32
145	0x3f	63
146	0x5e	94
147	0x90	-112
148	0xbc	-68
149	0x46	70
150	0x46	70
151	0xd2	-46
152	0x11	17
153	0x6c	108
154	0xb2	-78
155	0xee	-18
156	0xf8	-8
157	0x25	37
158	0x21	33
159	0xc5	-59
160	0xbf	-65
161	0xdb	-37
162	0x36	54
163	0x1e	30
164	0xf4	-12
165	0xd4	-44
166	0xfc	-4
167	0x2c	44
168	0xec	-20
169	0x0f	15
170	0xb7	-73
171	0x44	68
172	0x2f	47
173	0xda	-38
174	0x5a	90
175	0x01	1
176	0x5f	95
177	0x2c	44
178	0xaf	-81
179	0xa4	-92
180	0x58	88
181	0xed	-19
182	0x3f	63
183	0x4a	74
184	0xa0	-96
185	0xf9	-7
186	0x33	51
187	0x68	104
188	0xed	-19
189	0x2b	43
190	0xaf	-81
191	0x48	72
192	0xb6	-74
193	0x34	52
194	0xd5	-43
195	0xf1	-15
196	0xa6	-90
197	0xe3	-29
198	0x59	89
199	0x1a	26
200	0x81	-127
201	0x52	82
202	0x60	96
203	0x19	25
204	0x43	67
205	0xfa	-6
206	0xe8	-24
207	0x25	37
208	0xdf	-33
209	0x7b	123
210	0xa6	-90
211	0x3f	63
212	0xde	-34
213	0x1e	30
214	0xe5	-27
215	0x1e	30
216	0xe7	-25
217	0x9d	-99
218	0xac	-84
219	0xe6	-26
220	0x2b	43
221	0xe2	-30
222	0x25	37
223	0xfc	-4
224	0x0d	13
225	0xd6	-42
226	0xee	-18
227	0xc4	-60
228	0x29	41
229	0xfd	-3
230	0xef	-17
231	0xf4	-12
232	0x13	19
233	0xdb	-37
234	0x41	65
235	0x4f	79
236	0x12	18
237	0xc3	-61
238	0x7a	122
239	0xb4	-76
240	0x88	-120
241	0xcc	-52
242	0x7b	123
243	0xb8	-72
244	0xa3	-93
245	0x17	23
246	0xff	-1
247	0xf7	-9
248	0xa0	-96
249	0xfc	-4
250	0xe5	-27
251	0x65	101
252	0x33	51
253	0x10	16
254	0x2b	43
255	0xdb	-37

model_1/depthwise_conv2d_11/depthwise i1 [1, 23, 1, 64]
0	0xf9	-7
1	0xf0	-16
2	0x66	102
3	0x8a	-118
4	0xb7	-73
5	0x7f	127
6	0x3b	59
7	0x16	22
8	0xe1	-31
9	0xb2	-78
10	0x34	52
11	0x7f	127
12	0x5e	94
13	0xdf	-33
14	0x17	23
15	0xf3	-13
16	0xc0	-64
17	0x7f	127
18	0xc8	-56
19	0x4b	75
20	0x55	85
21	0xe4	-28
22	0xdf	-33
23	0x29	41
24	0x7f	127
25	0x9e	-98
26	0x17	23
27	0xde	-34
28	0xe0	-32
29	0xe6	-26
30	0x3a	58
31	0x50	80
32	0x0d	13
33	0x1a	26
34	0x13	19
35	0xc9	-55
36	0x81	-127
37	0x1d	29
38	0x01	1
39	0xfb	-5
40	0x01	1
41	0x35	53
42	0x0e	14
43	0x34	52
44	0x81	-127
45	0x77	119
46	0xe7	-25
47	0x03	3
48	0x39	57
49	0x07	7
50	0x58	88
51	0x16	22
52	0x7f	127
53	0x0d	13
54	0xdc	-36
55	0x0a	10
56	0x6a	106
57	0x81	-127
58	0x09	9
59	0x81	-127
60	0xc3	-61
61	0x38	56
62	0xc8	-56
63	0xe2	-30
64	0x58	88
65	0xb0	-80
66	0x60	96
67	0x81	-127
68	0xbe	-66
69	0x5d	93
70	0x7f	127
71	0xe8	-24
72	0xf9	-7
73	0xb5	-75
74	0x52	82
75	0x56	86
76	0x42	66
77	0x8c	-116
78	0x22	34
79	0xdd	-35
80	0xdd	-35
81	0x35	53
82	0xca	-54
83	0x1e	30
84	0x35	53
85	0x88	-120
86	0xf9	-7
87	0x2e	46
88	0x44	68
89	0x81	-127
90	0xef	-17
91	0xcb	-53
92	0x17	23
93	0x2d	45
94	0x56	86
95	0x16	22
96	0x50	80
97	0x10	16
98	0x10	16
99	0x8e	-114
100	0x93	-109
101	0x1a	26
102	0x06	6
103	0x06	6
104	0x56	86
105	0xf8	-8
106	0x81	-127
107	0xd4	-44
108	0xb3	-77
109	0x79	121
110	0xe2	-30
111	0x38	56
112	0x0d	13
113	0xf3	-13
114	0x35	53
115	0x0f	15
116	0x47	71
117	0xe6	-26
118	0xac	-84
119	0xee	-18
120	0x7f	127
121	0x93	-109
122	0xdc	-36
123	0xf1	-15
124	0x03	3
125	0x0a	10
126	0x77	119
127	0xef	-17
128	0x17	23
129	0xae	-82
130	0x54	84
131	0xb4	-76
132	0x9e	-98
133	0x14	20
134	0x47	71
135	0x0e	14
136	0xee	-18
137	0x02	2
138	0x21	33
139	0x49	73
140	0x5a	90
141	0xae	-82
142	0x7f	127
143	0xb9	-71
144	0xb9	-71
145	0xfb	-5
146	0xed	-19
147	0x3c	60
148	0x0e	14
149	0xe5	-27
150	0xd9	-39
151	0xe8	-24
152	0x67	103
153	0x88	-120
154	0x6e	110
155	0xe9	-23
156	0x0c	12
157	0x19	25
158	0xe3	-29
159	0xd1	-47
160	0x7f	127
161	0x0b	11
162	0x70	112
163	0xb3	-77
164	0xcd	-51
165	0xeb	-21
166	0xf4	-12
167	0xeb	-21
168	0x41	65
169	0x7f	127
170	0xe2	-30
171	0x9e	-98
172	0x91	-111
173	0x39	57
174	0xf3	-13
175	0x3d	61
176	0xf1	-15
177	0xe1	-31
178	0x12	18
179	0x00	0
180	0x32	50
181	0xf6	-10
182	0xc7	-57
183	0xd1	-47
184	0x66	102
185	0xfa	-6
186	0x1d	29
187	0x49	73
188	0xfe	-2
189	0x34	52
190	0x24	36
191	0x38	56
192	0x3d	61
193	0xb5	-75
194	0xf4	-12
195	0x96	-106
196	0x8b	-117
197	0x22	34
198	0xe5	-27
199	0x11	17
200	0x56	86
201	0xd6	-42
202	0x1e	30
203	0x20	32
204	0x0b	11
205	0x8d	-115
206	0x63	99
207	0xe1	-31
208	0xc4	-60
209	0x05	5
210	0xd2	-46
211	0xf3	-13
212	0x1b	27
213	0x29	41
214	0xe2	-30
215	0x0d	13
216	0x38	56
217	0xa8	-88
218	0x66	102
219	0xe8	-24
220	0x0b	11
221	0x52	82
222	0x67	103
223	0x09	9
224	0x3d	61
225	0xf7	-9
226	0x7f	127
227	0xf3	-13
228	0x00	0
229	0xd0	-48
230	0x12	18
231	0xe4	-28
232	0x5f	95
233	0x12	18
234	0x2a	42
235	0xd4	-44
236	0xff	-1
237	0x4b	75
238	0xfd	-3
239	0xe2	-30
240	0x05	5
241	0x1d	29
242	0x31	49
243	0x2a	42
244	0x16	22
245	0x1d	29
246	0xdd	-35
247	0xc6	-58
248	0x2c	44
249	0x08	8
250	0x14	20
251	0x54	84
252	0x27	39
253	0x35	53
254	0xf8	-8
255	0x12	18

model_1/conv2d_8/Conv2D i1 [64, 1, 1, 64]
0	0x5b	91
1	0xdd	-35
2	0x40	64
3	0x0b	11
4	0x39	57
5	0x15	21
6	0xd9	-39
7	0x08	8
8	0xed	-19
9	0x7f	127
10	0x40	64
11	0xdf	-33
12	0xe6	-26
13	0xd8	-40
14	0xcb	-53
15	0xf4	-12
16	0x92	-110
17	0xe2	-30
18	0x41	65
19	0x0e	14
20	0x4d	77
21	0x26	38
22	0x12	18
23	0xb1	-79
24	0xf2	-14
25	0x6f	111
26	0x34	52
27	0x12	18
28	0x1f	31
29	0xe8	-24
30	0xf8	-8
31	0x72	114
32	0x27	39
33	0xc0	-64
34	0xc1	-63
35	0xec	-20
36	0x4a	74
37	0xba	-70
38	0x4c	76
39	0xf5	-11
40	0xbd	-67
41	0xe3	-29
42	0xd5	-43
43	0xf0	-16
44	0x01	1
45	0xff	-1
46	0xf0	-16
47	0xca	-54
48	0x4c	76
49	0xce	-50
50	0x37	55
51	0xe1	-31
52	0xe3	-29
53	0xc3	-61
54	0x19	25
55	0xe4	-28
56	0x39	57
57	0xdd	-35
58	0xba	-70
59	0xbc	-68
60	0x02	2
61	0x1c	28
62	0x22	34
63	0x15	21
64	0x89	-119
65	0x40	64
66	0xd1	-47
67	0xa0	-96
68	0x5a	90
69	0xb6	-74
70	0xfd	-3
71	0x1f	31
72	0x4e	78
73	0xef	-17
74	0xf7	-9
75	0xdb	-37
76	0xbc	-68
77	0x10	16
78	0xec	-20
79	0x81	-127
80	0xea	-22
81	0x12	18
82	0x0f	15
83	0xe4	-28
84	0x1b	27
85	0xe8	-24
86	0xb1	-79
87	0x84	-124
88	0xcf	-49
89	0x21	33
90	0xbe	-66
91	0xa4	-92
92	0x55	85
93	0xb8	-72
94	0x7d	125
95	0xd0	-48
96	0xdb	-37
97	0xd6	-42
98	0xd1	-47
99	0xdd	-35
100	0xdb	-37
101	0x17	23
102	0x41	65
103	0xa3	-93
104	0x77	119
105	0x03	3
106	0xc5	-59
107	0x69	105
108	0x2e	46
109	0x13	19
110	0xd7	-41
111	0xd2	-46
112	0xce	-50
113	0xbb	-69
114	0x4e	78
115	0x0c	12
116	0xcc	-52
117	0x13	19
118	0xb0	-80
119	0x14	20
120	0xd9	-39
121	0x32	50
122	0x48	72
123	0xaf	-81
124	0x26	38
125	0x40	64
126	0x61	97
127	0xe1	-31
128	0x28	40
129	0x5a	90
130	0xd7	-41
131	0xcc	-52
132	0x9c	-100
133	0x1d	29
134	0xcc	-52
135	0x16	22
136	0xa8	-88
137	0x0f	15
138	0xe8	-24
139	0x45	69
140	0xfe	-2
141	0xce	-50
142	0xcf	-49
143	0xe6	-26
144	0x58	88
145	0x7f	127
146	0x21	33
147	0xb0	-80
148	0x1d	29
149	0x62	98
150	0x48	72
151	0xce	-50
152	0x21	33
153	0x21	33
154	0xbe	-66
155	0xbd	-67
156	0x45	69
157	0x50	80
158	0x51	81
159	0x62	98
160	0x3b	59
161	0xc7	-57
162	0xea	-22
163	0xb3	-77
164	0x39	57
165	0xc0	-64
166	0x22	34
167	0xa8	-88
168	0xf7	-9
169	0xc9	-55
170	0xaf	-81
171	0x16	22
172	0xa0	-96
173	0x38	56
174	0xeb	-21
175	0xff	-1
176	0x16	22
177	0x22	34
178	0x64	100
179	0xc9	-55
180	0xb9	-71
181	0xe0	-32
182	0x9a	-102
183	0xe4	-28
184	0x00	0
185	0x25	37
186	0x5c	92
187	0x03	3
188	0xe8	-24
189	0xff	-1
190	0x28	40
191	0x49	73
192	0x2a	42
193	0x44	68
194	0xe8	-24
195	0x9f	-97
196	0x18	24
197	0x32	50
198	0x44	68
199	0xf6	-10
200	0x58	88
201	0x20	32
202	0x20	32
203	0xed	-19
204	0xa8	-88
205	0xf7	-9
206	0xac	-84
207	0x63	99
208	0xb7	-73
209	0x42	66
210	0xe4	-28
211	0x5d	93
212	0x2c	44
213	0xbc	-68
214	0x5e	94
215	0x15	21
216	0x1f	31
217	0xb4	-76
218	0x10	16
219	0xfa	-6
220	0xc4	-60
221	0x0e	14
222	0x50	80
223	0x17	23
224	0xcc	-52
225	0x29	41
226	0xdd	-35
227	0x33	51
228	0x3b	59
229	0x53	83
230	0xf9	-7
231	0x6f	111
232	0x51	81
233	0xcd	-51
234	0xb0	-80
235	0xb7	-73
236	0xe8	-24
237	0xc2	-62
238	0x2c	44
239	0x60	96
240	0x13	19
241	0xb0	-80
242	0x42	66
243	0x18	24
244	0x81	-127
245	0x0a	10
246	0xfa	-6
247	0x94	-108
248	0x01	1
249	0xc3	-61
250	0x9e	-98
251	0x52	82
252	0xd8	-40
253	0x26	38
254	0x0d	13
255	0x62	98

model_1/depthwise_conv2d_10/depthwise1 i1 [1, 15, 1, 32]
0	0x29	41
1	0x6a	106
2	0x78	120
3	0xfd	-3
4	0x2d	45
5	0x0e	14
6	0x46	70
7	0x5f	95
8	0x38	56
9	0x81	-127
10	0xb2	-78
11	0x32	50
12	0xdc	-36
13	0xda	-38
14	0xe9	-23
15	0xf5	-11
16	0xe5	-27
17	0xeb	-21
18	0x44	68
19	0xa2	-94
20	0x90	-112
21	0xef	-17
22	0xce	-50
23	0xa4	-92
24	0x9b	-101
25	0x6e	110
26	0x9a	-102
27	0xd0	-48
28	0xde	-34
29	0x16	22
30	0x1d	29
31	0xcc	-52
32	0x30	48
33	0x71	113
34	0x6a	106
35	0x25	37
36	0x59	89
37	0x49	73
38	0xfd	-3
39	0xdc	-36
40	0x10	16
41	0xbb	-69
42	0x27	39
43	0xe0	-32
44	0x28	40
45	0x41	65
46	0x2a	42
47	0xf8	-8
48	0xc2	-62
49	0x66	102
50	0x32	50
51	0xde	-34
52	0xdc	-36
53	0x48	72
54	0x16	22
55	0x0b	11
56	0xbc	-68
57	0x43	67
58	0x81	-127
59	0xe4	-28
60	0xf0	-16
61	0x49	73
62	0x46	70
63	0x1a	26
64	0x54	84
65	0x0f	15
66	0xfa	-6
67	0xdb	-37
68	0x43	67
69	0x25	37
70	0xc9	-55
71	0x3c	60
72	0x36	54
73	0xbb	-69
74	0x46	70
75	0xba	-70
76	0xf3	-13
77	0x36	54
78	0xcb	-53
79	0x2c	44
80	0xe2	-30
81	0xd5	-43
82	0x67	103
83	0xf1	-15
84	0x99	-103
85	0x76	118
86	0xb2	-78
87	0x94	-108
88	0xd0	-48
89	0x2e	46
90	0x8f	-113
91	0x4c	76
92	0xcd	-51
93	0x70	112
94	0xf7	-9
95	0x09	9
96	0x13	19
97	0x07	7
98	0x0b	11
99	0x0a	10
100	0x46	70
101	0x0f	15
102	0x81	-127
103	0xaf	-81
104	0xfe	-2
105	0x01	1
106	0x57	87
107	0xb4	-76
108	0x60	96
109	0xf3	-13
110	0xdc	-36
111	0x33	51
112	0x3c	60
113	0x3c	60
114	0x0c	12
115	0xde	-34
116	0xa0	-96
117	0x3b	59
118	0x87	-121
119	0x06	6
120	0x42	66
121	0x1e	30
122	0xbf	-65
123	0xbe	-66
124	0x24	36
125	0x7f	127
126	0x01	1
127	0xc0	-64
128	0xec	-20
129	0xbc	-68
130	0x7f	127
131	0x81	-127
132	0xca	-54
133	0xf9	-7
134	0xa9	-87
135	0x9a	-102
136	0x07	7
137	0xe6	-26
138	0xba	-70
139	0xdd	-35
140	0xf4	-12
141	0x5f	95
142	0xdb	-37
143	0x0c	12
144	0x00	0
145	0x52	82
146	0x58	88
147	0x03	3
148	0xeb	-21
149	0x97	-105
150	0x97	-105
151	0x9a	-102
152	0x31	49
153	0xf1	-15
154	0xcb	-53
155	0x9e	-98
156	0xf2	-14
157	0xeb	-21
158	0x89	-119
159	0xdf	-33
160	0x06	6
161	0xd8	-40
162	0xf7	-9
163	0xa5	-91
164	0xe3	-29
165	0xb1	-79
166	0x02	2
167	0x17	23
168	0x2b	43
169	0xb4	-76
170	0xef	-17
171	0x88	-120
172	0x53	83
173	0x1b	27
174	0xf9	-7
175	0x1c	28
176	0x46	70
177	0x55	85
178	0xd3	-45
179	0xda	-38
180	0x0f	15
181	0x38	56
182	0xbe	-66
183	0x36	54
184	0xda	-38
185	0xba	-70
186	0x4d	77
187	0xe4	-28
188	0xe7	-25
189	0x1f	31
190	0xae	-82
191	0xf2	-14
192	0xb9	-71
193	0x2c	44
194	0x24	36
195	0x8a	-118
196	0x20	32
197	0x47	71
198	0xdb	-37
199	0xcd	-51
200	0x41	65
201	0xd5	-43
202	0x49	73
203	0x81	-127
204	0x0e	14
205	0x1e	30
206	0x82	-126
207	0x05	5
208	0x1f	31
209	0xe3	-29
210	0xc6	-58
211	0xd2	-46
212	0x16	22
213	0xa5	-91
214	0x7a	122
215	0x0e	14
216	0x51	81
217	0x9a	-102
218	0x3f	63
219	0xd9	-39
220	0xcb	-53
221	0x57	87
222	0x8b	-117
223	0xc8	-56
224	0xad	-83
225	0x14	20
226	0xc6	-58
227	0xc6	-58
228	0xb7	-73
229	0xe7	-25
230	0xee	-18
231	0x8e	-114
232	0xf4	-12
233	0xfa	-6
234	0xb7	-73
235	0xd7	-41
236	0x1a	26
237	0x2a	42
238	0xd5	-43
239	0x34	52
240	0xee	-18
241	0xbf	-65
242	0x0c	12
243	0x21	33
244	0xfb	-5
245	0xc2	-62
246	0x1d	29
247	0x87	-121
248	0x37	55
249	0x8c	-116
250	0xfd	-3
251	0x14	20
252	0xca	-54
253	0xcd	-51
254	0xaf	-81
255	0xed	-19

model_1/depthwise_conv2d_9/depthwise i1 [1, 9, 1, 32]
0	0x50	80
1	0x6c	108
2	0x19	25
3	0xc0	-64
4	0x1b	27
5	0xf0	-16
6	0x7f	127
7	0xfb	-5
8	0xa9	-87
9	0xe3	-29
10	0xc6	-58
11	0xf0	-16
12	0xfb	-5
13	0x29	41
14	0x3b	59
15	0x36	54
16	0xf6	-10
17	0xd2	-46
18	0x12	18
19	0xcd	-51
20	0x13	19
21	0x7f	127
22	0x74	116
23	0x0f	15
24	0xed	-19
25	0x55	85
26	0x7f	127
27	0x37	55
28	0x81	-127
29	0xf2	-14
30	0x5d	93
31	0xf9	-7
32	0x92	-110
33	0x7f	127
34	0x03	3
35	0x00	0
36	0x0f	15
37	0xe6	-26
38	0x21	33
39	0x31	49
40	0xd7	-41
41	0x46	70
42	0x13	19
43	0xd0	-48
44	0x1b	27
45	0xd4	-44
46	0x14	20
47	0xcf	-49
48	0x22	34
49	0xbf	-65
50	0x16	22
51	0xe7	-25
52	0xaa	-86
53	0x69	105
54	0x48	72
55	0x4b	75
56	0x64	100
57	0xb0	-80
58	0xe4	-28
59	0x1d	29
60	0xcb	-53
61	0x16	22
62	0x19	25
63	0x44	68
64	0xb3	-77
65	0x56	86
66	0x0d	13
67	0x1f	31
68	0x33	51
69	0xe8	-24
70	0x24	36
71	0xd9	-39
72	0xe6	-26
73	0x19	25
74	0xd5	-43
75	0xe5	-27
76	0x24	36
77	0xcb	-53
78	0xf7	-9
79	0xc2	-62
80	0xc7	-57
81	0xe9	-23
82	0xe4	-28
83	0x81	-127
84	0x3f	63
85	0x3e	62
86	0x5b	91
87	0x36	54
88	0xaa	-86
89	0x81	-127
90	0xe0	-32
91	0x82	-126
92	0x39	57
93	0x88	-120
94	0xbc	-68
95	0x4f	79
96	0x32	50
97	0x52	82
98	0x4c	76
99	0x81	-127
100	0x53	83
101	0x41	65
102	0x52	82
103	0xe6	-26
104	0x48	72
105	0xaf	-81
106	0xc2	-62
107	0xca	-54
108	0x5c	92
109	0x8e	-114
110	0x05	5
111	0x9a	-102
112	0x03	3
113	0xad	-83
114	0xb2	-78
115	0x92	-110
116	0xfe	-2
117	0xdd	-35
118	0x42	66
119	0x08	8
120	0xe9	-23
121	0xce	-50
122	0x2b	43
123	0xe5	-27
124	0xe5	-27
125	0x9f	-97
126	0x81	-127
127	0x55	85
128	0xb0	-80
129	0xfb	-5
130	0x7f	127
131	0x31	49
132	0x11	17
133	0xff	-1
134	0x26	38
135	0xb7	-73
136	0x28	40
137	0xfd	-3
138	0x9f	-97
139	0x0d	13
140	0x4d	77
141	0x81	-127
142	0xf1	-15
143	0xbb	-69
144	0x89	-119
145	0xd4	-44
146	0x2c	44
147	0x18	24
148	0x70	112
149	0xf9	-7
150	0x0a	10
151	0x0b	11
152	0xb0	-80
153	0x0b	11
154	0x7c	124
155	0xa3	-93
156	0x15	21
157	0x8e	-114
158	0xd5	-43
159	0xca	-54
160	0xde	-34
161	0xd1	-47
162	0x64	100
163	0xbb	-69
164	0x22	34
165	0x43	67
166	0x37	55
167	0xf5	-11
168	0x11	17
169	0xf2	-14
170	0xb2	-78
171	0x81	-127
172	0x7f	127
173	0xae	-82
174	0x4a	74
175	0x66	102
176	0xc4	-60
177	0xf8	-8
178	0x81	-127
179	0x09	9
180	0x6c	108
181	0x60	96
182	0x7f	127
183	0x20	32
184	0x4f	79
185	0x54	84
186	0x6e	110
187	0x86	-122
188	0xdf	-33
189	0xda	-38
190	0x1d	29
191	0x54	84
192	0x39	57
193	0xad	-83
194	0x39	57
195	0x40	64
196	0x10	16
197	0xe7	-25
198	0x49	73
199	0x40	64
200	0x02	2
201	0x9e	-98
202	0xc4	-60
203	0xb0	-80
204	0x16	22
205	0xc0	-64
206	0x0a	10
207	0x2f	47
208	0x81	-127
209	0x37	55
210	0xc8	-56
211	0xcd	-51
212	0xfd	-3
213	0x72	114
214	0x7c	124
215	0x81	-127
216	0xbf	-65
217	0x4e	78
218	0x28	40
219	0xd6	-42
220	0x3e	62
221	0x7f	127
222	0xe1	-31
223	0x7f	127
224	0x79	121
225	0x9b	-101
226	0x6a	106
227	0x52	82
228	0x81	-127
229	0xcb	-53
230	0xf3	-13
231	0x4f	79
232	0x30	48
233	0x0b	11
234	0x81	-127
235	0x96	-106
236	0x58	88
237	0x56	86
238	0x36	54
239	0x76	118
240	0xb1	-79
241	0x21	33
242	0x41	65
243	0xec	-20
244	0xe8	-24
245	0x69	105
246	0xc0	-64
247	0x0d	13
248	0x81	-127
249	0x03	3
250	0x77	119
251	0x7f	127
252	0x48	72
253	0x51	81
254	0xbe	-66
255	0x7e	126

model_1/conv2d_7/Conv2D i1 [64, 1, 1, 64]
0	0xfc	-4
1	0x40	64
2	0x35	53
3	0x5c	92
4	0x34	52
5	0xca	-54
6	0xd8	-40
7	0xff	-1
8	0xcf	-49
9	0xc8	-56
10	0x1e	30
11	0x30	48
12	0xa3	-93
13	0x1b	27
14	0x09	9
15	0xf4	-12
16	0xe0	-32
17	0xff	-1
18	0x26	38
19	0xce	-50
20	0x01	1
21	0xf7	-9
22	0xe0	-32
23	0x7f	127
24	0xb6	-74
25	0x38	56
26	0xc3	-61
27	0x40	64
28	0xee	-18
29	0x42	66
30	0xc1	-63
31	0x57	87
32	0xec	-20
33	0x08	8
34	0x4b	75
35	0x07	7
36	0x62	98
37	0x33	51
38	0xd2	-46
39	0x3d	61
40	0xf5	-11
41	0x39	57
42	0x54	84
43	0xba	-70
44	0x18	24
45	0x50	80
46	0x0d	13
47	0xca	-54
48	0x2d	45
49	0xf4	-12
50	0xe2	-30
51	0xfd	-3
52	0xe6	-26
53	0x4d	77
54	0x1a	26
55	0x3f	63
56	0x17	23
57	0xce	-50
58	0x2a	42
59	0xee	-18
60	0x39	57
61	0xea	-22
62	0x45	69
63	0xc6	-58
64	0x2a	42
65	0xc7	-57
66	0x4c	76
67	0x0e	14
68	0x21	33
69	0xb6	-74
70	0xe7	-25
71	0xfd	-3
72	0x40	64
73	0x31	49
74	0x96	-106
75	0xcf	-49
76	0x2b	43
77	0x36	54
78	0x23	35
79	0xc1	-63
80	0xd8	-40
81	0xa6	-90
82	0x12	18
83	0xb1	-79
84	0x81	-127
85	0x06	6
86	0xc5	-59
87	0x76	118
88	0x02	2
89	0xb7	-73
90	0xe8	-24
91	0x2b	43
92	0xfa	-6
93	0xff	-1
94	0xec	-20
95	0xba	-70
96	0x0b	11
97	0xf9	-7
98	0x14	20
99	0x3e	62
100	0xdd	-35
101	0xb1	-79
102	0x53	83
103	0x36	54
104	0x18	24
105	0xcb	-53
106	0x84	-124
107	0xfc	-4
108	0x22	34
109	0x0f	15
110	0xcb	-53
111	0x44	68
112	0x0f	15
113	0x24	36
114	0xe6	-26
115	0xcb	-53
116	0xf2	-14
117	0xae	-82
118	0xc7	-57
119	0x16	22
120	0x6e	110
121	0xdf	-33
122	0x47	71
123	0xc5	-59
124	0xbd	-67
125	0x20	32
126	0x11	17
127	0x97	-105
128	0x0c	12
129	0x28	40
130	0x36	54
131	0xe7	-25
132	0x44	68
133	0xea	-22
134	0x34	52
135	0x1f	31
136	0x34	52
137	0xd7	-41
138	0x42	66
139	0x3c	60
140	0xc2	-62
141	0xfd	-3
142	0x18	24
143	0xf9	-7
144	0xd0	-48
145	0x10	16
146	0x0a	10
147	0x22	34
148	0xce	-50
149	0xf1	-15
150	0xc6	-58
151	0xc6	-58
152	0x8d	-115
153	0x6a	106
154	0x27	39
155	0xc5	-59
156	0xd7	-41
157	0x00	0
158	0xa6	-90
159	0x3c	60
160	0xff	-1
161	0x0c	12
162	0x03	3
163	0x0d	13
164	0x14	20
165	0x60	96
166	0x2a	42
167	0x93	-109
168	0xdd	-35
169	0x67	103
170	0x7f	127
171	0x26	38
172	0xe4	-28
173	0x04	4
174	0x33	51
175	0xe7	-25
176	0xd7	-41
177	0x0c	12
178	0x32	50
179	0xbc	-68
180	0x09	9
181	0xba	-70
182	0x41	65
183	0x33	51
184	0xe2	-30
185	0xb8	-72
186	0x08	8
187	0x0d	13
188	0xc7	-57
189	0xdb	-37
190	0x35	53
191	0x01	1
192	0xc3	-61
193	0xcd	-51
194	0x3f	63
195	0xd3	-45
196	0xce	-50
197	0xac	-84
198	0xc0	-64
199	0x52	82
200	0x9b	-101
201	0xfd	-3
202	0x64	100
203	0xc3	-61
204	0xf5	-11
205	0xe5	-27
206	0xfc	-4
207	0xc8	-56
208	0x15	21
209	0xbb	-69
210	0x97	-105
211	0xdf	-33
212	0x2c	44
213	0x10	16
214	0x13	19
215	0xfb	-5
216	0xd7	-41
217	0x14	20
218	0x2b	43
219	0xbb	-69
220	0xb9	-71
221	0x98	-104
222	0x64	100
223	0x15	21
224	0x4a	74
225	0x3e	62
226	0xea	-22
227	0x3b	59
228	0xbf	-65
229	0x99	-103
230	0xe5	-27
231	0x7f	127
232	0xb3	-77
233	0xb2	-78
234	0x0d	13
235	0xc7	-57
236	0xfb	-5
237	0x6f	111
238	0x02	2
239	0x00	0
240	0xc8	-56
241	0x14	20
242	0x07	7
243	0xf1	-15
244	0x21	33
245	0xe8	-24
246	0xf9	-7
247	0x43	67
248	0xe9	-23
249	0x9e	-98
250	0x6e	110
251	0x8d	-115
252	0x51	81
253	0x27	39
254	0x1a	26
255	0xf1	-15

model_1/depthwise_conv2d_8/depthwise i1 [1, 11, 1, 32]
0	0xba	-70
1	0xc3	-61
2	0x81	-127
3	0x7f	127
4	0xc4	-60
5	0x3e	62
6	0x0d	13
7	0xca	-54
8	0x70	112
9	0xdf	-33
10	0x81	-127
11	0x12	18
12	0xf0	-16
13	0x8e	-114
14	0x46	70
15	0x08	8
16	0x64	100
17	0xfb	-5
18	0x9d	-99
19	0xbe	-66
20	0x7f	127
21	0xe0	-32
22	0x0c	12
23	0x7f	127
24	0x4f	79
25	0x81	-127
26	0x4c	76
27	0x4d	77
28	0x37	55
29	0x81	-127
30	0x7b	123
31	0x7f	127
32	0xd6	-42
33	0x05	5
34	0xb8	-72
35	0x60	96
36	0xc1	-63
37	0xfc	-4
38	0x59	89
39	0x81	-127
40	0x7f	127
41	0xb1	-79
42	0xe0	-32
43	0x24	36
44	0x26	38
45	0x81	-127
46	0x1e	30
47	0x28	40
48	0x1d	29
49	0xb4	-76
50	0x0c	12
51	0x24	36
52	0x13	19
53	0xa1	-95
54	0x21	33
55	0x7d	125
56	0x7f	127
57	0x00	0
58	0x5f	95
59	0x07	7
60	0xe3	-29
61	0xee	-18
62	0x7f	127
63	0xf8	-8
64	0x8a	-118
65	0x7f	127
66	0xd3	-45
67	0xe7	-25
68	0xf5	-11
69	0x0a	10
70	0xda	-38
71	0x50	80
72	0xc5	-59
73	0x81	-127
74	0xf4	-12
75	0x10	16
76	0xb9	-71
77	0xf0	-16
78	0x1e	30
79	0x45	69
80	0x7f	127
81	0x2a	42
82	0x11	17
83	0x5d	93
84	0xf5	-11
85	0xaf	-81
86	0x2b	43
87	0x69	105
88	0x69	105
89	0x34	52
90	0xdd	-35
91	0x73	115
92	0x19	25
93	0xc0	-64
94	0x05	5
95	0x06	6
96	0x81	-127
97	0xf0	-16
98	0x43	67
99	0x94	-108
100	0x4d	77
101	0xc4	-60
102	0xbe	-66
103	0xdf	-33
104	0xfb	-5
105	0xc2	-62
106	0xc0	-64
107	0xe9	-23
108	0xf3	-13
109	0xdf	-33
110	0x1d	29
111	0x20	32
112	0x46	70
113	0xc6	-58
114	0x05	5
115	0xb5	-75
116	0xd1	-47
117	0x81	-127
118	0x7f	127
119	0xf6	-10
120	0xe3	-29
121	0x2a	42
122	0xc1	-63
123	0x04	4
124	0x7f	127
125	0x5e	94
126	0xd5	-43
127	0xd7	-41
128	0xb8	-72
129	0xcc	-52
130	0x08	8
131	0xf5	-11
132	0xbb	-69
133	0xe8	-24
134	0x37	55
135	0x7c	124
136	0xdb	-37
137	0x28	40
138	0xe9	-23
139	0x7f	127
140	0x01	1
141	0xbe	-66
142	0x07	7
143	0xef	-17
144	0x71	113
145	0x43	67
146	0x1d	29
147	0xec	-20
148	0xb8	-72
149	0xd8	-40
150	0xc9	-55
151	0xfb	-5
152	0x1c	28
153	0x5f	95
154	0xd7	-41
155	0xee	-18
156	0x52	82
157	0x06	6
158	0xb7	-73
159	0xfa	-6
160	0x01	1
161	0xf7	-9
162	0x2d	45
163	0x0b	11
164	0xbe	-66
165	0xfa	-6
166	0x07	7
167	0x37	55
168	0x37	55
169	0x5e	94
170	0x7e	126
171	0xcc	-52
172	0xb3	-77
173	0xdc	-36
174	0x25	37
175	0xcf	-49
176	0xc9	-55
177	0x11	17
178	0xc4	-60
179	0x81	-127
180	0xa2	-94
181	0xde	-34
182	0xd6	-42
183	0x14	20
184	0x27	39
185	0x4d	77
186	0x0c	12
187	0xba	-70
188	0x16	22
189	0x0f	15
190	0xb7	-73
191	0xc8	-56
192	0x09	9
193	0x75	117
194	0x2d	45
195	0x4f	79
196	0xe0	-32
197	0x45	69
198	0x73	115
199	0xd4	-44
200	0xcc	-52
201	0xf1	-15
202	0xdd	-35
203	0x3b	59
204	0x3e	62
205	0x94	-108
206	0x3d	61
207	0x3f	63
208	0xdd	-35
209	0xec	-20
210	0xae	-82
211	0xb3	-77
212	0x96	-106
213	0x2c	44
214	0x90	-112
215	0xc1	-63
216	0x23	35
217	0x3c	60
218	0x49	73
219	0xc5	-59
220	0xba	-70
221	0xcc	-52
222	0xca	-54
223	0x31	49
224	0xf3	-13
225	0x77	119
226	0xbb	-69
227	0xef	-17
228	0x7f	127
229	0xe5	-27
230	0x5d	93
231	0x0f	15
232	0x0a	10
233	0xbd	-67
234	0x90	-112
235	0xee	-18
236	0x81	-127
237	0x88	-120
238	0x4a	74
239	0xe4	-28
240	0xcd	-51
241	0x1f	31
242	0xb0	-80
243	0x36	54
244	0x00	0
245	0x24	36
246	0x9b	-101
247	0xa3	-93
248	0xee	-18
249	0x6a	106
250	0x07	7
251	0xa8	-88
252	0xbe	-66
253	0x1f	31
254	0x3b	59
255	0x55	85

model_1/depthwise_conv2d_7/depthwise i1 [1, 7, 1, 32]
0	0x28	40
1	0x6e	110
2	0x13	19
3	0x38	56
4	0x50	80
5	0x9c	-100
6	0x0a	10
7	0x2e	46
8	0x11	17
9	0x88	-120
10	0x36	54
11	0x26	38
12	0x67	103
13	0x27	39
14	0xb1	-79
15	0x9c	-100
16	0x7e	126
17	0x23	35
18	0x7f	127
19	0xd4	-44
20	0x76	118
21	0xd7	-41
22	0x5a	90
23	0x50	80
24	0xae	-82
25	0xb3	-77
26	0x83	-125
27	0xfc	-4
28	0xc9	-55
29	0xac	-84
30	0x46	70
31	0xdc	-36
32	0x3b	59
33	0x41	65
34	0x31	49
35	0x81	-127
36	0x65	101
37	0x81	-127
38	0x72	114
39	0x31	49
40	0x5b	91
41	0x06	6
42	0xee	-18
43	0xda	-38
44	0xd9	-39
45	0xd7	-41
46	0x23	35
47	0x1b	27
48	0x03	3
49	0x31	49
50	0x1a	26
51	0xfd	-3
52	0x7f	127
53	0x9f	-97
54	0x14	20
55	0x5c	92
56	0x62	98
57	0x88	-120
58	0xad	-83
59	0x6c	108
60	0xca	-54
61	0xb4	-76
62	0x7f	127
63	0x81	-127
64	0xdf	-33
65	0x2d	45
66	0xaa	-86
67	0xd2	-46
68	0xdd	-35
69	0x41	65
70	0x5b	91
71	0x1b	27
72	0xe3	-29
73	0xb7	-73
74	0xad	-83
75	0xad	-83
76	0x96	-106
77	0x8c	-116
78	0x8f	-113
79	0xb3	-77
80	0x1b	27
81	0x76	118
82	0xea	-22
83	0xb9	-71
84	0x54	84
85	0x81	-127
86	0x63	99
87	0x7f	127
88	0x4b	75
89	0xfb	-5
90	0x23	35
91	0x7f	127
92	0x03	3
93	0x7f	127
94	0x58	88
95	0x49	73
96	0xaa	-86
97	0xa4	-92
98	0xc7	-57
99	0xfc	-4
100	0x8b	-117
101	0x78	120
102	0x23	35
103	0x81	-127
104	0x35	53
105	0x3c	60
106	0x8c	-116
107	0x5f	95
108	0x7f	127
109	0x81	-127
110	0x95	-107
111	0x87	-121
112	0x70	112
113	0x96	-106
114	0xb5	-75
115	0x7f	127
116	0x66	102
117	0xad	-83
118	0x00	0
119	0xec	-20
120	0x97	-105
121	0x7f	127
122	0xba	-70
123	0x5c	92
124	0x19	25
125	0x71	113
126	0xa0	-96
127	0xc1	-63
128	0x81	-127
129	0xc1	-63
130	0x7f	127
131	0x64	100
132	0xdf	-33
133	0xc2	-62
134	0xb6	-74
135	0xb3	-77
136	0xd7	-41
137	0xf9	-7
138	0x81	-127
139	0x60	96
140	0x7b	123
141	0xc6	-58
142	0x45	69
143	0x7f	127
144	0x61	97
145	0x17	23
146	0xab	-85
147	0x56	86
148	0xe4	-28
149	0x30	48
150	0xae	-82
151	0xa2	-94
152	0xd8	-40
153	0x64	100
154	0xf6	-10
155	0x71	113
156	0xa2	-94
157	0x2d	45
158	0xe6	-26
159	0xb7	-73
160	0xc1	-63
161	0x81	-127
162	0x0f	15
163	0x35	53
164	0x81	-127
165	0x03	3
166	0x81	-127
167	0x3e	62
168	0xbb	-69
169	0x09	9
170	0x94	-108
171	0x8f	-113
172	0x3b	59
173	0xb1	-79
174	0x3d	61
175	0x04	4
176	0x81	-127
177	0xc2	-62
178	0x4f	79
179	0x82	-126
180	0x01	1
181	0x60	96
182	0x7f	127
183	0x9f	-97
184	0x67	103
185	0xa0	-96
186	0x7f	127
187	0xbc	-68
188	0x81	-127
189	0xba	-70
190	0xb5	-75
191	0xed	-19
192	0xc3	-61
193	0x82	-126
194	0xe5	-27
195	0x12	18
196	0xab	-85
197	0xcb	-53
198	0xcd	-51
199	0x24	36
200	0x81	-127
201	0x7f	127
202	0xd9	-39
203	0x81	-127
204	0xe8	-24
205	0xbe	-66
206	0x81	-127
207	0x56	86
208	0x58	88
209	0x81	-127
210	0xd7	-41
211	0x2e	46
212	0x31	49
213	0x17	23
214	0x5a	90
215	0xd2	-46
216	0x7f	127
217	0xba	-70
218	0xeb	-21
219	0x32	50
220	0xa6	-90
221	0xcb	-53
222	0x20	32
223	0xb2	-78

model_1/conv2d_6/Conv2D i1 [64, 1, 1, 32]
0	0x13	19
1	0x81	-127
2	0x67	103
3	0x4b	75
4	0xa5	-91
5	0xc6	-58
6	0xb6	-74
7	0xb5	-75
8	0xb5	-75
9	0xcd	-51
10	0xd0	-48
11	0x8c	-116
12	0x2a	42
13	0x09	9
14	0x9e	-98
15	0xd1	-47
16	0x0b	11
17	0x0a	10
18	0xfb	-5
19	0xe5	-27
20	0xd0	-48
21	0x06	6
22	0xeb	-21
23	0x49	73
24	0xdc	-36
25	0x2c	44
26	0x20	32
27	0xa8	-88
28	0x56	86
29	0xb9	-71
30	0xf6	-10
31	0xfd	-3
32	0xeb	-21
33	0xe6	-26
34	0xc1	-63
35	0x73	115
36	0xa7	-89
37	0x05	5
38	0xcf	-49
39	0x01	1
40	0x44	68
41	0x38	56
42	0xe9	-23
43	0x65	101
44	0xed	-19
45	0xc3	-61
46	0x41	65
47	0xd1	-47
48	0xdc	-36
49	0x0e	14
50	0xe8	-24
51	0x21	33
52	0xd2	-46
53	0xe1	-31
54	0x1a	26
55	0xb1	-79
56	0xc6	-58
57	0x09	9
58	0xd1	-47
59	0x7f	127
60	0x35	53
61	0xd0	-48
62	0x16	22
63	0xcf	-49
64	0x5d	93
65	0xe2	-30
66	0x19	25
67	0x2d	45
68	0x11	17
69	0x41	65
70	0x3d	61
71	0x26	38
72	0xdd	-35
73	0x7f	127
74	0x49	73
75	0x17	23
76	0xe4	-28
77	0xa2	-94
78	0xdf	-33
79	0x1e	30
80	0x2c	44
81	0xd5	-43
82	0x20	32
83	0xb7	-73
84	0xef	-17
85	0x36	54
86	0xfe	-2
87	0x13	19
88	0xf5	-11
89	0xd9	-39
90	0x35	53
91	0xe3	-29
92	0xdf	-33
93	0xf8	-8
94	0x16	22
95	0x09	9
96	0x55	85
97	0x35	53
98	0x0f	15
99	0xd1	-47
100	0xd3	-45
101	0x04	4
102	0xb9	-71
103	0xff	-1
104	0xbd	-67
105	0xec	-20
106	0x11	17
107	0xee	-18
108	0xe6	-26
109	0xe4	-28
110	0x3a	58
111	0xe9	-23
112	0xc9	-55
113	0xcd	-51
114	0xc4	-60
115	0x11	17
116	0x7f	127
117	0x05	5
118	0xcc	-52
119	0x36	54
120	0x06	6
121	0x92	-110
122	0x0f	15
123	0x44	68
124	0xd5	-43
125	0xad	-83
126	0x24	36
127	0x97	-105
128	0xee	-18
129	0xdf	-33
130	0x7f	127
131	0xb5	-75
132	0xe7	-25
133	0x0c	12
134	0x01	1
135	0x10	16
136	0x0d	13
137	0xef	-17
138	0x2a	42
139	0xe8	-24
140	0x31	49
141	0xd3	-45
142	0x05	5
143	0xe9	-23
144	0x29	41
145	0x8e	-114
146	0xb5	-75
147	0x7f	127
148	0x2b	43
149	0x2e	46
150	0xc0	-64
151	0xa4	-92
152	0x18	24
153	0x02	2
154	0xbc	-68
155	0x6b	107
156	0x2d	45
157	0xe4	-28
158	0xe2	-30
159	0x2c	44
160	0x25	37
161	0x2d	45
162	0xa1	-95
163	0x6d	109
164	0x00	0
165	0x23	35
166	0x28	40
167	0x42	66
168	0x0a	10
169	0xb1	-79
170	0x3e	62
171	0x16	22
172	0xe1	-31
173	0x2b	43
174	0x26	38
175	0x48	72
176	0xdd	-35
177	0x0e	14
178	0x3a	58
179	0x16	22
180	0x71	113
181	0x7f	127
182	0xe3	-29
183	0x02	2
184	0xa4	-92
185	0xec	-20
186	0x36	54
187	0x23	35
188	0xc9	-55
189	0x9c	-100
190	0xf4	-12
191	0xd7	-41
192	0x4c	76
193	0xb2	-78
194	0xce	-50
195	0x81	-127
196	0xd2	-46
197	0xc8	-56
198	0x05	5
199	0x18	24
200	0x05	5
201	0xef	-17
202	0x1a	26
203	0xee	-18
204	0x96	-106
205	0xb2	-78
206	0xd0	-48
207	0xa7	-89
208	0xdf	-33
209	0xff	-1
210	0x20	32
211	0xe7	-25
212	0xb5	-75
213	0x50	80
214	0x36	54
215	0x0c	12
216	0x26	38
217	0x10	16
218	0xd6	-42
219	0x37	55
220	0xf2	-14
221	0x91	-111
222	0xfe	-2
223	0xa2	-94
224	0x9c	-100
225	0xde	-34
226	0x89	-119
227	0x6a	106
228	0xe4	-28
229	0xb5	-75
230	0x5b	91
231	0xe0	-32
232	0xf5	-11
233	0x62	98
234	0x15	21
235	0x4b	75
236	0x6c	108
237	0xcb	-53
238	0xf3	-13
239	0xc9	-55
240	0xc8	-56
241	0xe4	-28
242	0x2c	44
243	0x64	100
244	0x95	-107
245	0xa1	-95
246	0x68	104
247	0x50	80
248	0xc7	-57
249	0x59	89
250	0xf4	-12
251	0x19	25
252	0x81	-127
253	0xe1	-31
254	0x2e	46
255	0x8f	-113

model_1/depthwise_conv2d_6/depthwise i1 [1, 5, 1, 32]
0	0xd5	-43
1	0x90	-112
2	0xc3	-61
3	0xd5	-43
4	0x7f	127
5	0xa2	-94
6	0x81	-127
7	0xab	-85
8	0xdf	-33
9	0x57	87
10	0xe2	-30
11	0xdd	-35
12	0xf7	-9
13	0x81	-127
14	0xfb	-5
15	0x3c	60
16	0xde	-34
17	0xec	-20
18	0x52	82
19	0x30	48
20	0x22	34
21	0xe3	-29
22	0x02	2
23	0x87	-121
24	0xd7	-41
25	0x93	-109
26	0xb7	-73
27	0x43	67
28	0xeb	-21
29	0x65	101
30	0x1d	29
31	0x81	-127
32	0xf1	-15
33	0x93	-109
34	0xd1	-47
35	0xf4	-12
36	0xf2	-14
37	0xe3	-29
38	0x1b	27
39	0xe6	-26
40	0x0d	13
41	0xf9	-7
42	0x68	104
43	0x81	-127
44	0x7f	127
45	0x05	5
46	0x76	118
47	0xdc	-36
48	0x45	69
49	0xbe	-66
50	0x7f	127
51	0x1e	30
52	0x47	71
53	0xba	-70
54	0x7f	127
55	0x81	-127
56	0x81	-127
57	0x81	-127
58	0x99	-103
59	0x79	121
60	0x74	116
61	0xe6	-26
62	0xdd	-35
63	0xa7	-89
64	0xb1	-79
65	0xb5	-75
66	0xb6	-74
67	0x7f	127
68	0x47	71
69	0x3d	61
70	0x5b	91
71	0x77	119
72	0xe6	-26
73	0x39	57
74	0xdc	-36
75	0xce	-50
76	0x35	53
77	0xa2	-94
78	0x3a	58
79	0xe3	-29
80	0x7f	127
81	0x81	-127
82	0xb8	-72
83	0xad	-83
84	0xb6	-74
85	0x23	35
86	0x2b	43
87	0xde	-34
88	0xfd	-3
89	0x09	9
90	0x81	-127
91	0x7f	127
92	0x7f	127
93	0x81	-127
94	0xd9	-39
95	0x1e	30
96	0x6d	109
97	0x20	32
98	0x7f	127
99	0xb5	-75
100	0x12	18
101	0x7f	127
102	0xd7	-41
103	0x33	51
104	0xd9	-39
105	0x24	36
106	0x81	-127
107	0xc1	-63
108	0x1e	30
109	0xc4	-60
110	0x7f	127
111	0x1d	29
112	0x40	64
113	0x2b	43
114	0xc7	-57
115	0x81	-127
116	0x81	-127
117	0x7f	127
118	0x2b	43
119	0x8b	-117
120	0x84	-124
121	0x4b	75
122	0x18	24
123	0x2a	42
124	0x42	66
125	0xe1	-31
126	0xc6	-58
127	0x72	114
128	0x81	-127
129	0x7f	127
130	0x5f	95
131	0xb1	-79
132	0xae	-82
133	0x0b	11
134	0x48	72
135	0x7f	127
136	0x81	-127
137	0x81	-127
138	0x28	40
139	0x85	-123
140	0xf5	-11
141	0xa7	-89
142	0xc0	-64
143	0x7f	127
144	0xe7	-25
145	0xe3	-29
146	0xfd	-3
147	0x34	52
148	0xf5	-11
149	0x0b	11
150	0x5d	93
151	0x0d	13
152	0xfa	-6
153	0xf4	-12
154	0x36	54
155	0x1e	30
156	0x79	121
157	0x07	7
158	0x7f	127
159	0x22	34

model_1/stream_6/conv2d_5/Conv2D i1 [32, 5, 1, 40]
0	0xe8	-24
1	0xd8	-40
2	0x1a	26
3	0xf7	-9
4	0xfb	-5
5	0x3e	62
6	0x5c	92
7	0x1a	26
8	0xcf	-49
9	0x62	98
10	0xec	-20
11	0xc4	-60
12	0x4a	74
13	0x35	53
14	0xeb	-21
15	0x1f	31
16	0xd3	-45
17	0x33	51
18	0xfc	-4
19	0x0f	15
20	0x4b	75
21	0xa3	-93
22	0xba	-70
23	0xbb	-69
24	0x44	68
25	0xee	-18
26	0x09	9
27	0x12	18
28	0xff	-1
29	0xd7	-41
30	0xf5	-11
31	0x28	40
32	0xec	-20
33	0xd9	-39
34	0xe8	-24
35	0x08	8
36	0xb1	-79
37	0xd4	-44
38	0x29	41
39	0xb7	-73
40	0xc8	-56
41	0xad	-83
42	0x0d	13
43	0xef	-17
44	0x5c	92
45	0xf8	-8
46	0x55	85
47	0x04	4
48	0x5e	94
49	0x4c	76
50	0x53	83
51	0x46	70
52	0x61	97
53	0x2c	44
54	0xf9	-7
55	0x07	7
56	0x08	8
57	0xf5	-11
58	0xe4	-28
59	0xb8	-72
60	0x4b	75
61	0xf1	-15
62	0xd5	-43
63	0xc8	-56
64	0x25	37
65	0xc5	-59
66	0x17	23
67	0x1b	27
68	0x0b	11
69	0x43	67
70	0xe1	-31
71	0xa4	-92
72	0x0b	11
73	0x90	-112
74	0x0d	13
75	0xf8	-8
76	0xa7	-89
77	0x9d	-99
78	0x1b	27
79	0xa3	-93
80	0xbb	-69
81	0xdc	-36
82	0xd5	-43
83	0xfc	-4
84	0x46	70
85	0x9b	-101
86	0xda	-38
87	0x04	4
88	0x15	21
89	0x56	86
90	0x54	84
91	0x0c	12
92	0xed	-19
93	0xcf	-49
94	0xaa	-86
95	0x0e	14
96	0xe5	-27
97	0xd9	-39
98	0xdd	-35
99	0xc5	-59
100	0x25	37
101	0xf4	-12
102	0xf0	-16
103	0x9c	-100
104	0xeb	-21
105	0xc9	-55
106	0x2d	45
107	0xac	-84
108	0xc6	-58
109	0xbe	-66
110	0x16	22
111	0xe7	-25
112	0xdb	-37
113	0xf5	-11
114	0xa4	-92
115	0xe4	-28
116	0xcc	-52
117	0x08	8
118	0x0a	10
119	0xa1	-95
120	0x11	17
121	0x99	-103
122	0xea	-22
123	0xf8	-8
124	0x5e	94
125	0x17	23
126	0x2b	43
127	0x3b	59
128	0x09	9
129	0x22	34
130	0xe4	-28
131	0x26	38
132	0xbf	-65
133	0xcf	-49
134	0x2e	46
135	0xf3	-13
136	0x37	55
137	0x24	36
138	0xd4	-44
139	0x37	55
140	0x30	48
141	0xcd	-51
142	0xb7	-73
143	0xd9	-39
144	0x35	53
145	0x2f	47
146	0x68	104
147	0x1a	26
148	0x2a	42
149	0x3b	59
150	0xec	-20
151	0x24	36
152	0xa9	-87
153	0x23	35
154	0x14	20
155	0x1d	29
156	0xf5	-11
157	0xcb	-53
158	0x81	-127
159	0x18	24
160	0xb5	-75
161	0xb9	-71
162	0x8f	-113
163	0x04	4
164	0x2f	47
165	0x2d	45
166	0x00	0
167	0x23	35
168	0xfe	-2
169	0x3c	60
170	0x5b	91
171	0x12	18
172	0x42	66
173	0xe4	-28
174	0x1a	26
175	0x4f	79
176	0x2b	43
177	0xf0	-16
178	0x41	65
179	0x12	18
180	0x31	49
181	0x29	41
182	0x20	32
183	0x50	80
184	0x1c	28
185	0x21	33
186	0x17	23
187	0xf7	-9
188	0xb5	-75
189	0x07	7
190	0xee	-18
191	0xd1	-47
192	0x97	-105
193	0x33	51
194	0x1c	28
195	0x3a	58
196	0xc1	-63
197	0x3f	63
198	0x22	34
199	0xd2	-46
200	0x05	5
201	0x12	18
202	0xeb	-21
203	0xc4	-60
204	0x27	39
205	0x50	80
206	0x30	48
207	0x65	101
208	0xf9	-7
209	0xfe	-2
210	0xe5	-27
211	0xdb	-37
212	0xc5	-59
213	0xee	-18
214	0xe8	-24
215	0x00	0
216	0x28	40
217	0x1c	28
218	0xff	-1
219	0x06	6
220	0x23	35
221	0x3b	59
222	0xb6	-74
223	0x1f	31
224	0x45	69
225	0x75	117
226	0x4d	77
227	0xfa	-6
228	0xe9	-23
229	0xf4	-12
230	0xde	-34
231	0x3d	61
232	0x22	34
233	0x44	68
234	0x32	50
235	0x00	0
236	0x0c	12
237	0xb7	-73
238	0x27	39
239	0xc1	-63
240	0x53	83
241	0x7e	126
242	0x3f	63
243	0x46	70
244	0xdb	-37
245	0x17	23
246	0x4a	74
247	0x47	71
248	0x19	25
249	0x12	18
250	0x37	55
251	0x04	4
252	0xbe	-66
253	0xce	-50
254	0x3a	58
255	0x17	23

tfl.pseudo_qconst i1 [1, 14, 1, 64] scale=0.045070644 zero_point=-128
0	0x80	0.0
1	0x80	0.0
2	0x80	0.0
3	0x80	0.0
4	0x80	0.0
5	0x80	0.0
6	0x80	0.0
7	0x80	0.0
8	0x80	0.0
9	0x80	0.0
10	0x80	0.0
11	0x80	0.0
12	0x80	0.0
13	0x80	0.0
14	0x80	0.0
15	0x80	0.0
16	0x80	0.0
17	0x80	0.0
18	0x80	0.0
19	0x80	0.0
20	0x80	0.0
21	0x80	0.0
22	0x80	0.0
23	0x80	0.0
24	0x80	0.0
25	0x80	0.0
26	0x80	0.0
27	0x80	0.0
28	0x80	0.0
29	0x80	0.0
30	0x80	0.0
31	0x80	0.0
32	0x80	0.0
33	0x80	0.0
34	0x80	0.0
35	0x80	0.0
36	0x80	0.0
37	0x80	0.0
38	0x80	0.0
39	0x80	0.0
40	0x80	0.0
41	0x80	0.0
42	0x80	0.0
43	0x80	0.0
44	0x80	0.0
45	0x80	0.0
46	0x80	0.0
47	0x80	0.0
48	0x80	0.0
49	0x80	0.0
50	0x80	0.0
51	0x80	0.0
52	0x80	0.0
53	0x80	0.0
54	0x80	0.0
55	0x80	0.0
56	0x80	0.0
57	0x80	0.0
58	0x80	0.0
59	0x80	0.0
60	0x80	0.0
61	0x80	0.0
62	0x80	0.0
63	0x80	0.0
64	0x80	0.0
65	0x80	0.0
66	0x80	0.0
67	0x80	0.0
68	0x80	0.0
69	0x80	0.0
70	0x80	0.0
71	0x80	0.0
72	0x80	0.0
73	0x80	0.0
74	0x80	0.0
75	0x80	0.0
76	0x80	0.0
77	0x80	0.0
78	0x80	0.0
79	0x80	0.0
80	0x80	0.0
81	0x80	0.0
82	0x80	0.0
83	0x80	0.0
84	0x80	0.0
85	0x80	0.0
86	0x80	0.0
87	0x80	0.0
88	0x80	0.0
89	0x80	0.0
90	0x80	0.0
91	0x80	0.0
92	0x80	0.0
93	0x80	0.0
94	0x80	0.0
95	0x80	0.0
96	0x80	0.0
97	0x80	0.0
98	0x80	0.0
99	0x80	0.0
100	0x80	0.0
101	0x80	0.0
102	0x80	0.0
103	0x80	0.0
104	0x80	0.0
105	0x80	0.0
106	0x80	0.0
107	0x80	0.0
108	0x80	0.0
109	0x80	0.0
110	0x80	0.0
111	0x80	0.0
112	0x80	0.0
113	0x80	0.0
114	0x80	0.0
115	0x80	0.0
116	0x80	0.0
117	0x80	0.0
118	0x80	0.0
119	0x80	0.0
120	0x80	0.0
121	0x80	0.0
122	0x80	0.0
123	0x80	0.0
124	0x80	0.0
125	0x80	0.0
126	0x80	0.0
127	0x80	0.0
128	0x80	0.0
129	0x80	0.0
130	0x80	0.0
131	0x80	0.0
132	0x80	0.0
133	0x80	0.0
134	0x80	0.0
135	0x80	0.0
136	0x80	0.0
137	0x80	0.0
138	0x80	0.0
139	0x80	0.0
140	0x80	0.0
141	0x80	0.0
142	0x80	0.0
143	0x80	0.0
144	0x80	0.0
145	0x80	0.0
146	0x80	0.0
147	0x80	0.0
148	0x80	0.0
149	0x80	0.0
150	0x80	0.0
151	0x80	0.0
152	0x80	0.0
153	0x80	0.0
154	0x80	0.0
155	0x80	0.0
156	0x80	0.0
157	0x80	0.0
158	0x80	0.0
159	0x80	0.0
160	0x80	0.0
161	0x80	0.0
162	0x80	0.0
163	0x80	0.0
164	0x80	0.0
165	0x80	0.0
166	0x80	0.0
167	0x80	0.0
168	0x80	0.0
169	0x80	0.0
170	0x80	0.0
171	0x80	0.0
172	0x80	0.0
173	0x80	0.0
174	0x80	0.0
175	0x80	0.0
176	0x80	0.0
177	0x80	0.0
178	0x80	0.0
179	0x80	0.0
180	0x80	0.0
181	0x80	0.0
182	0x80	0.0
183	0x80	0.0
184	0x80	0.0
185	0x80	0.0
186	0x80	0.0
187	0x80	0.0
188	0x80	0.0
189	0x80	0.0
190	0x80	0.0
191	0x80	0.0
192	0x80	0.0
193	0x80	0.0
194	0x80	0.0
195	0x80	0.0
196	0x80	0.0
197	0x80	0.0
198	0x80	0.0
199	0x80	0.0
200	0x80	0.0
201	0x80	0.0
202	0x80	0.0
203	0x80	0.0
204	0x80	0.0
205	0x80	0.0
206	0x80	0.0
207	0x80	0.0
208	0x80	0.0
209	0x80	0.0
210	0x80	0.0
211	0x80	0.0
212	0x80	0.0
213	0x80	0.0
214	0x80	0.0
215	0x80	0.0
216	0x80	0.0
217	0x80	0.0
218	0x80	0.0
219	0x80	0.0
220	0x80	0.0
221	0x80	0.0
222	0x80	0.0
223	0x80	0.0
224	0x80	0.0
225	0x80	0.0
226	0x80	0.0
227	0x80	0.0
228	0x80	0.0
229	0x80	0.0
230	0x80	0.0
231	0x80	0.0
232	0x80	0.0
233	0x80	0.0
234	0x80	0.0
235	0x80	0.0
236	0x80	0.0
237	0x80	0.0
238	0x80	0.0
239	0x80	0.0
240	0x80	0.0
241	0x80	0.0
242	0x80	0.0
243	0x80	0.0
244	0x80	0.0
245	0x80	0.0
246	0x80	0.0
247	0x80	0.0
248	0x80	0.0
249	0x80	0.0
250	0x80	0.0
251	0x80	0.0
252	0x80	0.0
253	0x80	0.0
254	0x80	0.0
255	0x80	0.0

tfl.pseudo_qconst1 i1 [1, 10, 1, 64] scale=0.035011895 zero_point=-128
0	0x80	0.0
1	0x80	0.0
2	0x80	0.0
3	0x80	0.0
4	0x80	0.0
5	0x80	0.0
6	0x80	0.0
7	0x80	0.0
8	0x80	0.0
9	0x80	0.0
10	0x80	0.0
11	0x80	0.0
12	0x80	0.0
13	0x80	0.0
14	0x80	0.0
15	0x80	0.0
16	0x80	0.0
17	0x80	0.0
18	0x80	0.0
19	0x80	0.0
20	0x80	0.0
21	0x80	0.0
22	0x80	0.0
23	0x80	0.0
24	0x80	0.0
25	0x80	0.0
26	0x80	0.0
27	0x80	0.0
28	0x80	0.0
29	0x80	0.0
30	0x80	0.0
31	0x80	0.0
32	0x80	0.0
33	0x80	0.0
34	0x80	0.0
35	0x80	0.0
36	0x80	0.0
37	0x80	0.0
38	0x80	0.0
39	0x80	0.0
40	0x80	0.0
41	0x80	0.0
42	0x80	0.0
43	0x80	0.0
44	0x80	0.0
45	0x80	0.0
46	0x80	0.0
47	0x80	0.0
48	0x80	0.0
49	0x80	0.0
50	0x80	0.0
51	0x80	0.0
52	0x80	0.0
53	0x80	0.0
54	0x80	0.0
55	0x80	0.0
56	0x80	0.0
57	0x80	0.0
58	0x80	0.0
59	0x80	0.0
60	0x80	0.0
61	0x80	0.0
62	0x80	0.0
63	0x80	0.0
64	0x80	0.0
65	0x80	0.0
66	0x80	0.0
67	0x80	0.0
68	0x80	0.0
69	0x80	0.0
70	0x80	0.0
71	0x80	0.0
72	0x80	0.0
73	0x80	0.0
74	0x80	0.0
75	0x80	0.0
76	0x80	0.0
77	0x80	0.0
78	0x80	0.0
79	0x80	0.0
80	0x80	0.0
81	0x80	0.0
82	0x80	0.0
83	0x80	0.0
84	0x80	0.0
85	0x80	0.0
86	0x80	0.0
87	0x80	0.0
88	0x80	0.0
89	0x80	0.0
90	0x80	0.0
91	0x80	0.0
92	0x80	0.0
93	0x80	0.0
94	0x80	0.0
95	0x80	0.0
96	0x80	0.0
97	0x80	0.0
98	0x80	0.0
99	0x80	0.0
100	0x80	0.0
101	0x80	0.0
102	0x80	0.0
103	0x80	0.0
104	0x80	0.0
105	0x80	0.0
106	0x80	0.0
107	0x80	0.0
108	0x80	0.0
109	0x80	0.0
110	0x80	0.0
111	0x80	0.0
112	0x80	0.0
113	0x80	0.0
114	0x80	0.0
115	0x80	0.0
116	0x80	0.0
117	0x80	0.0
118	0x80	0.0
119	0x80	0.0
120	0x80	0.0
121	0x80	0.0
122	0x80	0.0
123	0x80	0.0
124	0x80	0.0
125	0x80	0.0
126	0x80	0.0
127	0x80	0.0
128	0x80	0.0
129	0x80	0.0
130	0x80	0.0
131	0x80	0.0
132	0x80	0.0
133	0x80	0.0
134	0x80	0.0
135	0x80	0.0
136	0x80	0.0
137	0x80	0.0
138	0x80	0.0
139	0x80	0.0
140	0x80	0.0
141	0x80	0.0
142	0x80	0.0
143	0x80	0.0
144	0x80	0.0
145	0x80	0.0
146	0x80	0.0
147	0x80	0.0
148	0x80	0.0
149	0x80	0.0
150	0x80	0.0
151	0x80	0.0
152	0x80	0.0
153	0x80	0.0
154	0x80	0.0
155	0x80	0.0
156	0x80	0.0
157	0x80	0.0
158	0x80	0.0
159	0x80	0.0
160	0x80	0.0
161	0x80	0.0
162	0x80	0.0
163	0x80	0.0
164	0x80	0.0
165	0x80	0.0
166	0x80	0.0
167	0x80	0.0
168	0x80	0.0
169	0x80	0.0
170	0x80	0.0
171	0x80	0.0
172	0x80	0.0
173	0x80	0.0
174	0x80	0.0
175	0x80	0.0
176	0x80	0.0
177	0x80	0.0
178	0x80	0.0
179	0x80	0.0
180	0x80	0.0
181	0x80	0.0
182	0x80	0.0
183	0x80	0.0
184	0x80	0.0
185	0x80	0.0
186	0x80	0.0
187	0x80	0.0
188	0x80	0.0
189	0x80	0.0
190	0x80	0.0
191	0x80	0.0
192	0x80	0.0
193	0x80	0.0
194	0x80	0.0
195	0x80	0.0
196	0x80	0.0
197	0x80	0.0
198	0x80	0.0
199	0x80	0.0
200	0x80	0.0
201	0x80	0.0
202	0x80	0.0
203	0x80	0.0
204	0x80	0.0
205	0x80	0.0
206	0x80	0.0
207	0x80	0.0
208	0x80	0.0
209	0x80	0.0
210	0x80	0.0
211	0x80	0.0
212	0x80	0.0
213	0x80	0.0
214	0x80	0.0
215	0x80	0.0
216	0x80	0.0
217	0x80	0.0
218	0x80	0.0
219	0x80	0.0
220	0x80	0.0
221	0x80	0.0
222	0x80	0.0
223	0x80	0.0
224	0x80	0.0
225	0x80	0.0
226	0x80	0.0
227	0x80	0.0
228	0x80	0.0
229	0x80	0.0
230	0x80	0.0
231	0x80	0.0
232	0x80	0.0
233	0x80	0.0
234	0x80	0.0
235	0x80	0.0
236	0x80	0.0
237	0x80	0.0
238	0x80	0.0
239	0x80	0.0
240	0x80	0.0
241	0x80	0.0
242	0x80	0.0
243	0x80	0.0
244	0x80	0.0
245	0x80	0.0
246	0x80	0.0
247	0x80	0.0
248	0x80	0.0
249	0x80	0.0
250	0x80	0.0
251	0x80	0.0
252	0x80	0.0
253	0x80	0.0
254	0x80	0.0
255	0x80	0.0

tfl.pseudo_qconst2 i1 [1, 4, 1, 32] scale=0.5007481 zero_point=-128
0	0x80	0.0
1	0x80	0.0
2	0x80	0.0
3	0x80	0.0
4	0x80	0.0
5	0x80	0.0
6	0x80	0.0
7	0x80	0.0
8	0x80	0.0
9	0x80	0.0
10	0x80	0.0
11	0x80	0.0
12	0x80	0.0
13	0x80	0.0
14	0x80	0.0
15	0x80	0.0
16	0x80	0.0
17	0x80	0.0
18	0x80	0.0
19	0x80	0.0
20	0x80	0.0
21	0x80	0.0
22	0x80	0.0
23	0x80	0.0
24	0x80	0.0
25	0x80	0.0
26	0x80	0.0
27	0x80	0.0
28	0x80	0.0
29	0x80	0.0
30	0x80	0.0
31	0x80	0.0
32	0x80	0.0
33	0x80	0.0
34	0x80	0.0
35	0x80	0.0
36	0x80	0.0
37	0x80	0.0
38	0x80	0.0
39	0x80	0.0
40	0x80	0.0
41	0x80	0.0
42	0x80	0.0
43	0x80	0.0
44	0x80	0.0
45	0x80	0.0
46	0x80	0.0
47	0x80	0.0
48	0x80	0.0
49	0x80	0.0
50	0x80	0.0
51	0x80	0.0
52	0x80	0.0
53	0x80	0.0
54	0x80	0.0
55	0x80	0.0
56	0x80	0.0
57	0x80	0.0
58	0x80	0.0
59	0x80	0.0
60	0x80	0.0
61	0x80	0.0
62	0x80	0.0
63	0x80	0.0
64	0x80	0.0
65	0x80	0.0
66	0x80	0.0
67	0x80	0.0
68	0x80	0.0
69	0x80	0.0
70	0x80	0.0
71	0x80	0.0
72	0x80	0.0
73	0x80	0.0
74	0x80	0.0
75	0x80	0.0
76	0x80	0.0
77	0x80	0.0
78	0x80	0.0
79	0x80	0.0
80	0x80	0.0
81	0x80	0.0
82	0x80	0.0
83	0x80	0.0
84	0x80	0.0
85	0x80	0.0
86	0x80	0.0
87	0x80	0.0
88	0x80	0.0
89	0x80	0.0
90	0x80	0.0
91	0x80	0.0
92	0x80	0.0
93	0x80	0.0
94	0x80	0.0
95	0x80	0.0
96	0x80	0.0
97	0x80	0.0
98	0x80	0.0
99	0x80	0.0
100	0x80	0.0
101	0x80	0.0
102	0x80	0.0
103	0x80	0.0
104	0x80	0.0
105	0x80	0.0
106	0x80	0.0
107	0x80	0.0
108	0x80	0.0
109	0x80	0.0
110	0x80	0.0
111	0x80	0.0
112	0x80	0.0
113	0x80	0.0
114	0x80	0.0
115	0x80	0.0
116	0x80	0.0
117	0x80	0.0
118	0x80	0.0
119	0x80	0.0
120	0x80	0.0
121	0x80	0.0
122	0x80	0.0
123	0x80	0.0
124	0x80	0.0
125	0x80	0.0
126	0x80	0.0
127	0x80	0.0

tfl.pseudo_qconst3 i1 [1, 2, 1, 40] scale=0.101960786 zero_point=-128
0	0x80	0.0
1	0x80	0.0
2	0x80	0.0
3	0x80	0.0
4	0x80	0.0
5	0x80	0.0
6	0x80	0.0
7	0x80	0.0
8	0x80	0.0
9	0x80	0.0
10	0x80	0.0
11	0x80	0.0
12	0x80	0.0
13	0x80	0.0
14	0x80	0.0
15	0x80	0.0
16	0x80	0.0
17	0x80	0.0
18	0x80	0.0
19	0x80	0.0
20	0x80	0.0
21	0x80	0.0
22	0x80	0.0
23	0x80	0.0
24	0x80	0.0
25	0x80	0.0
26	0x80	0.0
27	0x80	0.0
28	0x80	0.0
29	0x80	0.0
30	0x80	0.0
31	0x80	0.0
32	0x80	0.0
33	0x80	0.0
34	0x80	0.0
35	0x80	0.0
36	0x80	0.0
37	0x80	0.0
38	0x80	0.0
39	0x80	0.0
40	0x80	0.0
41	0x80	0.0
42	0x80	0.0
43	0x80	0.0
44	0x80	0.0
45	0x80	0.0
46	0x80	0.0
47	0x80	0.0
48	0x80	0.0
49	0x80	0.0
50	0x80	0.0
51	0x80	0.0
52	0x80	0.0
53	0x80	0.0
54	0x80	0.0
55	0x80	0.0
56	0x80	0.0
57	0x80	0.0
58	0x80	0.0
59	0x80	0.0
60	0x80	0.0
61	0x80	0.0
62	0x80	0.0
63	0x80	0.0
64	0x80	0.0
65	0x80	0.0
66	0x80	0.0
67	0x80	0.0
68	0x80	0.0
69	0x80	0.0
70	0x80	0.0
71	0x80	0.0
72	0x80	0.0
73	0x80	0.0
74	0x80	0.0
75	0x80	0.0
76	0x80	0.0
77	0x80	0.0
78	0x80	0.0
79	0x80	0.0
