assist_satellite/wakewords/okay_computer.tflite (tflite, 62112 bytes, 18 tensors)

model_1/dense_1/MatMul i1 [1, 1088] scale=0.0018868163 zero_point=0
000000 0c bf 15 d9 cd fa ab 18 91 07 de dc bf b7 f1 c6
       0.022641797 -0.12264306 0.039623145 -0.07358584 -0.09622763 -0.011320898 -0.1603794 0.045283593 -0.20943661 0.013207714 -0.06415176 -0.067925386 -0.12264306 -0.13773759 -0.028302245 -0.10943535
000010 23 2c bc d5 05 f0 06 ea ed 1c b6 fe fc d3 f5 be
       0.06603857 0.08301992 -0.12830351 -0.081133105 0.009434082 -0.030189062 0.011320898 -0.04150996 -0.03584951 0.052830856 -0.13962442 -0.0037736327 -0.0075472654 -0.084906735 -0.02075498 -0.124529876
000020 d5 25 07 26 ee c7 1e c7 03 1c ef 9e ef ca 9a e5
       -0.081133105 0.06981221 0.013207714 0.07169902 -0.033962693 -0.107548535 0.05660449 -0.107548535 0.005660449 0.052830856 -0.03207588 -0.184908 -0.03207588 -0.10188808 -0.19245526 -0.05094404
000030 e6 14 2d da 03 d2 fd 3c e6 18 c4 bc 9e c3 9b 4d
       -0.049057227 0.037736326 0.084906735 -0.07169902 0.005660449 -0.08679355 -0.005660449 0.11320898 -0.049057227 0.045283593 -0.11320898 -0.12830351 -0.184908 -0.115095794 -0.19056845 0.14528486
000040 1d bb 1a e7 ae ea d2 fd d8 0a de d1 c7 f7 02 06
       0.054717675 -0.13019033 0.049057227 -0.047170408 -0.15471894 -0.04150996 -0.08679355 -0.005660449 -0.07547265 0.018868163 -0.06415176 -0.08868037 -0.107548535 -0.016981347 0.0037736327 0.011320898
000050 0c e4 03 e5 ff 23 fd d4 21 28 a6 b9 0a ee aa e5
       0.022641797 -0.052830856 0.005660449 -0.05094404 -0.0018868163 0.06603857 -0.005660449 -0.08301992 0.062264938 0.07547265 -0.16981347 -0.13396396 0.018868163 -0.033962693 -0.16226621 -0.05094404
000060 ed f6 e3 26 f6 e2 04 e2 e1 31 ff dc 29 e8 95 c0
       -0.03584951 -0.018868163 -0.054717675 0.07169902 -0.018868163 -0.05660449 0.0075472654 -0.05660449 -0.05849131 0.092454 -0.0018868163 -0.067925386 0.07735947 -0.045283593 -0.20188935 -0.120756246
000070 fa e9 08 c7 09 e1 e5 48 c2 01 17 f0 d2 c0 cd 30
       -0.011320898 -0.043396775 0.015094531 -0.107548535 0.016981347 -0.05849131 -0.05094404 0.13585077 -0.11698262 0.0018868163 0.043396775 -0.030189062 -0.08679355 -0.120756246 -0.09622763 0.09056719
000080 1f cd 2b cb ab fe 09 1d a2 f0 ee cd bb 08 df 1c
       0.05849131 -0.09622763 0.081133105 -0.10000127 -0.1603794 -0.0037736327 0.016981347 0.054717675 -0.17736074 -0.030189062 -0.033962693 -0.09622763 -0.13019033 0.015094531 -0.062264938 0.052830856
000090 eb 25 db 0d f1 fd e4 fa 04 15 cc d9 d6 99 f2 d3
       -0.039623145 0.06981221 -0.06981221 0.024528613 -0.028302245 -0.005660449 -0.052830856 -0.011320898 0.0075472654 0.039623145 -0.09811445 -0.07358584 -0.07924629 -0.19434208 -0.026415428 -0.084906735
0000a0 e9 e1 0b 30 cb 21 e6 0b ff 1c f8 3c 06 08 a9 86
       -0.043396775 -0.05849131 0.02075498 0.09056719 -0.10000127 0.062264938 -0.049057227 0.02075498 -0.0018868163 0.052830856 -0.015094531 0.11320898 0.011320898 0.015094531 -0.16415302 -0.23019159
0000b0 0e e1 d1 f7 07 f3 d6 18 98 1b 0d be ae da dc 22
       0.026415428 -0.05849131 -0.08868037 -0.016981347 0.013207714 -0.024528613 -0.07924629 0.045283593 -0.1962289 0.05094404 0.024528613 -0.124529876 -0.15471894 -0.07169902 -0.067925386 0.06415176
0000c0 1b e0 52 f5 ae ff 1a 28 ad 0a d7 c8 c5 ea ed 32
       0.05094404 -0.060378123 0.15471894 -0.02075498 -0.15471894 -0.0018868163 0.049057227 0.07547265 -0.15660575 0.018868163 -0.07735947 -0.10566171 -0.111322165 -0.04150996 -0.03584951 0.094340816
0000d0 db d5 ea 11 b4 25 e3 ed 04 23 31 a6 02 b8 0b e9
       -0.06981221 -0.081133105 -0.04150996 0.03207588 -0.14339805 0.06981221 -0.054717675 -0.03584951 0.0075472654 0.06603857 0.092454 -0.16981347 0.0037736327 -0.13585077 0.02075498 -0.043396775
0000e0 ed 16 fd 0a dd 2e 08 f4 1a 29 be 0b 09 0f ef 81
       -0.03584951 0.04150996 -0.005660449 0.018868163 -0.06603857 0.08679355 0.015094531 -0.022641797 0.049057227 0.07735947 -0.124529876 0.02075498 0.016981347 0.028302245 -0.03207588 -0.23962568
0000f0 fe ab c5 a7 e9 dc 0b 15 ac f4 e5 fa cc 08 d9 24
       -0.0037736327 -0.1603794 -0.111322165 -0.16792665 -0.043396775 -0.067925386 0.02075498 0.039623145 -0.15849258 -0.022641797 -0.05094404 -0.011320898 -0.09811445 0.015094531 -0.07358584 0.067925386

model_1/conv2d_9/Conv2D i1 [64, 1, 1, 64]
000000 3b e7 38 2b 4a ec 0b bf ff e3 e4 76 bb f5 1c 3c
       59 -25 56 43 74 -20 11 -65 -1 -29 -28 118 -69 -11 28 60
000010 98 c4 fa 16 3f e7 3e d9 15 fd 4a c4 2f f8 2e c2
       -104 -60 -6 22 63 -25 62 -39 21 -3 74 -60 47 -8 46 -62
000020 e3 24 00 dc 11 04 21 cf 1f 20 2c de cd 5e d4 5e
       -29 36 0 -36 17 4 33 -49 31 32 44 -34 -51 94 -44 94
000030 07 3b fc 30 28 cc d5 08 51 1b 81 f4 32 0c ca 0c
       7 59 -4 48 40 -52 -43 8 81 27 -127 -12 50 12 -54 12
000040 f5 03 01 92 94 f1 81 cd 2e b1 e0 18 1f ed d6 eb
       -11 3 1 -110 -108 -15 -127 -51 46 -79 -32 24 31 -19 -42 -21
000050 e9 5e 1c e4 8b 2f 43 3c 6b c2 33 0d 0e 36 5b b7
       -23 94 28 -28 -117 47 67 60 107 -62 51 13 14 54 91 -73
000060 49 0a b1 37 c9 21 4b ed 34 f5 29 bc 25 ef ee b7
       73 10 -79 55 -55 33 75 -19 52 -11 41 -68 37 -17 -18 -73
000070 f8 04 e4 b5 9b eb a3 08 13 ee 0d c3 fb 2b 21 e9
       -8 4 -28 -75 -101 -21 -93 8 19 -18 13 -61 -5 43 33 -23
000080 00 e8 3a 06 46 06 25 d9 8e 3b 3c 8a 3c 4c db e7
       0 -24 58 6 70 6 37 -39 -114 59 60 -118 60 76 -37 -25
000090 c4 43 4d 9c bd 38 14 b8 03 7f ea ca f8 62 09 cb
       -60 67 77 -100 -67 56 20 -72 3 127 -22 -54 -8 98 9 -53
0000a0 e7 9d 40 12 fb 0f 02 2f f4 0e cf 49 18 c8 44 01
       -25 -99 64 18 -5 15 2 47 -12 14 -49 73 24 -56 68 1
0000b0 3f 1b c7 b6 6b 0d 4a 36 ad 09 43 64 ed 48 e5 65
       63 27 -57 -74 107 13 74 54 -83 9 67 100 -19 72 -27 101
0000c0 dd 12 e1 0f ca df 2d 11 a6 2b 20 04 16 e3 e7 0d
       -35 18 -31 15 -54 -33 45 17 -90 43 32 4 22 -29 -25 13
0000d0 e9 3b b5 19 e7 27 f9 1d d6 aa d5 00 2c 0c 21 f8
       -23 59 -75 25 -25 39 -7 29 -42 -86 -43 0 44 12 33 -8
0000e0 05 ce f0 e8 09 f9 0a 03 09 f7 34 22 0d eb 62 b2
       5 -50 -16 -24 9 -7 10 3 9 -9 52 34 13 -21 98 -78
0000f0 81 c1 73 d1 95 43 0d 0c b3 02 f8 44 14 11 23 cb
       -127 -63 115 -47 -107 67 13 12 -77 2 -8 68 20 17 35 -53

model_1/depthwise_conv2d_11/depthwise i1 [1, 23, 1, 64]
000000 b0 d4 7f 81 b3 3e 40 45 9f f3 55 73 77 8d 7f fd
       -80 -44 127 -127 -77 62 64 69 -97 -13 85 115 119 -115 127 -3
000010 9d 7f b5 5b 50 ba ea 17 56 95 ff e8 c6 13 1c 57
       -99 127 -75 91 80 -70 -22 23 86 -107 -1 -24 -58 19 28 87
000020 16 dd 33 9b 81 02 13 21 34 35 e0 30 83 3f b7 28
       22 -35 51 -101 -127 2 19 33 52 53 -32 48 -125 63 -73 40
000030 eb 02 7f 30 7f 09 e5 aa 30 81 f2 b2 14 50 05 00
       -21 2 127 48 127 9 -27 -86 48 -127 -14 -78 20 80 5 0
000040 1a 99 58 81 b0 34 76 15 c2 f7 60 4d 6d 81 5f e7
       26 -103 88 -127 -80 52 118 21 -62 -9 96 77 109 -127 95 -25
000050 9b 38 be 37 45 81 f5 17 31 81 d2 c7 05 27 54 3f
       -101 56 -66 55 69 -127 -11 23 49 -127 -46 -57 5 39 84 63
000060 23 03 1c 81 83 16 18 0d 7f 27 81 c1 a1 41 cb 43
       35 3 28 -127 -125 22 24 13 127 39 -127 -63 -95 65 -53 67
000070 c1 a4 6a 31 4f f6 ab aa 54 9f de 14 32 1f 3f 05
       -63 -92 106 49 79 -10 -85 -86 84 -97 -34 20 50 31 63 5
000080 17 a0 34 af 9e 09 53 36 d3 26 2b 2e 7e c2 67 c0
       23 -96 52 -81 -98 9 83 54 -45 38 43 46 126 -62 103 -64
000090 81 fc e6 5d 29 b3 e8 f8 40 89 0c c0 00 0b e7 0d
       -127 -4 -26 93 41 -77 -24 -8 64 -119 12 -64 0 11 -25 13
0000a0 44 1f 20 af a8 e6 03 e4 4f 7f 0f 81 8f 06 e5 48
       68 31 32 -81 -88 -26 3 -28 79 127 15 -127 -113 6 -27 72
0000b0 b2 81 40 1c 3e 04 b3 90 3a ef 0b 34 1c 3e 0e 7a
       -78 -127 64 28 62 4 -77 -112 58 -17 11 52 28 62 14 122
0000c0 3b cc c6 ae 8e 49 11 45 2d 00 0c 17 46 d5 35 e4
       59 -52 -58 -82 -114 73 17 69 45 0 12 23 70 -43 53 -28
0000d0 a4 03 d4 2f 31 d8 ec 11 0c ae 3a b6 1f 1f 4d 24
       -92 3 -44 47 49 -40 -20 17 12 -82 58 -74 31 31 77 36
0000e0 0e 1a 0c e6 cd ac 09 e2 5a 2e 4f c9 d1 19 fe 09
       14 26 12 -26 -51 -84 9 -30 90 46 79 -55 -47 25 -2 9
0000f0 d6 ca 34 3a 46 22 bc 81 0d fd 03 2b 2f 48 ea 54
       -42 -54 52 58 70 34 -68 -127 13 -3 3 43 47 72 -22 84

model_1/conv2d_8/Conv2D i1 [64, 1, 1, 64]
000000 53 ef 3e 04 45 f2 e3 01 f4 7f 52 c6 dc c9 d0 f9
       83 -17 62 4 69 -14 -29 1 -12 127 82 -58 -36 -55 -48 -7
000010 9d 09 37 12 32 44 0e 99 e5 4c 1a fd 1e 0f 05 79
       -99 9 55 18 50 68 14 -103 -27 76 26 -3 30 15 5 121
000020 4b bd b8 12 4e bc 3b cb c3 ef f7 14 f2 ea fa df
       75 -67 -72 18 78 -68 59 -53 -61 -17 -9 20 -14 -22 -6 -33
000030 44 d2 14 cc 0a dc 08 e7 29 f3 c8 cf 0b 16 0d 09
       68 -46 20 -52 10 -36 8 -25 41 -13 -56 -49 11 22 13 9
000040 f1 50 d3 b2 48 db ee e3 35 f4 fb cb e9 1c d2 8c
       -15 80 -45 -78 72 -37 -18 -29 53 -12 -5 -53 -23 28 -46 -116
000050 f0 14 fa e7 1f f7 b8 83 dc 35 de fb 7f c0 7c e0
       -16 20 -6 -25 31 -9 -72 -125 -36 53 -34 -5 127 -64 124 -32
000060 ed f0 f0 1c ed 1b 1c ca 67 08 d2 5e 10 de cf a8
       -19 -16 -16 28 -19 27 28 -54 103 8 -46 94 16 -34 -49 -88
000070 dd b0 3e 1e c9 1a b2 05 be 41 23 c9 20 79 3e c7
       -35 -80 62 30 -55 26 -78 5 -66 65 35 -55 32 121 62 -57
000080 24 27 a7 fd 95 fe f6 00 c0 1e 08 40 10 d8 d3 ed
       36 39 -89 -3 -107 -2 -10 0 -64 30 8 64 16 -40 -45 -19
000090 52 5a 32 b2 18 51 2e d9 2c e9 e1 d3 7f 5d 3b 5b
       82 90 50 -78 24 81 46 -39 44 -23 -31 -45 127 93 59 91
0000a0 05 df f2 e8 1d dd 21 c7 02 f4 d4 28 c5 14 04 b9
       5 -33 -14 -24 29 -35 33 -57 2 -12 -44 40 -59 20 4 -71
0000b0 2e 38 5c fc d5 e7 a9 20 dc f1 71 04 e9 ec 2a 46
       46 56 92 -4 -43 -25 -87 32 -36 -15 113 4 -23 -20 42 70
0000c0 f7 40 da 86 05 2f 1e f4 31 1a 1f e7 c8 fb 93 48
       -9 64 -38 -122 5 47 30 -12 49 26 31 -25 -56 -5 -109 72
0000d0 e9 2a f4 68 45 de 67 ff 49 c2 1a 0d e2 f9 65 22
       -23 42 -12 104 69 -34 103 -1 73 -62 26 13 -30 -7 101 34
0000e0 d2 35 d0 3e fe 30 d3 54 55 d7 d2 d6 dd a6 32 6d
       -46 53 -48 62 -2 48 -45 84 85 -41 -46 -42 -35 -90 50 109
0000f0 3d d5 2d 16 81 04 f7 86 0b c9 b8 57 b2 33 f3 62
       61 -43 45 22 -127 4 -9 -122 11 -55 -72 87 -78 51 -13 98

model_1/depthwise_conv2d_10/depthwise1 i1 [1, 15, 1, 32]
000000 34 7f 7f eb 02 27 1a 2b 3d 81 1f 1a ec f9 e9 d9
       52 127 127 -21 2 39 26 43 61 -127 31 26 -20 -7 -23 -39
000010 05 12 7f 95 84 f2 c5 81 d1 7f 8e c8 d2 34 51 c7
       5 18 127 -107 -124 -14 -59 -127 -47 127 -114 -56 -46 52 81 -57
000020 26 76 70 09 42 68 00 d2 1f b8 70 cb 2a 3d 1a fc
       38 118 112 9 66 104 0 -46 31 -72 112 -53 42 61 26 -4
000030 f9 7f 67 da c0 1e de cb cf 51 81 dc dc 65 5c 0c
       -7 127 103 -38 -64 30 -34 -53 -49 81 -127 -36 -36 101 92 12
000040 41 3c 21 d5 55 51 f7 2d 3b a8 7f af 0b 44 9c 3e
       65 60 33 -43 85 81 -9 45 59 -88 127 -81 11 68 -100 62
000050 ff 04 6a fd 91 3a b8 94 b0 2b 8c 5c cc 66 03 12
       -1 4 106 -3 -111 58 -72 -108 -80 43 -116 92 -52 102 3 18
000060 21 22 1e 01 7c 38 bd c2 00 cf 67 be 3e 32 9e 50
       33 34 30 1 124 56 -67 -62 0 -49 103 -66 62 50 -98 80
000070 29 44 1f e5 9b 1e ad fe 0b 0a aa bc 22 53 f8 d0
       41 68 31 -27 -101 30 -83 -2 11 10 -86 -68 34 83 -8 -48
000080 22 e7 61 81 05 14 ad ac f7 b3 e6 fd e8 7f 9c 26
       34 -25 97 -127 5 20 -83 -84 -9 -77 -26 -3 -24 127 -100 38
000090 14 6b 4f dd ec ad b1 b7 17 d6 c5 cb 14 f7 81 c6
       20 107 79 -35 -20 -83 -79 -73 23 -42 -59 -53 20 -9 -127 -58
0000a0 2b 02 04 9c e7 c6 ec 0b 0c 90 10 b8 27 31 b6 1a
       43 2 4 -100 -25 -58 -20 11 12 -112 16 -72 39 49 -74 26
0000b0 45 74 e0 b3 36 c2 d2 2f e1 ac 27 1d 16 30 9c d1
       69 116 -32 -77 54 -62 -46 47 -31 -84 39 29 22 48 -100 -47
0000c0 f4 32 15 84 f3 33 f3 cf 1f b7 4e 95 fe 17 81 01
       -12 50 21 -124 -13 51 -13 -49 31 -73 78 -107 -2 23 -127 1
0000d0 33 06 be a5 5a 81 53 09 44 95 19 e8 de 35 96 bb
       51 6 -66 -91 90 -127 83 9 68 -107 25 -24 -34 53 -106 -69
0000e0 d7 f0 d8 b9 81 f6 16 db e7 e8 eb ca 23 22 04 33
       -41 -16 -40 -71 -127 -10 22 -37 -25 -24 -21 -54 35 34 4 51
0000f0 10 f2 25 01 28 9b 2f a2 3e 96 e5 19 c3 8f b8 d6
       16 -14 37 1 40 -101 47 -94 62 -106 -27 25 -61 -113 -72 -42

model_1/depthwise_conv2d_9/depthwise i1 [1, 9, 1, 32]
000000 49 5a 07 c9 3f f9 7f 26 a6 d2 aa e4 ff 23 23 22
       73 90 7 -55 63 -7 127 38 -90 -46 -86 -28 -1 35 35 34
000010 d7 b5 0b dc e5 56 78 dc d4 65 40 03 81 1c 56 fe
       -41 -75 11 -36 -27 86 120 -36 -44 101 64 3 -127 28 86 -2
000020 d9 42 ef df 26 f8 21 49 d5 36 e1 db 23 e5 09 d5
       -39 66 -17 -33 38 -8 33 73 -43 54 -31 -37 35 -27 9 -43
000030 0b b3 21 f9 8e 47 71 10 41 97 e3 ee aa 11 22 2f
       11 -77 33 -7 -114 71 113 16 65 -105 -29 -18 -86 17 34 47
000040 d0 1b 08 fd 44 01 17 ef e3 29 a6 e6 26 d2 fd c3
       -48 27 8 -3 68 1 23 -17 -29 41 -90 -26 38 -46 -3 -61
000050 d4 e5 04 81 3c 28 7f 0e 81 8c f3 9f f7 86 c3 36
       -44 -27 4 -127 60 40 127 14 -127 -116 -13 -97 -9 -122 -61 54
000060 20 2e 55 c3 7f 48 57 c6 43 ea 92 b6 4d b4 02 a4
       32 46 85 -61 127 72 87 -58 67 -22 -110 -74 77 -76 2 -92
000070 34 b8 ce 9c 0b db 61 ea b6 17 11 cf b7 81 87 3d
       52 -72 -50 -100 11 -37 97 -22 -74 23 17 -49 -73 -127 -121 61
000080 e3 e1 7f 4e 3c fc 2a 9a 2f 21 81 e8 2e d1 f1 c4
       -29 -31 127 78 60 -4 42 -102 47 33 -127 -24 46 -47 -15 -60
000090 aa c7 10 3a 7f f5 12 f3 8b 3a 61 93 0a 8c f0 e8
       -86 -57 16 58 127 -11 18 -13 -117 58 97 -109 10 -116 -16 -24
0000a0 08 b6 7f 10 47 36 40 f5 1b 09 a0 81 7f 03 30 5a
       8 -74 127 16 71 54 64 -11 27 9 -96 -127 127 3 48 90
0000b0 dc db 81 1f 71 62 60 0c 4d 63 7f 81 1b db 3a 50
       -36 -37 -127 31 113 98 96 12 77 99 127 -127 27 -37 58 80
0000c0 49 9b 56 54 34 df 53 63 02 c4 cb a3 48 03 fc 34
       73 -101 86 84 52 -33 83 99 2 -60 -53 -93 72 3 -4 52
0000d0 81 16 b2 cd 04 7f 53 8d d6 7f 4c d6 7e 67 d9 77
       -127 22 -78 -51 4 127 83 -115 -42 127 76 -42 126 103 -39 119
0000e0 7f 81 71 7f aa c8 ea 76 1b f0 ac 87 6b 57 25 69
       127 -127 113 127 -86 -56 -22 118 27 -16 -84 -121 107 87 37 105
0000f0 a9 14 10 e5 f0 7e d1 0f a9 1c 74 73 7c 65 b0 7f
       -87 20 16 -27 -16 126 -47 15 -87 28 116 115 124 101 -80 127

model_1/conv2d_7/Conv2D i1 [64, 1, 1, 64]
000000 13 18 2b 46 18 db dd fd db e1 20 3a b9 23 1e ea
       19 24 43 70 24 -37 -35 -3 -37 -31 32 58 -71 35 30 -22
000010 e3 cd 22 ee ed 00 c7 67 81 38 b7 3a 09 27 e3 2b
       -29 -51 34 -18 -19 0 -57 103 -127 56 -73 58 9 39 -29 43
000020 f3 1e 25 f2 38 3c d4 28 db 10 22 d7 2d 23 02 d1
       -13 30 37 -14 56 60 -44 40 -37 16 34 -41 45 35 2 -47
000030 35 08 10 ed e7 3c 06 21 27 d8 15 f7 2b 0d 27 c0
       53 8 16 -19 -25 60 6 33 39 -40 21 -9 43 13 39 -64
000040 38 d4 3b 49 38 a2 e4 09 5a 33 be c6 29 2f 36 ff
       56 -44 59 73 56 -94 -28 9 90 51 -66 -58 41 47 54 -1
000050 b5 a5 fc 9f b0 e8 b7 7a 0d b0 ed 52 2c 1f f7 da
       -75 -91 -4 -97 -80 -24 -73 122 13 -80 -19 82 44 31 -9 -38
000060 09 1e e6 52 dd 81 36 40 da c7 95 4a 19 02 db 4c
       9 30 -26 82 -35 -127 54 64 -38 -57 -107 74 25 2 -37 76
000070 1c 09 f7 ad f7 a3 ce 18 57 cc 41 e6 d8 35 0e a8
       28 9 -9 -83 -9 -93 -50 24 87 -52 65 -26 -40 53 14 -88
000080 26 ea 1c e1 24 00 25 0b 46 c8 21 3a ce 03 29 dc
       38 -22 28 -31 36 0 37 11 70 -56 33 58 -50 3 41 -36
000090 e4 26 03 2f cd f8 d3 eb 81 5f 20 c7 e1 ea b0 22
       -28 38 3 47 -51 -8 -45 -21 -127 95 32 -57 -31 -22 -80 34
0000a0 05 e0 19 0f 16 51 24 a0 dd 60 7c f9 f3 f7 1a d9
       5 -32 25 15 22 81 36 -96 -35 96 124 -7 -13 -9 26 -39
0000b0 ea 13 2f d7 14 cf 36 2f f7 d6 f7 17 c8 f9 25 fc
       -22 19 47 -41 20 -49 54 47 -9 -42 -9 23 -56 -7 37 -4
0000c0 d4 e2 19 ed b4 a4 b9 5d cd 10 47 cd e7 e5 fb a5
       -44 -30 25 -19 -76 -92 -71 93 -51 16 71 -51 -25 -27 -5 -91
0000d0 fc b1 a8 08 28 04 e8 00 d4 34 37 9c bb 97 4e 1d
       -4 -79 -88 8 40 4 -24 0 -44 52 55 -100 -69 -105 78 29
0000e0 2a 29 d0 26 cc d9 e1 7e fe b5 07 af fb 49 18 ef
       42 41 -48 38 -52 -39 -31 126 -2 -75 7 -81 -5 73 24 -17
0000f0 da 0c 17 23 4a df 01 6a fb 81 47 cb 36 42 0e 25
       -38 12 23 35 74 -33 1 106 -5 -127 71 -53 54 66 14 37

model_1/depthwise_conv2d_8/depthwise i1 [1, 11, 1, 32]
000000 a9 cd 81 7f d2 4a 07 c6 3b c3 b8 db 24 86 73 e7
       -87 -51 -127 127 -46 74 7 -58 59 -61 -72 -37 36 -122 115 -25
000010 68 24 bc f3 7f cf f8 5d 55 81 25 0d 02 81 7f 7f
       104 36 -68 -13 127 -49 -8 93 85 -127 37 13 2 -127 127 127
000020 d2 df be 62 cc f2 67 81 57 91 ee ef 7f 81 7f 2d
       -46 -33 -66 98 -52 -14 103 -127 87 -111 -18 -17 127 -127 127 45
000030 15 d6 14 4f 2e a0 e7 61 7f d8 3a e7 ba bf 76 1e
       21 -42 20 79 46 -96 -25 97 127 -40 58 -25 -70 -65 118 30
000040 93 3a b3 12 10 ef e1 fd 04 81 ff d6 ea d0 2f 71
       -109 58 -77 18 16 -17 -31 -3 4 -127 -1 -42 -22 -48 47 113
000050 7f 03 11 72 0b a9 18 56 4e 1f e6 45 fa b5 f4 17
       127 3 17 114 11 -87 24 86 78 31 -26 69 -6 -75 -12 23
000060 81 fd 0b b9 5f bb a5 af 1c c0 e8 ed 30 c4 0f 40
       -127 -3 11 -71 95 -69 -91 -81 28 -64 -24 -19 48 -60 15 64
000070 50 90 05 e5 e4 81 75 e2 c4 2d c0 f6 6e 22 ac ca
       80 -112 5 -27 -28 -127 117 -30 -60 45 -64 -10 110 34 -84 -54
000080 bd 0e 06 05 c2 d8 2e 4c ef 14 01 5d 3e b2 c4 fe
       -67 14 6 5 -62 -40 46 76 -17 20 1 93 62 -78 -60 -2
000090 6f 0c 26 e5 c6 d6 88 da 0e 3f d4 d7 62 e7 83 e5
       111 12 38 -27 -58 -42 -120 -38 14 63 -44 -41 98 -25 -125 -27
0000a0 ef 3f 2c 35 b9 02 0a 20 21 4e 7f f0 a6 d8 c5 c4
       -17 63 44 53 -71 2 10 32 33 78 127 -16 -90 -40 -59 -60
0000b0 cd 0d e5 81 b3 da c1 f5 14 28 04 a1 11 e7 8e e8
       -51 13 -27 -127 -77 -38 -63 -11 20 40 4 -95 17 -25 -114 -24
0000c0 0e 7f 1a 50 d2 51 7f e2 ec 0c 01 3f 50 b7 ca 15
       14 127 26 80 -46 81 127 -30 -20 12 1 63 80 -73 -54 21
0000d0 cb 0a e0 9e b5 1c 81 b7 07 15 45 9f a9 c7 b8 44
       -53 10 -32 -98 -75 28 -127 -73 7 21 69 -97 -87 -57 -72 68
0000e0 02 6c d1 11 7f e2 69 34 15 eb ae 16 8c b2 06 c9
       2 108 -47 17 127 -30 105 52 21 -21 -82 22 -116 -78 6 -55
0000f0 af 47 d3 df 05 11 a2 81 eb 31 11 b0 d0 13 23 4f
       -81 71 -45 -33 5 17 -94 -127 -21 49 17 -80 -48 19 35 79

model_1/depthwise_conv2d_7/depthwise i1 [1, 7, 1, 32]
000000 41 6e 2d fd 41 be 18 4a 3b 81 3d 05 0f 23 1f d0
       65 110 45 -3 65 -66 24 74 59 -127 61 5 15 35 31 -48
000010 71 2a 66 ba 79 ed 52 58 a7 05 81 16 d3 c0 2d de
       113 42 102 -70 121 -19 82 88 -89 5 -127 22 -45 -64 45 -34
000020 49 59 48 81 64 b1 76 2f 7f f0 e7 b7 a0 cc 45 05
       73 89 72 -127 100 -79 118 47 127 -16 -25 -73 -96 -52 69 5
000030 1f 2f 01 cc 7f af 18 53 60 bb b2 74 d3 ba 7f a1
       31 47 1 -52 127 -81 24 83 96 -69 -78 116 -45 -70 127 -95
000040 c0 58 a8 d7 df 5e 58 05 ed ed 94 c3 81 81 ab cb
       -64 88 -88 -41 -33 94 88 5 -19 -19 -108 -61 -127 -127 -85 -53
000050 1f 51 d9 b6 46 81 3d 7f 7f ef 21 7f fc 7f 6b 1a
       31 81 -39 -74 70 -127 61 127 127 -17 33 127 -4 127 107 26
000060 81 e0 c2 f6 86 7f 12 81 18 41 81 78 52 84 81 c2
       -127 -32 -62 -10 -122 127 18 -127 24 65 -127 120 82 -124 -127 -62
000070 5a 9d a7 62 37 ad f6 eb a8 7f dd 6a 08 7f ae 91
       90 -99 -89 98 55 -83 -10 -21 -88 127 -35 106 8 127 -82 -111
000080 92 d7 7f 58 ce ed 9b cb cf ce 8e 5d 77 d3 0d 78
       -110 -41 127 88 -50 -19 -101 -53 -49 -50 -114 93 119 -45 13 120
000090 41 e0 81 3d b4 29 c3 a4 bf 78 f1 70 a7 42 e5 81
       65 -32 -127 61 -76 41 -61 -92 -65 120 -15 112 -89 66 -27 -127
0000a0 d2 9c 03 33 81 f2 81 2c df df b1 81 46 d0 36 5a
       -46 -100 3 51 -127 -14 -127 44 -33 -33 -79 -127 70 -48 54 90
0000b0 81 90 35 81 fc 3b 5d b1 4d 97 4c f4 81 a7 b3 b4
       -127 -112 53 -127 -4 59 93 -79 77 -105 76 -12 -127 -89 -77 -76
0000c0 d5 81 c6 16 b5 ce ed db 95 60 d3 83 f3 ec eb 7f
       -43 -127 -58 22 -75 -50 -19 -37 -107 96 -45 -125 -13 -20 -21 127
0000d0 e6 81 c8 05 59 e2 7f d8 73 9b ed 15 b3 9f 03 ad
       -26 -127 -56 5 89 -30 127 -40 115 -101 -19 21 -77 -97 3 -83

model_1/conv2d_6/Conv2D i1 [64, 1, 1, 32]
000000 1b 81 34 3e 96 d6 b1 cf d1 d4 dd 9c 2f 05 8f ee
       27 -127 52 62 -106 -42 -79 -49 -47 -44 -35 -100 47 5 -113 -18
000010 e7 f4 07 08 df fb dd 3a d4 56 21 cd 30 e0 f5 f0
       -25 -12 7 8 -33 -5 -35 58 -44 86 33 -51 48 -32 -11 -16
000020 de cb bd 71 b6 1d d9 f6 5a 04 ce 52 d9 d8 4b c3
       -34 -53 -67 113 -74 29 -39 -10 90 4 -50 82 -39 -40 75 -61
000030 d1 13 f1 18 bd c6 3a b5 e8 0b d5 7f 09 ed 26 b8
       -47 19 -15 24 -67 -58 58 -75 -24 11 -43 127 9 -19 38 -72
000040 71 e3 26 43 06 25 29 32 c4 7f 3c d9 f8 a0 c5 1e
       113 -29 38 67 6 37 41 50 -60 127 60 -39 -8 -96 -59 30
000050 3f c3 fe b7 01 30 0e 2a ef fc 22 dd f7 01 f8 10
       63 -61 -2 -73 1 48 14 42 -17 -4 34 -35 -9 1 -8 16
000060 43 18 16 dd b5 13 c2 f4 d4 de 2f f1 f6 eb 0c f4
       67 24 22 -35 -75 19 -62 -12 -44 -34 47 -15 -10 -21 12 -12
000070 b8 c6 b2 1a 39 12 d0 2b f8 81 11 23 dd d5 10 c4
       -72 -58 -78 26 57 18 -48 43 -8 -127 17 35 -35 -43 16 -60
000080 db f4 71 b6 e5 1e fa 14 0a 08 31 e7 29 d8 0c e8
       -37 -12 113 -74 -27 30 -6 20 10 8 49 -25 41 -40 12 -24
000090 23 a0 b5 7f 20 39 e2 b1 2b 21 8d 5b 10 f5 d9 35
       35 -96 -75 127 32 57 -30 -79 43 33 -115 91 16 -11 -39 53
0000a0 24 26 81 4d ea 0e 36 0e 08 e1 38 15 03 0d f4 3d
       36 38 -127 77 -22 14 54 14 8 -31 56 21 3 13 -12 61
0000b0 de e4 2e 03 62 59 e0 c4 88 d1 f3 4d f3 a4 f8 e4
       -34 -28 46 3 98 89 -32 -60 -120 -47 -13 77 -13 -92 -8 -28
0000c0 4f 99 ab af b3 c4 0a 20 05 e7 01 f1 c0 c2 91 b6
       79 -103 -85 -81 -77 -60 10 32 5 -25 1 -15 -64 -62 -111 -74
0000d0 c8 ea 19 ef c9 2c 32 2d 0b 21 de 1d d4 81 f2 ba
       -56 -22 25 -17 -55 44 50 45 11 33 -34 29 -44 -127 -14 -70
0000e0 9f df ab 7f f1 b2 44 da de 5b 09 3d 67 e5 e6 dc
       -97 -33 -85 127 -15 -78 68 -38 -34 91 9 61 103 -27 -26 -36
0000f0 dc fb 2c 52 b4 a3 50 41 de 72 23 04 a1 ea 3f 97
       -36 -5 44 82 -76 -93 80 65 -34 114 35 4 -95 -22 63 -105

model_1/depthwise_conv2d_6/depthwise i1 [1, 5, 1, 32]
000000 b6 b4 ca ea 7f 83 81 be d3 52 ca ed e9 81 36 7f
       -74 -76 -54 -22 127 -125 -127 -66 -45 82 -54 -19 -23 -127 54 127
000010 f6 e1 44 1a 35 e5 20 89 b1 81 bf 57 03 70 15 a3
       -10 -31 68 26 53 -27 32 -119 -79 -127 -65 87 3 112 21 -93
000020 c9 ab b6 f4 02 d7 0d 07 e5 02 f9 81 7f 32 79 ae
       -55 -85 -74 -12 2 -41 13 7 -27 2 -7 -127 127 50 121 -82
000030 2d b5 7f 2a 57 b7 7f 81 81 9b 92 7f 58 ee ee c7
       45 -75 127 42 87 -73 127 -127 -127 -101 -110 127 88 -18 -18 -57
000040 b1 c5 be 69 71 57 64 7f d0 29 a9 df 2a d2 07 ae
       -79 -59 -66 105 113 87 100 127 -48 41 -87 -33 42 -46 7 -82
000050 7f b0 b2 dc bb 2e 31 bc 15 33 81 77 6f 81 f9 36
       127 -80 -78 -36 -69 46 49 -68 21 51 -127 119 111 -127 -7 54
000060 7f 43 7f 81 37 7f fc 27 df 0d 81 d1 08 e0 4e 29
       127 67 127 -127 55 127 -4 39 -33 13 -127 -47 8 -32 78 41
000070 53 7f b5 81 81 7f 38 93 87 49 f3 1d 52 df dc 7f
       83 127 -75 -127 -127 127 56 -109 -121 73 -13 29 82 -33 -36 127
000080 f5 7f 7f b9 c2 05 48 42 81 81 c2 92 e4 bd 81 66
       -11 127 127 -71 -62 5 72 66 -127 -127 -62 -110 -28 -67 -127 102
000090 f3 18 0d 3a f7 f2 4c 09 cd e5 2b 08 7f 0b 7f 15
       -13 24 13 58 -9 -14 76 9 -51 -27 43 8 127 11 127 21

model_1/stream_6/conv2d_5/Conv2D i1 [32, 5, 1, 40]
000000 03 cb 26 f1 10 50 52 e9 ed 50 34 e0 3e f0 f1 27
       3 -53 38 -15 16 80 82 -23 -19 80 52 -32 62 -16 -15 39
000010 22 3f 0d 17 53 be c8 d3 42 09 2b f9 0c d5 08 11
       34 63 13 23 83 -66 -56 -45 66 9 43 -7 12 -43 8 17
000020 ff d9 08 24 0b f7 36 d7 c6 b1 fc bb 40 fc 5c f9
       -1 -39 8 36 11 -9 54 -41 -58 -79 -4 -69 64 -4 92 -7
000030 66 60 7f 22 51 d0 f1 f3 3b 00 08 ca 50 ec e7 d8
       102 96 127 34 81 -48 -15 -13 59 0 8 -54 80 -20 -25 -40
000040 34 fe 3a f4 11 28 f2 c0 26 95 13 f3 d5 b3 2e a6
       52 -2 58 -12 17 40 -14 -64 38 -107 19 -13 -43 -77 46 -90
000050 af bb b6 b5 24 b9 fe f9 3f 57 6b 00 e8 92 c0 f0
       -81 -69 -74 -75 36 -71 -2 -7 63 87 107 0 -24 -110 -64 -16
000060 11 e7 ed bd 45 1d fe b5 f2 d9 3c ad de b9 17 f6
       17 -25 -19 -67 69 29 -2 -75 -14 -39 60 -83 -34 -71 23 -10
000070 eb c2 ab c3 cb e8 14 dd e4 a1 e5 ae 38 f1 30 31
       -21 -62 -85 -61 -53 -24 20 -35 -28 -95 -27 -82 56 -15 48 49
000080 2b 0b 0e 18 c9 9c 1f e9 50 22 d0 15 52 f0 d7 cf
       43 11 14 24 -55 -100 31 -23 80 34 -48 21 82 -16 -41 -49
000090 29 19 45 0b 20 29 ea 28 c3 04 0b 20 fd e7 c6 21
       41 25 69 11 32 41 -22 40 -61 4 11 32 -3 -25 -58 33
0000a0 a8 bd 9f be 04 fd 1e 4b 1a 14 64 01 3a b6 09 19
       -88 -67 -97 -66 4 -3 30 75 26 20 100 1 58 -74 9 25
0000b0 2e f1 1f eb 42 2d 2b 2d 16 fc 1d ff d8 03 fb ea
       46 -15 31 -21 66 45 43 45 22 -4 29 -1 -40 3 -5 -22
0000c0 a7 1d 1f 4b db 44 31 ed 22 06 ff d0 45 38 1c 5a
       -89 29 31 75 -37 68 49 -19 34 6 -1 -48 69 56 28 90
0000d0 04 dd e4 d5 b4 d9 d3 df 18 f1 0d ed 0d 1b c7 1a
       4 -35 -28 -43 -76 -39 -45 -33 24 -15 13 -19 13 27 -57 26
0000e0 40 5a 44 ed fa fc eb 43 44 31 34 df f6 92 0d b3
       64 90 68 -19 -6 -4 -21 67 68 49 52 -33 -10 -110 13 -77
0000f0 4f 65 49 5d 18 15 38 41 20 dc 19 13 cf c7 21 e0
       79 101 73 93 24 21 56 65 32 -36 25 19 -49 -57 33 -32

tfl.pseudo_qconst i1 [1, 14, 1, 64] scale=0.035335027 zero_point=-128
000000 80 80 80 80 80 80 80 80 80 80 80 80 80 80 80 80
       0.0 0.0 0.0 0.0 0.0 0.0 0.0 0.0 0.0 0.0 0.0 0.0 0.0 0.0 0.0 0.0
000010 80 80 80 80 80 80 80 80 80 80 80 80 80 80 80 80
       0.0 0.0 0.0 0.0 0.0 0.0 0.0 0.0 0.0 0.0 0.0 0.0 0.0 0.0 0.0 0.0
000020 80 80 80 80 80 80 80 80 80 80 80 80 80 80 80 80
       0.0 0.0 0.0 0.0 0.0 0.0 0.0 0.0 0.0 0.0 0.0 0.0 0.0 0.0 0.0 0.0
000030 80 80 80 80 80 80 80 80 80 80 80 80 80 80 80 80
       0.0 0.0 0.0 0.0 0.0 0.0 0.0 0.0 0.0 0.0 0.0 0.0 0.0 0.0 0.0 0.0
000040 80 80 80 80 80 80 80 80 80 80 80 80 80 80 80 80
       0.0 0.0 0.0 0.0 0.0 0.0 0.0 0.0 0.0 0.0 0.0 0.0 0.0 0.0 0.0 0.0
000050 80 80 80 80 80 80 80 80 80 80 80 80 80 80 80 80
       0.0 0.0 0.0 0.0 0.0 0.0 0.0 0.0 0.0 0.0 0.0 0.0 0.0 0.0 0.0 0.0
000060 80 80 80 80 80 80 80 80 80 80 80 80 80 80 80 80
       0.0 0.0 0.0 0.0 0.0 0.0 0.0 0.0 0.0 0.0 0.0 0.0 0.0 0.0 0.0 0.0
000070 80 80 80 80 80 80 80 80 80 80 80 80 80 80 80 80
       0.0 0.0 0.0 0.0 0.0 0.0 0.0 0.0 0.0 0.0 0.0 0.0 0.0 0.0 0.0 0.0
000080 80 80 80 80 80 80 80 80 80 80 80 80 80 80 80 80
       0.0 0.0 0.0 0.0 0.0 0.0 0.0 0.0 0.0 0.0 0.0 0.0 0.0 0.0 0.0 0.0
000090 80 80 80 80 80 80 80 80 80 80 80 80 80 80 80 80
       0.0 0.0 0.0 0.0 0.0 0.0 0.0 0.0 0.0 0.0 0.0 0.0 0.0 0.0 0.0 0.0
0000a0 80 80 80 80 80 80 80 80 80 80 80 80 80 80 80 80
       0.0 0.0 0.0 0.0 0.0 0.0 0.0 0.0 0.0 0.0 0.0 0.0 0.0 0.0 0.0 0.0
0000b0 80 80 80 80 80 80 80 80 80 80 80 80 80 80 80 80
       0.0 0.0 0.0 0.0 0.0 0.0 0.0 0.0 0.0 0.0 0.0 0.0 0.0 0.0 0.0 0.0
0000c0 80 80 80 80 80 80 80 80 80 80 80 80 80 80 80 80
       0.0 0.0 0.0 0.0 0.0 0.0 0.0 0.0 0.0 0.0 0.0 0.0 0.0 0.0 0.0 0.0
0000d0 80 80 80 80 80 80 80 80 80 80 80 80 80 80 80 80
       0.0 0.0 0.0 0.0 0.0 0.0 0.0 0.0 0.0 0.0 0.0 0.0 0.0 0.0 0.0 0.0
0000e0 80 80 80 80 80 80 80 80 80 80 80 80 80 80 80 80
       0.0 0.0 0.0 0.0 0.0 0.0 0.0 0.0 0.0 0.0 0.0 0.0 0.0 0.0 0.0 0.0
0000f0 80 80 80 80 80 80 80 80 80 80 80 80 80 80 80 80
       0.0 0.0 0.0 0.0 0.0 0.0 0.0 0.0 0.0 0.0 0.0 0.0 0.0 0.0 0.0 0.0

tfl.pseudo_qconst1 i1 [1, 10, 1, 64] scale=0.032790784 zero_point=-128
000000 80 80 80 80 80 80 80 80 80 80 80 80 80 80 80 80
       0.0 0.0 0.0 0.0 0.0 0.0 0.0 0.0 0.0 0.0 0.0 0.0 0.0 0.0 0.0 0.0
000010 80 80 80 80 80 80 80 80 80 80 80 80 80 80 80 80
       0.0 0.0 0.0 0.0 0.0 0.0 0.0 0.0 0.0 0.0 0.0 0.0 0.0 0.0 0.0 0.0
000020 80 80 80 80 80 80 80 80 80 80 80 80 80 80 80 80
       0.0 0.0 0.0 0.0 0.0 0.0 0.0 0.0 0.0 0.0 0.0 0.0 0.0 0.0 0.0 0.0
000030 80 80 80 80 80 80 80 80 80 80 80 80 80 80 80 80
       0.0 0.0 0.0 0.0 0.0 0.0 0.0 0.0 0.0 0.0 0.0 0.0 0.0 0.0 0.0 0.0
000040 80 80 80 80 80 80 80 80 80 80 80 80 80 80 80 80
       0.0 0.0 0.0 0.0 0.0 0.0 0.0 0.0 0.0 0.0 0.0 0.0 0.0 0.0 0.0 0.0
000050 80 80 80 80 80 80 80 80 80 80 80 80 80 80 80 80
       0.0 0.0 0.0 0.0 0.0 0.0 0.0 0.0 0.0 0.0 0.0 0.0 0.0 0.0 0.0 0.0
000060 80 80 80 80 80 80 80 80 80 80 80 80 80 80 80 80
       0.0 0.0 0.0 0.0 0.0 0.0 0.0 0.0 0.0 0.0 0.0 0.0 0.0 0.0 0.0 0.0
000070 80 80 80 80 80 80 80 80 80 80 80 80 80 80 80 80
       0.0 0.0 0.0 0.0 0.0 0.0 0.0 0.0 0.0 0.0 0.0 0.0 0.0 0.0 0.0 0.0
000080 80 80 80 80 80 80 80 80 80 80 80 80 80 80 80 80
       0.0 0.0 0.0 0.0 0.0 0.0 0.0 0.0 0.0 0.0 0.0 0.0 0.0 0.0 0.0 0.0
000090 80 80 80 80 80 80 80 80 80 80 80 80 80 80 80 80
       0.0 0.0 0.0 0.0 0.0 0.0 0.0 0.0 0.0 0.0 0.0 0.0 0.0 0.0 0.0 0.0
0000a0 80 80 80 80 80 80 80 80 80 80 80 80 80 80 80 80
       0.0 0.0 0.0 0.0 0.0 0.0 0.0 0.0 0.0 0.0 0.0 0.0 0.0 0.0 0.0 0.0
0000b0 80 80 80 80 80 80 80 80 80 80 80 80 80 80 80 80
       0.0 0.0 0.0 0.0 0.0 0.0 0.0 0.0 0.0 0.0 0.0 0.0 0.0 0.0 0.0 0.0
0000c0 80 80 80 80 80 80 80 80 80 80 80 80 80 80 80 80
       0.0 0.0 0.0 0.0 0.0 0.0 0.0 0.0 0.0 0.0 0.0 0.0 0.0 0.0 0.0 0.0
0000d0 80 80 80 80 80 80 80 80 80 80 80 80 80 80 80 80
       0.0 0.0 0.0 0.0 0.0 0.0 0.0 0.0 0.0 0.0 0.0 0.0 0.0 0.0 0.0 0.0
0000e0 80 80 80 80 80 80 80 80 80 80 80 80 80 80 80 80
       0.0 0.0 0.0 0.0 0.0 0.0 0.0 0.0 0.0 0.0 0.0 0.0 0.0 0.0 0.0 0.0
0000f0 80 80 80 80 80 80 80 80 80 80 80 80 80 80 80 80
       0.0 0.0 0.0 0.0 0.0 0.0 0.0 0.0 0.0 0.0 0.0 0.0 0.0 0.0 0.0 0.0

tfl.pseudo_qconst2 i1 [1, 4, 1, 32] scale=0.7837687 zero_point=-128
000000 80 80 80 80 80 80 80 80 80 80 80 80 80 80 80 80
       0.0 0.0 0.0 0.0 0.0 0.0 0.0 0.0 0.0 0.0 0.0 0.0 0.0 0.0 0.0 0.0
000010 80 80 80 80 80 80 80 80 80 80 80 80 80 80 80 80
       0.0 0.0 0.0 0.0 0.0 0.0 0.0 0.0 0.0 0.0 0.0 0.0 0.0 0.0 0.0 0.0
000020 80 80 80 80 80 80 80 80 80 80 80 80 80 80 80 80
       0.0 0.0 0.0 0.0 0.0 0.0 0.0 0.0 0.0 0.0 0.0 0.0 0.0 0.0 0.0 0.0
000030 80 80 80 80 80 80 80 80 80 80 80 80 80 80 80 80
       0.0 0.0 0.0 0.0 0.0 0.0 0.0 0.0 0.0 0.0 0.0 0.0 0.0 0.0 0.0 0.0
000040 80 80 80 80 80 80 80 80 80 80 80 80 80 80 80 80
       0.0 0.0 0.0 0.0 0.0 0.0 0.0 0.0 0.0 0.0 0.0 0.0 0.0 0.0 0.0 0.0
000050 80 80 80 80 80 80 80 80 80 80 80 80 80 80 80 80
       0.0 0.0 0.0 0.0 0.0 0.0 0.0 0.0 0.0 0.0 0.0 0.0 0.0 0.0 0.0 0.0
000060 80 80 80 80 80 80 80 80 80 80 80 80 80 80 80 80
       0.0 0.0 0.0 0.0 0.0 0.0 0.0 0.0 0.0 0.0 0.0 0.0 0.0 0.0 0.0 0.0
000070 80 80 80 80 80 80 80 80 80 80 80 80 80 80 80 80
       0.0 0.0 0.0 0.0 0.0 0.0 0.0 0.0 0.0 0.0 0.0 0.0 0.0 0.0 0.0 0.0

tfl.pseudo_qconst3 i1 [1, 2, 1, 40] scale=0.101960786 zero_point=-128
000000 80 80 80 80 80 80 80 80 80 80 80 80 80 80 80 80
       0.0 0.0 0.0 0.0 0.0 0.0 0.0 0.0 0.0 0.0 0.0 0.0 0.0 0.0 0.0 0.0
000010 80 80 80 80 80 80 80 80 80 80 80 80 80 80 80 80
       0.0 0.0 0.0 0.0 0.0 0.0 0.0 0.0 0.0 0.0 0.0 0.0 0.0 0.0 0.0 0.0
000020 80 80 80 80 80 80 80 80 80 80 80 80 80 80 80 80
       0.0 0.0 0.0 0.0 0.0 0.0 0.0 0.0 0.0 0.0 0.0 0.0 0.0 0.0 0.0 0.0
000030 80 80 80 80 80 80 80 80 80 80 80 80 80 80 80 80
       0.0 0.0 0.0 0.0 0.0 0.0 0.0 0.0 0.0 0.0 0.0 0.0 0.0 0.0 0.0 0.0
000040 80 80 80 80 80 80 80 80 80 80 80 80 80 80 80 80
       0.0 0.0 0.0 0.0 0.0 0.0 0.0 0.0 0.0 0.0 0.0 0.0 0.0 0.0 0.0 0.0

tfl.pseudo_qconst4 i1 [1, 16, 1, 64] scale=0.026230184 zero_point=-128
000000 80 80 80 80 80 80 80 80 80 80 80 80 80 80 80 80
       0.0 0.0 0.0 0.0 0.0 0.0 0.0 0.0 0.0 0.0 0.0 0.0 0.0 0.0 0.0 0.0
000010 80 80 80 80 80 80 80 80 80 80 80 80 80 80 80 80
       0.0 0.0 0.0 0.0 0.0 0.0 0.0 0.0 0.0 0.0 0.0 0.0 0.0 0.0 0.0 0.0
000020 80 80 80 80 80 80 80 80 80 80 80 80 80 80 80 80
       0.0 0.0 0.0 0.0 0.0 0.0 0.0 0.0 0.0 0.0 0.0 0.0 0.0 0.0 0.0 0.0
000030 80 80 80 80 80 80 80 80 80 80 80 80 80 80 80 80
       0.0 0.0 0.0 0.0 0.0 0.0 0.0 0.0 0.0 0.0 0.0 0.0 0.0 0.0 0.0 0.0
000040 80 80 80 80 80 80 80 80 80 80 80 80 80 80 80 80
       0.0 0.0 0.0 0.0 0.0 0.0 0.0 0.0 0.0 0.0 0.0 0.0 0.0 0.0 0.0 0.0
000050 80 80 80 80 80 80 80 80 80 80 80 80 80 80 80 80
       0.0 0.0 0.0 0.0 0.0 0.0 0.0 0.0 0.0 0.0 0.0 0.0 0.0 0.0 0.0 0.0
000060 80 80 80 80 80 80 80 80 80 80 80 80 80 80 80 80
       0.0 0.0 0.0 0.0 0.0 0.0 0.0 0.0 0.0 0.0 0.0 0.0 0.0 0.0 0.0 0.0
000070 80 80 80 80 80 80 80 80 80 80 80 80 80 80 80 80
       0.0 0.0 0.0 0.0 0.0 0.0 0.0 0.0 0.0 0.0 0.0 0.0 0.0 0.0 0.0 0.0
000080 80 80 80 80 80 80 80 80 80 80 80 80 80 80 80 80
       0.0 0.0 0.0 0.0 0.0 0.0 0.0 0.0 0.0 0.0 0.0 0.0 0.0 0.0 0.0 0.0
000090 80 80 80 80 80 80 80 80 80 80 80 80 80 80 80 80
       0.0 0.0 0.0 0.0 0.0 0.0 0.0 0.0 0.0 0.0 0.0 0.0 0.0 0.0 0.0 0.0
0000a0 80 80 80 80 80 80 80 80 80 80 80 80 80 80 80 80
       0.0 0.0 0.0 0.0 0.0 0.0 0.0 0.0 0.0 0.0 0.0 0.0 0.0 0.0 0.0 0.0
0000b0 80 80 80 80 80 80 80 80 80 80 80 80 80 80 80 80
       0.0 0.0 0.0 0.0 0.0 0.0 0.0 0.0 0.0 0.0 0.0 0.0 0.0 0.0 0.0 0.0
0000c0 80 80 80 80 80 80 80 80 80 80 80 80 80 80 80 80
       0.0 0.0 0.0 0.0 0.0 0.0 0.0 0.0 0.0 0.0 0.0 0.0 0.0 0.0 0.0 0.0
0000d0 80 80 80 80 80 80 80 80 80 80 80 80 80 80 80 80
       0.0 0.0 0.0 0.0 0.0 0.0 0.0 0.0 0.0 0.0 0.0 0.0 0.0 0.0 0.0 0.0
0000e0 80 80 80 80 80 80 80 80 80 80 80 80 80 80 80 80
       0.0 0.0 0.0 0.0 0.0 0.0 0.0 0.0 0.0 0.0 0.0 0.0 0.0 0.0 0.0 0.0
0000f0 80 80 80 80 80 80 80 80 80 80 80 80 80 80 80 80
       0.0 0.0 0.0 0.0 0.0 0.0 0.0 0.0 0.0 0.0 0.0 0.0 0.0 0.0 0.0 0.0

tfl.pseudo_qconst5 i1 [1, 22, 1, 64] scale=0.031005243 zero_point=-128
000000 80 80 80 80 80 80 80 80 80 80 80 80 80 80 80 80
       0.0 0.0 0.0 0.0 0.0 0.0 0.0 0.0 0.0 0.0 0.0 0.0 0.0 0.0 0.0 0.0
000010 80 80 80 80 80 80 80 80 80 80 80 80 80 80 80 80
       0.0 0.0 0.0 0.0 0.0 0.0 0.0 0.0 0.0 0.0 0.0 0.0 0.0 0.0 0.0 0.0
000020 80 80 80 80 80 80 80 80 80 80 80 80 80 80 80 80
       0.0 0.0 0.0 0.0 0.0 0.0 0.0 0.0 0.0 0.0 0.0 0.0 0.0 0.0 0.0 0.0
000030 80 80 80 80 80 80 80 80 80 80 80 80 80 80 80 80
       0.0 0.0 0.0 0.0 0.0 0.0 0.0 0.0 0.0 0.0 0.0 0.0 0.0 0.0 0.0 0.0
000040 80 80 80 80 80 80 80 80 80 80 80 80 80 80 80 80
       0.0 0.0 0.0 0.0 0.0 0.0 0.0 0.0 0.0 0.0 0.0 0.0 0.0 0.0 0.0 0.0
000050 80 80 80 80 80 80 80 80 80 80 80 80 80 80 80 80
       0.0 0.0 0.0 0.0 0.0 0.0 0.0 0.0 0.0 0.0 0.0 0.0 0.0 0.0 0.0 0.0
000060 80 80 80 80 80 80 80 80 80 80 80 80 80 80 80 80
       0.0 0.0 0.0 0.0 0.0 0.0 0.0 0.0 0.0 0.0 0.0 0.0 0.0 0.0 0.0 0.0
000070 80 80 80 80 80 80 80 80 80 80 80 80 80 80 80 80
       0.0 0.0 0.0 0.0 0.0 0.0 0.0 0.0 0.0 0.0 0.0 0.0 0.0 0.0 0.0 0.0
000080 80 80 80 80 80 80 80 80 80 80 80 80 80 80 80 80
       0.0 0.0 0.0 0.0 0.0 0.0 0.0 0.0 0.0 0.0 0.0 0.0 0.0 0.0 0.0 0.0
000090 80 80 80 80 80 80 80 80 80 80 80 80 80 80 80 80
       0.0 0.0 0.0 0.0 0.0 0.0 0.0 0.0 0.0 0.0 0.0 0.0 0.0 0.0 0.0 0.0
0000a0 80 80 80 80 80 80 80 80 80 80 80 80 80 80 80 80
       0.0 0.0 0.0 0.0 0.0 0.0 0.0 0.0 0.0 0.0 0.0 0.0 0.0 0.0 0.0 0.0
0000b0 80 80 80 80 80 80 80 80 80 80 80 80 80 80 80 80
       0.0 0.0 0.0 0.0 0.0 0.0 0.0 0.0 0.0 0.0 0.0 0.0 0.0 0.0 0.0 0.0
0000c0 80 80 80 80 80 80 80 80 80 80 80 80 80 80 80 80
       0.0 0.0 0.0 0.0 0.0 0.0 0.0 0.0 0.0 0.0 0.0 0.0 0.0 0.0 0.0 0.0
0000d0 80 80 80 80 80 80 80 80 80 80 80 80 80 80 80 80
       0.0 0.0 0.0 0.0 0.0 0.0 0.0 0.0 0.0 0.0 0.0 0.0 0.0 0.0 0.0 0.0
0000e0 80 80 80 80 80 80 80 80 80 80 80 80 80 80 80 80
       0.0 0.0 0.0 0.0 0.0 0.0 0.0 0.0 0.0 0.0 0.0 0.0 0.0 0.0 0.0 0.0
0000f0 80 80 80 80 80 80 80 80 80 80 80 80 80 80 80 80
       0.0 0.0 0.0 0.0 0.0 0.0 0.0 0.0 0.0 0.0 0.0 0.0 0.0 0.0 0.0 0.0
