assist_satellite/wakewords/okay_nabu.tflite (tflite, 80824 bytes, 21 tensors)

model_1/dense_1/MatMul i1 [1, 64] scale=0.0042525157 zero_point=0
0	0xde	-0.14458553
1	0x3a	0.24664591
2	0x44	0.28917107
3	0x10	0.06804025
4	0xb4	-0.3231912
5	0x36	0.22963585
6	0xd6	-0.17860566
7	0xae	-0.3487063
8	0x37	0.23388836
9	0xce	-0.21262579
10	0xe1	-0.13182798
11	0x1c	0.11907044
12	0x1f	0.13182798
13	0x1e	0.12757547
14	0xca	-0.22963585
15	0x24	0.15309057
16	0x20	0.1360805
17	0xac	-0.35721132
18	0xc1	-0.26790848
19	0x22	0.14458553
20	0xa3	-0.39548397
21	0x54	0.35721132
22	0x9a	-0.4337566
23	0xbd	-0.28491855
24	0x9f	-0.41249403
25	0xce	-0.21262579
26	0x12	0.07654528
27	0x2f	0.19986823
28	0x2c	0.18711069
29	0x97	-0.44651416
30	0x1e	0.12757547
31	0xc3	-0.25940347
32	0x20	0.1360805
33	0xc1	-0.26790848
34	0xa0	-0.4082415
35	0xe2	-0.12757547
36	0x97	-0.44651416
37	0x30	0.20412076
38	0xb3	-0.32744372
39	0x98	-0.44226164
40	0xc5	-0.25089842
41	0x11	0.07229277
42	0xb9	-0.3019286
43	0xaa	-0.36571634
44	0x11	0.07229277
45	0x19	0.10631289
46	0xd6	-0.17860566
47	0x13	0.0807978
48	0x81	-0.5400695
49	0xa7	-0.3784739
50	0x2a	0.17860566
51	0x94	-0.4592717
52	0xbb	-0.2934236
53	0xec	-0.085050315
54	0x3d	0.25940347
55	0xd4	-0.18711069
56	0x88	-0.5103019
57	0xac	-0.35721132
58	0x2d	0.19136322
59	0xc4	-0.25515094
60	0x86	-0.51880693
61	0x9e	-0.41674656
62	0x2a	0.17860566
63	0x0b	0.046777673

model_1/conv2d_11/Conv2D i1 [64, 1, 1, 64]
0	0xcf	-49
1	0x59	89
2	0xe7	-25
3	0xd4	-44
4	0xe0	-32
5	0x14	20
6	0xf3	-13
7	0xfb	-5
8	0x0e	14
9	0xfa	-6
10	0x06	6
11	0xd3	-45
12	0x53	83
13	0x7f	127
14	0x11	17
15	0x1e	30
16	0xde	-34
17	0xfc	-4
18	0xef	-17
19	0x17	23
20	0xf8	-8
21	0xf4	-12
22	0x50	80
23	0xe7	-25
24	0xfe	-2
25	0x1c	28
26	0xe2	-30
27	0x17	23
28	0x33	51
29	0x15	21
30	0xf8	-8
31	0x56	86
32	0x35	53
33	0xce	-50
34	0x34	52
35	0x11	17
36	0x07	7
37	0xf7	-9
38	0xfa	-6
39	0xdd	-35
40	0xd3	-45
41	0x03	3
42	0x28	40
43	0xf1	-15
44	0x0b	11
45	0xe3	-29
46	0x08	8
47	0x23	35
48	0x0b	11
49	0x16	22
50	0x40	64
51	0xc6	-58
52	0x01	1
53	0x27	39
54	0x37	55
55	0x2d	45
56	0x4b	75
57	0x5d	93
58	0x09	9
59	0x0d	13
60	0x0d	13
61	0xc5	-59
62	0x11	17
63	0xf4	-12
64	0x11	17
65	0x9c	-100
66	0x2e	46
67	0x14	20
68	0xe6	-26
69	0x16	22
70	0x0b	11
71	0x01	1
72	0xd1	-47
73	0xf8	-8
74	0xb0	-80
75	0x43	67
76	0x13	19
77	0xa7	-89
78	0x16	22
79	0x0b	11
80	0x2a	42
81	0xe9	-23
82	0x1d	29
83	0x02	2
84	0x0d	13
85	0xcc	-52
86	0x0b	11
87	0xf7	-9
88	0xd0	-48
89	0xf0	-16
90	0xeb	-21
91	0x43	67
92	0x18	24
93	0xda	-38
94	0xfe	-2
95	0x42	66
96	0xea	-22
97	0x1d	29
98	0xea	-22
99	0xcc	-52
100	0x03	3
101	0xc4	-60
102	0xe0	-32
103	0x65	101
104	0x15	21
105	0x0f	15
106	0x34	52
107	0x39	57
108	0xd8	-40
109	0x19	25
110	0x2a	42
111	0xe0	-32
112	0xf6	-10
113	0x4a	74
114	0x14	20
115	0xfb	-5
116	0x07	7
117	0x18	24
118	0x1e	30
119	0xad	-83
120	0x16	22
121	0x81	-127
122	0xcc	-52
123	0xf4	-12
124	0xfc	-4
125	0x2a	42
126	0xe9	-23
127	0xe8	-24
128	0x19	25
129	0x35	53
130	0xc5	-59
131	0xbf	-65
132	0x4f	79
133	0xc1	-63
134	0xf1	-15
135	0xdb	-37
136	0x34	52
137	0xf9	-7
138	0x03	3
139	0x29	41
140	0x15	21
141	0x20	32
142	0xdb	-37
143	0xce	-50
144	0xde	-34
145	0x0d	13
146	0x37	55
147	0xb6	-74
148	0x0d	13
149	0x1e	30
150	0xbc	-68
151	0xef	-17
152	0x0e	14
153	0x12	18
154	0x1f	31
155	0xa0	-96
156	0x15	21
157	0xf1	-15
158	0x92	-110
159	0xb5	-75
160	0x01	1
161	0xbd	-67
162	0x28	40
163	0x00	0
164	0xab	-85
165	0xe0	-32
166	0x54	84
167	0x10	16
168	0x43	67
169	0xda	-38
170	0xc7	-57
171	0x9e	-98
172	0x08	8
173	0x3d	61
174	0x64	100
175	0x53	83
176	0x06	6
177	0xa7	-89
178	0xb8	-72
179	0xaa	-86
180	0x9d	-99
181	0xb1	-79
182	0xdb	-37
183	0x6d	109
184	0xc1	-63
185	0x7f	127
186	0xc8	-56
187	0x31	49
188	0xf5	-11
189	0x6d	109
190	0xfb	-5
191	0xbe	-66
192	0x22	34
193	0x08	8
194	0x67	103
195	0x52	82
196	0x2a	42
197	0x0c	12
198	0xef	-17
199	0xd6	-42
200	0x6e	110
201	0xe0	-32
202	0x99	-103
203	0xe4	-28
204	0xed	-19
205	0x12	18
206	0x1d	29
207	0x2c	44
208	0x99	-103
209	0xea	-22
210	0xcd	-51
211	0x2f	47
212	0xfa	-6
213	0x24	36
214	0x10	16
215	0x21	33
216	0x19	25
217	0xf4	-12
218	0x02	2
219	0xd7	-41
220	0x4c	76
221	0x05	5
222	0xa8	-88
223	0xd2	-46
224	0xef	-17
225	0xcf	-49
226	0xc6	-58
227	0xd4	-44
228	0xfd	-3
229	0xbe	-66
230	0x0e	14
231	0xc0	-64
232	0x1b	27
233	0xde	-34
234	0x1b	27
235	0xda	-38
236	0x1e	30
237	0x40	64
238	0x53	83
239	0x07	7
240	0xe9	-23
241	0xdf	-33
242	0x07	7
243	0xba	-70
244	0xdf	-33
245	0xe3	-29
246	0xfc	-4
247	0xda	-38
248	0x18	24
249	0xbb	-69
250	0xe3	-29
251	0xfa	-6
252	0xc9	-55
253	0x02	2
254	0x2a	42
255	0x81	-127

model_1/depthwise_conv2d_15/depthwise i1 [1, 17, 1, 64]
0	0x7f	127
1	0x5f	95
2	0x26	38
3	0x3a	58
4	0xe1	-31
5	0x4d	77
6	0x09	9
7	0x7f	127
8	0x7f	127
9	0xd4	-44
10	0xf4	-12
11	0x71	113
12	0x7f	127
13	0x37	55
14	0x53	83
15	0x7f	127
16	0x81	-127
17	0x2d	45
18	0x81	-127
19	0x81	-127
20	0xf0	-16
21	0x39	57
22	0x88	-120
23	0x7f	127
24	0x00	0
25	0x81	-127
26	0x66	102
27	0x81	-127
28	0x5e	94
29	0x17	23
30	0x81	-127
31	0x7f	127
32	0x6d	109
33	0x81	-127
34	0xce	-50
35	0x81	-127
36	0xcc	-52
37	0x29	41
38	0x5c	92
39	0x21	33
40	0x7a	122
41	0xde	-34
42	0x7f	127
43	0x65	101
44	0x18	24
45	0x81	-127
46	0x66	102
47	0x7f	127
48	0x51	81
49	0x81	-127
50	0xe5	-27
51	0xd8	-40
52	0x81	-127
53	0x9d	-99
54	0x81	-127
55	0xf4	-12
56	0x12	18
57	0x21	33
58	0x81	-127
59	0x51	81
60	0x92	-110
61	0x7f	127
62	0x7f	127
63	0xc3	-61
64	0x5a	90
65	0x2b	43
66	0x20	32
67	0x56	86
68	0x13	19
69	0x25	37
70	0x0a	10
71	0x21	33
72	0x36	54
73	0xeb	-21
74	0x02	2
75	0x56	86
76	0xf2	-14
77	0x10	16
78	0x11	17
79	0x57	87
80	0xb2	-78
81	0x16	22
82	0xcb	-53
83	0x89	-119
84	0xfe	-2
85	0x11	17
86	0x81	-127
87	0x54	84
88	0xea	-22
89	0x9f	-97
90	0x1b	27
91	0xba	-70
92	0x76	118
93	0xe3	-29
94	0xbd	-67
95	0x61	97
96	0x47	71
97	0x97	-105
98	0xb2	-78
99	0xcd	-51
100	0xd9	-39
101	0x1c	28
102	0x6b	107
103	0x1c	28
104	0x64	100
105	0xda	-38
106	0x37	55
107	0x73	115
108	0x07	7
109	0xd8	-40
110	0x51	81
111	0x5d	93
112	0x5f	95
113	0xcb	-53
114	0x01	1
115	0xa6	-90
116	0xb0	-80
117	0x8e	-114
118	0xa7	-89
119	0x02	2
120	0xf4	-12
121	0x03	3
122	0xa1	-95
123	0x21	33
124	0x9e	-98
125	0x0e	14
126	0x48	72
127	0xeb	-21
128	0x31	49
129	0x31	49
130	0x1f	31
131	0x32	50
132	0x1e	30
133	0x19	25
134	0x00	0
135	0x4d	77
136	0x26	38
137	0x03	3
138	0xfc	-4
139	0x59	89
140	0x22	34
141	0x08	8
142	0x1b	27
143	0x3d	61
144	0xab	-85
145	0x11	17
146	0xde	-34
147	0x98	-104
148	0xea	-22
149	0x2a	42
150	0x96	-106
151	0x3a	58
152	0xd8	-40
153	0xcb	-53
154	0x01	1
155	0xd1	-47
156	0x70	112
157	0xe7	-25
158	0xd8	-40
159	0x3b	59
160	0x35	53
161	0xab	-85
162	0x0e	14
163	0xab	-85
164	0xe1	-31
165	0xde	-34
166	0x76	118
167	0x30	48
168	0x74	116
169	0xd8	-40
170	0x23	35
171	0x28	40
172	0x03	3
173	0xf2	-14
174	0x3a	58
175	0x3a	58
176	0x69	105
177	0xfe	-2
178	0xc8	-56
179	0xa5	-91
180	0xc7	-57
181	0xad	-83
182	0xae	-82
183	0x02	2
184	0x10	16
185	0x03	3
186	0xbe	-66
187	0x2f	47
188	0xa5	-91
189	0x05	5
190	0x3b	59
191	0xf7	-9
192	0x2d	45
193	0x2a	42
194	0x1c	28
195	0x54	84
196	0x05	5
197	0x25	37
198	0x08	8
199	0x54	84
200	0x1b	27
201	0x09	9
202	0x07	7
203	0x2c	44
204	0x47	71
205	0x04	4
206	0x23	35
207	0x40	64
208	0xac	-84
209	0xe0	-32
210	0xc1	-63
211	0xb4	-76
212	0xe8	-24
213	0x2c	44
214	0xc5	-59
215	0x33	51
216	0x10	16
217	0xcf	-49
218	0xdc	-36
219	0xb9	-71
220	0x2d	45
221	0xc4	-60
222	0xc3	-61
223	0x5d	93
224	0x3e	62
225	0xe5	-27
226	0xe2	-30
227	0x9f	-97
228	0xdc	-36
229	0xc8	-56
230	0x75	117
231	0x52	82
232	0x48	72
233	0x9b	-101
234	0x56	86
235	0xba	-70
236	0xd7	-41
237	0xef	-17
238	0x3b	59
239	0x1f	31
240	0x58	88
241	0xf1	-15
242	0xef	-17
243	0x81	-127
244	0xd2	-46
245	0xbb	-69
246	0xba	-70
247	0x26	38
248	0x3f	63
249	0xff	-1
250	0xaa	-86
251	0x40	64
252	0x8b	-117
253	0x11	17
254	0x47	71
255	0xf4	-12

model_1/conv2d_10/Conv2D i1 [64, 1, 1, 64]
0	0x1e	30
1	0x16	22
2	0xc8	-56
3	0xdc	-36
4	0x65	101
5	0xd8	-40
6	0x5a	90
7	0xb4	-76
8	0xe8	-24
9	0xf9	-7
10	0xfe	-2
11	0xd3	-45
12	0xca	-54
13	0xf9	-7
14	0xc2	-62
15	0x23	35
16	0xbc	-68
17	0xe9	-23
18	0x09	9
19	0xd0	-48
20	0xd4	-44
21	0x3b	59
22	0x81	-127
23	0xcc	-52
24	0x21	33
25	0x05	5
26	0xf0	-16
27	0xfe	-2
28	0x22	34
29	0xbc	-68
30	0xcc	-52
31	0xf9	-7
32	0xbe	-66
33	0x10	16
34	0xfe	-2
35	0x16	22
36	0x19	25
37	0x2f	47
38	0x17	23
39	0x0b	11
40	0xd2	-46
41	0xce	-50
42	0xbf	-65
43	0xed	-19
44	0xde	-34
45	0x2c	44
46	0x02	2
47	0xfa	-6
48	0x0c	12
49	0x30	48
50	0x29	41
51	0xfb	-5
52	0x0b	11
53	0x15	21
54	0x02	2
55	0x4f	79
56	0x2d	45
57	0x45	69
58	0xff	-1
59	0xe6	-26
60	0x3a	58
61	0xf9	-7
62	0xde	-34
63	0xf7	-9
64	0xd3	-45
65	0x1d	29
66	0x49	73
67	0xc4	-60
68	0x1c	28
69	0x96	-106
70	0xab	-85
71	0xf0	-16
72	0x1a	26
73	0x47	71
74	0x0d	13
75	0xda	-38
76	0x2d	45
77	0x93	-109
78	0xc8	-56
79	0x01	1
80	0xe9	-23
81	0xeb	-21
82	0xfc	-4
83	0xb7	-73
84	0xcd	-51
85	0x19	25
86	0x8d	-115
87	0xdb	-37
88	0xc3	-61
89	0xd8	-40
90	0x3a	58
91	0x34	52
92	0xd9	-39
93	0xaf	-81
94	0xc2	-62
95	0x32	50
96	0x05	5
97	0xfb	-5
98	0x03	3
99	0xa3	-93
100	0xa8	-88
101	0x1f	31
102	0x54	84
103	0x7a	122
104	0x5e	94
105	0xda	-38
106	0x32	50
107	0xcd	-51
108	0xc6	-58
109	0x33	51
110	0xe1	-31
111	0x35	53
112	0xd4	-44
113	0x50	80
114	0xeb	-21
115	0xf0	-16
116	0xcd	-51
117	0x81	-127
118	0x1e	30
119	0xc8	-56
120	0xb2	-78
121	0x08	8
122	0x15	21
123	0xc8	-56
124	0xec	-20
125	0xbf	-65
126	0xac	-84
127	0x0d	13
128	0x20	32
129	0xfd	-3
130	0xbe	-66
131	0x07	7
132	0xed	-19
133	0x1b	27
134	0x2f	47
135	0x0b	11
136	0xe2	-30
137	0xee	-18
138	0x1f	31
139	0xec	-20
140	0xca	-54
141	0x50	80
142	0xd0	-48
143	0xfe	-2
144	0xfe	-2
145	0xe9	-23
146	0xe1	-31
147	0x26	38
148	0xeb	-21
149	0xf0	-16
150	0x44	68
151	0xf0	-16
152	0x2d	45
153	0x33	51
154	0x1d	29
155	0xea	-22
156	0xe1	-31
157	0xff	-1
158	0x0d	13
159	0xf4	-12
160	0x06	6
161	0xef	-17
162	0xeb	-21
163	0x37	55
164	0x29	41
165	0xe0	-32
166	0xea	-22
167	0x81	-127
168	0xd8	-40
169	0xe6	-26
170	0x24	36
171	0xe0	-32
172	0xdf	-33
173	0x18	24
174	0xdb	-37
175	0x34	52
176	0x2f	47
177	0x19	25
178	0xfe	-2
179	0x1f	31
180	0xcf	-49
181	0x28	40
182	0x05	5
183	0x37	55
184	0x05	5
185	0xd8	-40
186	0xf2	-14
187	0x09	9
188	0xe1	-31
189	0x15	21
190	0xef	-17
191	0xf4	-12
192	0x1c	28
193	0x54	84
194	0xba	-70
195	0x42	66
196	0xc1	-63
197	0x0c	12
198	0x18	24
199	0xd8	-40
200	0x46	70
201	0xd9	-39
202	0xfd	-3
203	0xfb	-5
204	0xf1	-15
205	0x41	65
206	0xe0	-32
207	0xc9	-55
208	0xe3	-29
209	0x20	32
210	0xfe	-2
211	0x03	3
212	0xb8	-72
213	0x3b	59
214	0x7f	127
215	0x2b	43
216	0x1c	28
217	0x0a	10
218	0x2f	47
219	0xae	-82
220	0xe5	-27
221	0xf9	-7
222	0x48	72
223	0x8f	-113
224	0x58	88
225	0xc9	-55
226	0x09	9
227	0xe9	-23
228	0x0d	13
229	0xc1	-63
230	0xb2	-78
231	0x93	-109
232	0xbf	-65
233	0xcb	-53
234	0x34	52
235	0xd1	-47
236	0x16	22
237	0x12	18
238	0xe0	-32
239	0x16	22
240	0xf3	-13
241	0xb2	-78
242	0x50	80
243	0x3a	58
244	0xbc	-68
245	0x7e	126
246	0xd1	-47
247	0x6f	111
248	0x0d	13
249	0x15	21
250	0xb1	-79
251	0x30	48
252	0x04	4
253	0x56	86
254	0x08	8
255	0xfc	-4

model_1/depthwise_conv2d_14/depthwise i1 [1, 15, 1, 32]
0	0x00	0
1	0x81	-127
2	0x7f	127
3	0x81	-127
4	0x6a	106
5	0xfb	-5
6	0x49	73
7	0xf6	-10
8	0x81	-127
9	0xd8	-40
10	0x45	69
11	0x81	-127
12	0x19	25
13	0xc0	-64
14	0x81	-127
15	0x49	73
16	0x65	101
17	0x06	6
18	0x7f	127
19	0x21	33
20	0x01	1
21	0x94	-108
22	0x81	-127
23	0x1f	31
24	0xf0	-16
25	0xe5	-27
26	0x50	80
27	0xac	-84
28	0xbe	-66
29	0x3c	60
30	0xd7	-41
31	0xc0	-64
32	0x04	4
33	0xcb	-53
34	0x30	48
35	0xaa	-86
36	0x30	48
37	0xeb	-21
38	0x05	5
39	0xf1	-15
40	0xb7	-73
41	0x11	17
42	0x64	100
43	0xb5	-75
44	0x27	39
45	0xc4	-60
46	0xc0	-64
47	0x7f	127
48	0x7f	127
49	0x03	3
50	0x1e	30
51	0x36	54
52	0xc3	-61
53	0x9b	-101
54	0xbf	-65
55	0x2b	43
56	0x11	17
57	0x34	52
58	0x34	52
59	0x8c	-116
60	0xc4	-60
61	0x0c	12
62	0x34	52
63	0xa2	-94
64	0xd5	-43
65	0xc0	-64
66	0x40	64
67	0xd7	-41
68	0x5e	94
69	0xbf	-65
70	0x14	20
71	0xfe	-2
72	0xb9	-71
73	0xf7	-9
74	0x56	86
75	0xb1	-79
76	0x14	20
77	0xff	-1
78	0xd1	-47
79	0x32	50
80	0x7f	127
81	0xff	-1
82	0x1e	30
83	0x19	25
84	0xbb	-69
85	0x94	-108
86	0xcd	-51
87	0x28	40
88	0x2a	42
89	0x0b	11
90	0x23	35
91	0xbd	-67
92	0xce	-50
93	0x7f	127
94	0x02	2
95	0xc2	-62
96	0xe1	-31
97	0xbd	-67
98	0x24	36
99	0xc3	-61
100	0x46	70
101	0xb8	-72
102	0x22	34
103	0x1a	26
104	0xba	-70
105	0xcf	-49
106	0x7f	127
107	0xd3	-45
108	0x14	20
109	0xb6	-74
110	0xd9	-39
111	0x72	114
112	0x74	116
113	0x06	6
114	0x01	1
115	0x54	84
116	0xa4	-92
117	0x92	-110
118	0xd6	-42
119	0x7f	127
120	0x0e	14
121	0x1b	27
122	0x06	6
123	0xc1	-63
124	0xc3	-61
125	0x3a	58
126	0x22	34
127	0xbe	-66
128	0x71	113
129	0xd9	-39
130	0x36	54
131	0xb7	-73
132	0x3b	59
133	0xa7	-89
134	0x0c	12
135	0x06	6
136	0xda	-38
137	0xbb	-69
138	0x62	98
139	0x06	6
140	0xfc	-4
141	0xcf	-49
142	0xed	-19
143	0x61	97
144	0x49	73
145	0x03	3
146	0x0f	15
147	0x58	88
148	0xaf	-81
149	0x81	-127
150	0xb6	-74
151	0x76	118
152	0xf6	-10
153	0x49	73
154	0xed	-19
155	0xcd	-51
156	0xd4	-44
157	0x3e	62
158	0x5a	90
159	0xc0	-64
160	0x7f	127
161	0xfd	-3
162	0x11	17
163	0xf2	-14
164	0x30	48
165	0x81	-127
166	0x2e	46
167	0x0b	11
168	0xff	-1
169	0xf6	-10
170	0x5d	93
171	0x10	16
172	0xcb	-53
173	0xe7	-25
174	0xed	-19
175	0x34	52
176	0x29	41
177	0xf2	-14
178	0xe3	-29
179	0x39	57
180	0xcd	-51
181	0x9f	-97
182	0xd7	-41
183	0xf8	-8
184	0xfe	-2
185	0x46	70
186	0xfe	-2
187	0xba	-70
188	0xd3	-45
189	0x1e	30
190	0x55	85
191	0x9d	-99
192	0x38	56
193	0x08	8
194	0xee	-18
195	0xdb	-37
196	0x2a	42
197	0xe4	-28
198	0x10	16
199	0x09	9
200	0x32	50
201	0xfc	-4
202	0x32	50
203	0x04	4
204	0xe9	-23
205	0xce	-50
206	0xf9	-7
207	0x43	67
208	0x33	51
209	0xe4	-28
210	0x1e	30
211	0x1a	26
212	0xa3	-93
213	0xa2	-94
214	0xea	-22
215	0xf3	-13
216	0x96	-106
217	0x1e	30
218	0x29	41
219	0x9c	-100
220	0x0a	10
221	0xf0	-16
222	0x4d	77
223	0x9c	-100
224	0x18	24
225	0xff	-1
226	0xf1	-15
227	0xe6	-26
228	0x14	20
229	0xef	-17
230	0x2b	43
231	0x0f	15
232	0x15	21
233	0x0d	13
234	0x18	24
235	0x17	23
236	0xe6	-26
237	0xcb	-53
238	0x02	2
239	0x13	19
240	0x32	50
241	0xed	-19
242	0xd9	-39
243	0x40	64
244	0x81	-127
245	0x97	-105
246	0xdb	-37
247	0xf3	-13
248	0xaa	-86
249	0xd0	-48
250	0x07	7
251	0x81	-127
252	0xcf	-49
253	0x12	18
254	0x22	34
255	0xaf	-81

model_1/depthwise_conv2d_13/depthwise i1 [1, 9, 1, 32]
0	0x57	87
1	0x19	25
2	0x34	52
3	0xd9	-39
4	0x23	35
5	0x1b	27
6	0x36	54
7	0x58	88
8	0x4d	77
9	0xe5	-27
10	0xb7	-73
11	0xe2	-30
12	0x81	-127
13	0x7f	127
14	0xfe	-2
15	0xdd	-35
16	0x4f	79
17	0xff	-1
18	0xc8	-56
19	0x9b	-101
20	0xe9	-23
21	0xd2	-46
22	0xf6	-10
23	0xdd	-35
24	0x07	7
25	0xf2	-14
26	0x02	2
27	0x04	4
28	0x0e	14
29	0x28	40
30	0xd6	-42
31	0xa6	-90
32	0x5f	95
33	0x14	20
34	0x2c	44
35	0x14	20
36	0x3a	58
37	0x24	36
38	0xf7	-9
39	0x46	70
40	0x1e	30
41	0xe2	-30
42	0xc7	-57
43	0x10	16
44	0xab	-85
45	0x39	57
46	0xc9	-55
47	0xd8	-40
48	0x27	39
49	0x23	35
50	0xcc	-52
51	0xed	-19
52	0xd6	-42
53	0xea	-22
54	0xd1	-47
55	0xfe	-2
56	0x0f	15
57	0x07	7
58	0x04	4
59	0xf1	-15
60	0x04	4
61	0x53	83
62	0x1c	28
63	0x81	-127
64	0x76	118
65	0x7f	127
66	0x1a	26
67	0x0b	11
68	0x36	54
69	0x4d	77
70	0x2a	42
71	0x6b	107
72	0x0a	10
73	0x02	2
74	0xe0	-32
75	0xb3	-77
76	0x9f	-97
77	0x45	69
78	0xd3	-45
79	0x9c	-100
80	0x75	117
81	0x29	41
82	0xff	-1
83	0xcd	-51
84	0x81	-127
85	0x2e	46
86	0xdd	-35
87	0xf2	-14
88	0xec	-20
89	0x19	25
90	0x0b	11
91	0xf8	-8
92	0x12	18
93	0x57	87
94	0xbc	-68
95	0xb2	-78
96	0x7f	127
97	0x4b	75
98	0xf1	-15
99	0x5a	90
100	0x0d	13
101	0xec	-20
102	0x44	68
103	0x10	16
104	0xb7	-73
105	0xb6	-74
106	0xc9	-55
107	0xf2	-14
108	0xb0	-80
109	0x4f	79
110	0xfb	-5
111	0x81	-127
112	0xf6	-10
113	0xec	-20
114	0x59	89
115	0xca	-54
116	0x8c	-116
117	0x7f	127
118	0xeb	-21
119	0xe8	-24
120	0x2c	44
121	0x7f	127
122	0xdc	-36
123	0xf7	-9
124	0xf4	-12
125	0x7f	127
126	0xda	-38
127	0x8a	-118
128	0x6f	111
129	0x45	69
130	0xf8	-8
131	0x14	20
132	0x5a	90
133	0xeb	-21
134	0x3c	60
135	0x26	38
136	0x81	-127
137	0x81	-127
138	0xd3	-45
139	0x25	37
140	0xac	-84
141	0x55	85
142	0x15	21
143	0xc1	-63
144	0x4b	75
145	0xfa	-6
146	0x7f	127
147	0xdf	-33
148	0xe8	-24
149	0x2d	45
150	0xd4	-44
151	0x23	35
152	0x42	66
153	0x4c	76
154	0xd2	-46
155	0xe0	-32
156	0xee	-18
157	0x52	82
158	0xef	-17
159	0x89	-119
160	0x19	25
161	0xc2	-62
162	0xd2	-46
163	0x7f	127
164	0x3f	63
165	0xf6	-10
166	0x35	53
167	0xd3	-45
168	0x93	-109
169	0xaa	-86
170	0x98	-104
171	0x0d	13
172	0xc1	-63
173	0x46	70
174	0xf7	-9
175	0xab	-85
176	0x13	19
177	0x0d	13
178	0x76	118
179	0x91	-111
180	0xb4	-76
181	0x58	88
182	0xca	-54
183	0x7f	127
184	0x2b	43
185	0x39	57
186	0xfc	-4
187	0xce	-50
188	0x07	7
189	0x33	51
190	0x25	37
191	0xdc	-36
192	0x43	67
193	0x54	84
194	0x01	1
195	0x4a	74
196	0x7f	127
197	0xc4	-60
198	0x58	88
199	0x81	-127
200	0xd9	-39
201	0xc7	-57
202	0xa0	-96
203	0xfa	-6
204	0xd1	-47
205	0x45	69
206	0x04	4
207	0xaa	-86
208	0x32	50
209	0x3b	59
210	0x1f	31
211	0xd7	-41
212	0xff	-1
213	0x59	89
214	0xdb	-37
215	0x38	56
216	0x23	35
217	0x5e	94
218	0xf3	-13
219	0xea	-22
220	0xef	-17
221	0x1d	29
222	0xd9	-39
223	0xbf	-65
224	0x1b	27
225	0x2d	45
226	0x9d	-99
227	0x4c	76
228	0x38	56
229	0xb2	-78
230	0x7f	127
231	0x9c	-100
232	0xd3	-45
233	0x2c	44
234	0xa9	-87
235	0x36	54
236	0xd2	-46
237	0x22	34
238	0x59	89
239	0xf2	-14
240	0xcb	-53
241	0x5f	95
242	0x3a	58
243	0x81	-127
244	0xc6	-58
245	0x4b	75
246	0x91	-111
247	0x44	68
248	0x48	72
249	0x5f	95
250	0xea	-22
251	0xc2	-62
252	0xf1	-15
253	0x15	21
254	0x02	2
255	0xba	-70

model_1/conv2d_9/Conv2D i1 [64, 1, 1, 64]
0	0xde	-34
1	0xc9	-55
2	0xb8	-72
3	0x51	81
4	0x47	71
5	0xfc	-4
6	0xf3	-13
7	0x0b	11
8	0xf6	-10
9	0x03	3
10	0x1b	27
11	0x88	-120
12	0x26	38
13	0x0a	10
14	0xf4	-12
15	0x96	-106
16	0x79	121
17	0xad	-83
18	0xc2	-62
19	0x20	32
20	0xfc	-4
21	0xdd	-35
22	0x4e	78
23	0xd6	-42
24	0xfe	-2
25	0xc1	-63
26	0xc7	-57
27	0xcc	-52
28	0xf8	-8
29	0x33	51
30	0x2b	43
31	0x3c	60
32	0xeb	-21
33	0x47	71
34	0x38	56
35	0x36	54
36	0x1c	28
37	0xec	-20
38	0x81	-127
39	0xbd	-67
40	0x33	51
41	0x35	53
42	0xe6	-26
43	0x10	16
44	0xe3	-29
45	0xf7	-9
46	0x10	16
47	0x43	67
48	0xb5	-75
49	0x21	33
50	0x10	16
51	0xda	-38
52	0x1b	27
53	0x47	71
54	0x5a	90
55	0x33	51
56	0x0b	11
57	0x22	34
58	0xe2	-30
59	0x37	55
60	0x4a	74
61	0x32	50
62	0x18	24
63	0x16	22
64	0x15	21
65	0xb0	-80
66	0xa3	-93
67	0x9d	-99
68	0x3e	62
69	0x76	118
70	0x2d	45
71	0x2c	44
72	0x3e	62
73	0x30	48
74	0xd6	-42
75	0xcd	-51
76	0xdf	-33
77	0x19	25
78	0xc3	-61
79	0x57	87
80	0x1e	30
81	0x96	-106
82	0xd2	-46
83	0x14	20
84	0xde	-34
85	0x84	-124
86	0xfc	-4
87	0x0b	11
88	0x49	73
89	0xd4	-44
90	0xe3	-29
91	0xc2	-62
92	0x48	72
93	0x25	37
94	0x14	20
95	0xd4	-44
96	0xc9	-55
97	0xf6	-10
98	0xd8	-40
99	0xed	-19
100	0x26	38
101	0x13	19
102	0x3c	60
103	0x0a	10
104	0xb8	-72
105	0xe8	-24
106	0xd8	-40
107	0xee	-18
108	0x7f	127
109	0x0e	14
110	0x0e	14
111	0xe1	-31
112	0x0e	14
113	0xea	-22
114	0xdf	-33
115	0xe2	-30
116	0x0a	10
117	0x15	21
118	0x55	85
119	0xda	-38
120	0xdd	-35
121	0x70	112
122	0xf1	-15
123	0xf8	-8
124	0xb3	-77
125	0xb3	-77
126	0x39	57
127	0x24	36
128	0xee	-18
129	0xbd	-67
130	0xe2	-30
131	0x7f	127
132	0xc2	-62
133	0x27	39
134	0xed	-19
135	0xe6	-26
136	0xf6	-10
137	0x75	117
138	0x3a	58
139	0xb8	-72
140	0xd0	-48
141	0x35	53
142	0x2b	43
143	0x25	37
144	0xe4	-28
145	0xec	-20
146	0xbe	-66
147	0xe1	-31
148	0xcc	-52
149	0xf2	-14
150	0x45	69
151	0xac	-84
152	0xcb	-53
153	0x1c	28
154	0xfd	-3
155	0xf7	-9
156	0xf3	-13
157	0xd9	-39
158	0x07	7
159	0xec	-20
160	0xd3	-45
161	0xdf	-33
162	0xed	-19
163	0xf6	-10
164	0x23	35
165	0x51	81
166	0xc4	-60
167	0x39	57
168	0x51	81
169	0x15	21
170	0x2f	47
171	0xe9	-23
172	0x29	41
173	0xff	-1
174	0x25	37
175	0x2b	43
176	0x11	17
177	0x1c	28
178	0xee	-18
179	0xf7	-9
180	0xfc	-4
181	0x1c	28
182	0x28	40
183	0x0b	11
184	0x1c	28
185	0xe8	-24
186	0xec	-20
187	0xd1	-47
188	0xdd	-35
189	0xe5	-27
190	0xf7	-9
191	0xf9	-7
192	0xc6	-58
193	0x04	4
194	0xb8	-72
195	0xe3	-29
196	0x12	18
197	0xdd	-35
198	0x13	19
199	0x20	32
200	0x99	-103
201	0x45	69
202	0x9d	-99
203	0xfd	-3
204	0xf9	-7
205	0x0e	14
206	0xe5	-27
207	0xa8	-88
208	0x7f	127
209	0xc7	-57
210	0xcb	-53
211	0xfa	-6
212	0xdf	-33
213	0x10	16
214	0xf2	-14
215	0xd0	-48
216	0x10	16
217	0xcf	-49
218	0x15	21
219	0x21	33
220	0xeb	-21
221	0x2e	46
222	0x21	33
223	0x15	21
224	0x37	55
225	0xf3	-13
226	0x1a	26
227	0x39	57
228	0xd2	-46
229	0x37	55
230	0xc6	-58
231	0x06	6
232	0xd9	-39
233	0x31	49
234	0x45	69
235	0xe8	-24
236	0xd3	-45
237	0x36	54
238	0x26	38
239	0xf4	-12
240	0x14	20
241	0x14	20
242	0xe5	-27
243	0x28	40
244	0x5a	90
245	0x5a	90
246	0x24	36
247	0x33	51
248	0xfc	-4
249	0xc0	-64
250	0x27	39
251	0x38	56
252	0x1d	29
253	0x07	7
254	0xb9	-71
255	0xfa	-6

model_1/depthwise_conv2d_12/depthwise i1 [1, 13, 1, 32]
0	0x68	104
1	0x7f	127
2	0x70	112
3	0xa3	-93
4	0x3b	59
5	0x00	0
6	0x14	20
7	0x7f	127
8	0x4f	79
9	0x76	118
10	0x47	71
11	0x81	-127
12	0x81	-127
13	0x7f	127
14	0x81	-127
15	0x81	-127
16	0xaf	-81
17	0x0c	12
18	0x54	84
19	0x1b	27
20	0x3c	60
21	0x7f	127
22	0xd7	-41
23	0x81	-127
24	0x25	37
25	0x26	38
26	0x0a	10
27	0x30	48
28	0xa8	-88
29	0xca	-54
30	0x0f	15
31	0x81	-127
32	0x11	17
33	0x3f	63
34	0x76	118
35	0xc1	-63
36	0x09	9
37	0x02	2
38	0xc8	-56
39	0x60	96
40	0x62	98
41	0x7f	127
42	0x04	4
43	0xbe	-66
44	0xc6	-58
45	0x4b	75
46	0xa8	-88
47	0xa4	-92
48	0x99	-103
49	0x51	81
50	0x63	99
51	0xfd	-3
52	0x00	0
53	0x31	49
54	0xd9	-39
55	0x88	-120
56	0x05	5
57	0xf5	-11
58	0x7f	127
59	0x24	36
60	0xcb	-53
61	0xff	-1
62	0xec	-20
63	0xc5	-59
64	0x7f	127
65	0x2c	44
66	0x7f	127
67	0xe5	-27
68	0xe5	-27
69	0xdd	-35
70	0xba	-70
71	0x14	20
72	0x7f	127
73	0x69	105
74	0x06	6
75	0xbc	-68
76	0xf0	-16
77	0x31	49
78	0x12	18
79	0xf7	-9
80	0x81	-127
81	0x7f	127
82	0x7f	127
83	0x2a	42
84	0x3f	63
85	0x1b	27
86	0x2f	47
87	0xcf	-49
88	0xef	-17
89	0x2d	45
90	0x6e	110
91	0xf0	-16
92	0xf8	-8
93	0x45	69
94	0xf2	-14
95	0xb3	-77
96	0x58	88
97	0xcf	-49
98	0x4e	78
99	0x1f	31
100	0xc0	-64
101	0xef	-17
102	0xb0	-80
103	0x0c	12
104	0x61	97
105	0x1e	30
106	0xe6	-26
107	0xd6	-42
108	0xcd	-51
109	0x3c	60
110	0x29	41
111	0xfa	-6
112	0x85	-123
113	0x5b	91
114	0x3d	61
115	0x2e	46
116	0xef	-17
117	0x02	2
118	0x4b	75
119	0xc1	-63
120	0xe6	-26
121	0x1c	28
122	0x01	1
123	0xaa	-86
124	0xca	-54
125	0x73	115
126	0xf5	-11
127	0xd8	-40
128	0x1f	31
129	0xa7	-89
130	0x23	35
131	0xac	-84
132	0xe3	-29
133	0xef	-17
134	0x81	-127
135	0xf9	-7
136	0x2d	45
137	0x18	24
138	0xa6	-90
139	0xef	-17
140	0xc2	-62
141	0x25	37
142	0x0a	10
143	0xea	-22
144	0xca	-54
145	0x34	52
146	0x67	103
147	0xfc	-4
148	0xf2	-14
149	0x01	1
150	0x7f	127
151	0xb2	-78
152	0xe3	-29
153	0x1a	26
154	0xa4	-92
155	0x81	-127
156	0xf0	-16
157	0x93	-109
158	0x0e	14
159	0xd6	-42
160	0xbe	-66
161	0xe3	-29
162	0x18	24
163	0x81	-127
164	0xb1	-79
165	0xd5	-43
166	0xc0	-64
167	0xe5	-27
168	0x35	53
169	0xed	-19
170	0x8a	-118
171	0xef	-17
172	0x16	22
173	0xd6	-42
174	0xfc	-4
175	0xd8	-40
176	0xe3	-29
177	0x20	32
178	0x49	73
179	0xcf	-49
180	0xf6	-10
181	0x0f	15
182	0x6f	111
183	0xd1	-47
184	0xfb	-5
185	0xce	-50
186	0xb3	-77
187	0xa3	-93
188	0x23	35
189	0xbc	-68
190	0x35	53
191	0xe4	-28
192	0xa7	-89
193	0xe3	-29
194	0xff	-1
195	0xf9	-7
196	0xa9	-87
197	0xf5	-11
198	0xa0	-96
199	0x00	0
200	0xfe	-2
201	0xd8	-40
202	0xcf	-49
203	0x01	1
204	0x25	37
205	0xc6	-58
206	0x39	57
207	0x06	6
208	0x1d	29
209	0xf7	-9
210	0x1f	31
211	0x99	-103
212	0xde	-34
213	0x08	8
214	0x76	118
215	0xdc	-36
216	0xed	-19
217	0xcb	-53
218	0xc4	-60
219	0x41	65
220	0xec	-20
221	0x86	-122
222	0x14	20
223	0xed	-19
224	0xd5	-43
225	0x04	4
226	0xba	-70
227	0x06	6
228	0x81	-127
229	0x0a	10
230	0xf0	-16
231	0xf2	-14
232	0xdf	-33
233	0xca	-54
234	0xbf	-65
235	0xf6	-10
236	0xdf	-33
237	0xd3	-45
238	0x43	67
239	0xfc	-4
240	0xf8	-8
241	0xd1	-47
242	0xee	-18
243	0xbe	-66
244	0xd4	-44
245	0x02	2
246	0x09	9
247	0xfd	-3
248	0xf0	-16
249	0xb1	-79
250	0x3b	59
251	0x6f	111
252	0xbe	-66
253	0x91	-111
254	0xe5	-27
255	0x08	8

model_1/depthwise_conv2d_11/depthwise i1 [1, 7, 1, 32]
0	0x14	20
1	0x56	86
2	0x3f	63
3	0x53	83
4	0xb5	-75
5	0x51	81
6	0xe8	-24
7	0x3e	62
8	0x19	25
9	0xfc	-4
10	0xda	-38
11	0x48	72
12	0xec	-20
13	0xe5	-27
14	0xfd	-3
15	0x25	37
16	0xdf	-33
17	0xde	-34
18	0x34	52
19	0x7f	127
20	0x24	36
21	0x7f	127
22	0xf9	-7
23	0x61	97
24	0x02	2
25	0x0a	10
26	0xfd	-3
27	0x71	113
28	0xb0	-80
29	0xa6	-90
30	0x6e	110
31	0x6c	108
32	0x7f	127
33	0x38	56
34	0xd1	-47
35	0x7e	126
36	0xa1	-95
37	0x2a	42
38	0x04	4
39	0x3b	59
40	0x33	51
41	0x11	17
42	0x0b	11
43	0x7f	127
44	0xf8	-8
45	0x38	56
46	0x08	8
47	0x42	66
48	0xef	-17
49	0x3e	62
50	0xfa	-6
51	0x73	115
52	0x56	86
53	0x4f	79
54	0xe9	-23
55	0x42	66
56	0x21	33
57	0x36	54
58	0x7f	127
59	0x7f	127
60	0x81	-127
61	0xa5	-91
62	0x14	20
63	0x73	115
64	0x3d	61
65	0x20	32
66	0x02	2
67	0x00	0
68	0x81	-127
69	0xe3	-29
70	0x0b	11
71	0x21	33
72	0x3d	61
73	0x60	96
74	0x38	56
75	0x47	71
76	0xe9	-23
77	0xd8	-40
78	0xf1	-15
79	0x3c	60
80	0x16	22
81	0xc6	-58
82	0xda	-38
83	0xe8	-24
84	0x1f	31
85	0x6a	106
86	0xb2	-78
87	0x49	73
88	0x20	32
89	0x5a	90
90	0x60	96
91	0x60	96
92	0xbe	-66
93	0x95	-107
94	0x86	-122
95	0x1c	28
96	0xed	-19
97	0x23	35
98	0x4c	76
99	0xe3	-29
100	0xa6	-90
101	0xa1	-95
102	0x44	68
103	0x97	-105
104	0xe1	-31
105	0x16	22
106	0xfb	-5
107	0x70	112
108	0x24	36
109	0xcf	-49
110	0x00	0
111	0x0a	10
112	0xfe	-2
113	0x81	-127
114	0x05	5
115	0xaf	-81
116	0x8e	-114
117	0x5c	92
118	0xda	-38
119	0x25	37
120	0x28	40
121	0x51	81
122	0x8a	-118
123	0x7d	125
124	0xb8	-72
125	0x81	-127
126	0x03	3
127	0x47	71
128	0x4e	78
129	0x7f	127
130	0x36	54
131	0xa4	-92
132	0xee	-18
133	0x8b	-117
134	0x33	51
135	0x81	-127
136	0xf3	-13
137	0x7f	127
138	0xf2	-14
139	0x39	57
140	0x50	80
141	0x81	-127
142	0xef	-17
143	0x40	64
144	0x57	87
145	0xcc	-52
146	0x53	83
147	0x95	-107
148	0x81	-127
149	0x56	86
150	0xb7	-73
151	0x57	87
152	0x47	71
153	0x3b	59
154	0xfb	-5
155	0xda	-38
156	0x17	23
157	0xea	-22
158	0x7f	127
159	0x24	36
160	0x51	81
161	0x20	32
162	0x45	69
163	0x81	-127
164	0x00	0
165	0x43	67
166	0x1c	28
167	0xd5	-43
168	0xcb	-53
169	0x45	69
170	0xc9	-55
171	0x4e	78
172	0x4f	79
173	0x85	-123
174	0x1d	29
175	0x67	103
176	0x77	119
177	0xf6	-10
178	0x23	35
179	0xa4	-92
180	0x89	-119
181	0x51	81
182	0xd3	-45
183	0x3e	62
184	0x41	65
185	0xb8	-72
186	0x7d	125
187	0xc0	-64
188	0xc1	-63
189	0x26	38
190	0x4f	79
191	0x51	81
192	0x56	86
193	0xcf	-49
194	0x7f	127
195	0xc7	-57
196	0x6c	108
197	0x7f	127
198	0x7f	127
199	0x32	50
200	0x81	-127
201	0x25	37
202	0x81	-127
203	0x10	16
204	0x7f	127
205	0x87	-121
206	0x7f	127
207	0x7f	127
208	0x7f	127
209	0x6f	111
210	0x7f	127
211	0xe8	-24
212	0x03	3
213	0x2e	46
214	0x81	-127
215	0x7f	127
216	0x7f	127
217	0x81	-127
218	0x3c	60
219	0xcf	-49
220	0xb6	-74
221	0x5e	94
222	0xa3	-93
223	0x7f	127

model_1/conv2d_8/Conv2D i1 [64, 1, 1, 64]
0	0xbd	-67
1	0x46	70
2	0xd3	-45
3	0x53	83
4	0xa7	-89
5	0x44	68
6	0x5c	92
7	0xf8	-8
8	0xc1	-63
9	0x3d	61
10	0x15	21
11	0xfa	-6
12	0xe2	-30
13	0x81	-127
14	0x03	3
15	0xde	-34
16	0xcb	-53
17	0xfe	-2
18	0xe1	-31
19	0xa4	-92
20	0xf5	-11
21	0xd3	-45
22	0xdf	-33
23	0x0b	11
24	0xd6	-42
25	0x05	5
26	0xca	-54
27	0x25	37
28	0xaa	-86
29	0x26	38
30	0x1b	27
31	0xf0	-16
32	0x18	24
33	0x3d	61
34	0x2d	45
35	0xfb	-5
36	0x2d	45
37	0xea	-22
38	0x6d	109
39	0xd4	-44
40	0x1c	28
41	0xe7	-25
42	0x36	54
43	0x0a	10
44	0xdf	-33
45	0x14	20
46	0x19	25
47	0xe8	-24
48	0xf2	-14
49	0xf5	-11
50	0x3d	61
51	0xcf	-49
52	0x18	24
53	0xfa	-6
54	0x10	16
55	0x57	87
56	0x12	18
57	0xd9	-39
58	0xf4	-12
59	0xc0	-64
60	0x00	0
61	0xe3	-29
62	0x2f	47
63	0x3d	61
64	0x07	7
65	0xf5	-11
66	0x16	22
67	0x0d	13
68	0x7f	127
69	0x18	24
70	0x04	4
71	0x96	-106
72	0x3d	61
73	0xcf	-49
74	0xf7	-9
75	0xed	-19
76	0xe0	-32
77	0x1c	28
78	0xfa	-6
79	0x40	64
80	0x32	50
81	0x08	8
82	0x72	114
83	0x23	35
84	0x04	4
85	0x9a	-102
86	0xe2	-30
87	0x92	-110
88	0x30	48
89	0x17	23
90	0xd0	-48
91	0xe5	-27
92	0xed	-19
93	0xe8	-24
94	0x22	34
95	0xfe	-2
96	0x15	21
97	0x2e	46
98	0x14	20
99	0x34	52
100	0xfc	-4
101	0x40	64
102	0x00	0
103	0xf9	-7
104	0xfd	-3
105	0x2d	45
106	0x04	4
107	0xc7	-57
108	0xe8	-24
109	0xaa	-86
110	0xf4	-12
111	0x2e	46
112	0xe6	-26
113	0x58	88
114	0x03	3
115	0xd6	-42
116	0xb0	-80
117	0x6e	110
118	0x44	68
119	0xd8	-40
120	0xdd	-35
121	0x0e	14
122	0x9a	-102
123	0x98	-104
124	0xf6	-10
125	0xae	-82
126	0x06	6
127	0x43	67
128	0xeb	-21
129	0xd3	-45
130	0x12	18
131	0x7f	127
132	0xf2	-14
133	0x25	37
134	0x45	69
135	0xb9	-71
136	0xf1	-15
137	0x05	5
138	0x13	19
139	0x3b	59
140	0x7e	126
141	0xb7	-73
142	0x31	49
143	0xd6	-42
144	0xf2	-14
145	0xf9	-7
146	0x3d	61
147	0xd8	-40
148	0x2d	45
149	0x2d	45
150	0xe3	-29
151	0x25	37
152	0xef	-17
153	0xbe	-66
154	0x9b	-101
155	0x1f	31
156	0xee	-18
157	0x38	56
158	0xe7	-25
159	0x96	-106
160	0xa8	-88
161	0xf0	-16
162	0x3d	61
163	0xff	-1
164	0xf7	-9
165	0xd2	-46
166	0xd8	-40
167	0x0b	11
168	0xf7	-9
169	0xf9	-7
170	0xfe	-2
171	0xdd	-35
172	0xe3	-29
173	0x15	21
174	0x2e	46
175	0x41	65
176	0xa3	-93
177	0xe6	-26
178	0x00	0
179	0x44	68
180	0xda	-38
181	0x30	48
182	0x4e	78
183	0xa3	-93
184	0x8f	-113
185	0x20	32
186	0x3b	59
187	0xd9	-39
188	0x30	48
189	0x3c	60
190	0x37	55
191	0xb5	-75
192	0x44	68
193	0xa8	-88
194	0xec	-20
195	0x5e	94
196	0x19	25
197	0xfb	-5
198	0x17	23
199	0x2e	46
200	0xe1	-31
201	0xeb	-21
202	0xd8	-40
203	0x9c	-100
204	0x1b	27
205	0xb7	-73
206	0x5b	91
207	0x2a	42
208	0x43	67
209	0xf4	-12
210	0x25	37
211	0x3f	63
212	0xcf	-49
213	0xd7	-41
214	0xbe	-66
215	0x74	116
216	0xf6	-10
217	0x7f	127
218	0xfb	-5
219	0x5f	95
220	0x0d	13
221	0x18	24
222	0xfe	-2
223	0x2f	47
224	0xdb	-37
225	0x17	23
226	0x25	37
227	0xee	-18
228	0xd6	-42
229	0x24	36
230	0xbb	-69
231	0x1b	27
232	0xc2	-62
233	0xc7	-57
234	0xbf	-65
235	0x12	18
236	0x06	6
237	0xf1	-15
238	0x11	17
239	0xa6	-90
240	0xd6	-42
241	0x04	4
242	0xd7	-41
243	0x8f	-113
244	0xb8	-72
245	0x0f	15
246	0xf4	-12
247	0xe0	-32
248	0xd8	-40
249	0xa0	-96
250	0x05	5
251	0x13	19
252	0x56	86
253	0x04	4
254	0x2a	42
255	0xa6	-90

model_1/depthwise_conv2d_10/depthwise i1 [1, 9, 1, 32]
0	0x7f	127
1	0x2c	44
2	0xd3	-45
3	0x8d	-115
4	0x02	2
5	0x29	41
6	0x81	-127
7	0x52	82
8	0x37	55
9	0x48	72
10	0x7a	122
11	0x81	-127
12	0x7f	127
13	0x81	-127
14	0x81	-127
15	0x81	-127
16	0xca	-54
17	0x1c	28
18	0x81	-127
19	0x92	-110
20	0x7b	123
21	0xce	-50
22	0x7f	127
23	0xe8	-24
24	0x7f	127
25	0x81	-127
26	0xf6	-10
27	0x2e	46
28	0x8f	-113
29	0xdd	-35
30	0x01	1
31	0x13	19
32	0x55	85
33	0x4b	75
34	0xb9	-71
35	0x81	-127
36	0x30	48
37	0x1f	31
38	0xda	-38
39	0x22	34
40	0xfd	-3
41	0x41	65
42	0x3c	60
43	0xc6	-58
44	0x25	37
45	0x9b	-101
46	0xa9	-87
47	0xc6	-58
48	0xd8	-40
49	0x6a	106
50	0xc3	-61
51	0x9a	-102
52	0x62	98
53	0xb3	-77
54	0x20	32
55	0x8d	-115
56	0x41	65
57	0xa2	-94
58	0x51	81
59	0x56	86
60	0xcb	-53
61	0xe0	-32
62	0xdb	-37
63	0xcb	-53
64	0xfd	-3
65	0xcf	-49
66	0x81	-127
67	0xeb	-21
68	0xe4	-28
69	0x61	97
70	0x0e	14
71	0x4b	75
72	0x59	89
73	0x10	16
74	0x36	54
75	0xd0	-48
76	0x0c	12
77	0x21	33
78	0x8f	-113
79	0xd5	-43
80	0x0e	14
81	0x5d	93
82	0x00	0
83	0x90	-112
84	0x2b	43
85	0xa1	-95
86	0xfd	-3
87	0x14	20
88	0x75	117
89	0xdb	-37
90	0x5d	93
91	0x7f	127
92	0xdc	-36
93	0xdc	-36
94	0xf5	-11
95	0xd8	-40
96	0xf2	-14
97	0x81	-127
98	0xa6	-90
99	0xf8	-8
100	0xca	-54
101	0x02	2
102	0xf0	-16
103	0xd2	-46
104	0x4f	79
105	0xf9	-7
106	0xea	-22
107	0xac	-84
108	0xe2	-30
109	0x36	54
110	0xe4	-28
111	0xcf	-49
112	0x64	100
113	0x7f	127
114	0x46	70
115	0x81	-127
116	0x21	33
117	0xde	-34
118	0x23	35
119	0x48	72
120	0xfa	-6
121	0x9c	-100
122	0xf5	-11
123	0x42	66
124	0x0e	14
125	0x33	51
126	0xc3	-61
127	0x03	3
128	0xce	-50
129	0xf2	-14
130	0xfb	-5
131	0x2e	46
132	0x75	117
133	0x81	-127
134	0xf3	-13
135	0xf6	-10
136	0x47	71
137	0x12	18
138	0x7f	127
139	0xb0	-80
140	0xf9	-7
141	0x4f	79
142	0x4a	74
143	0xae	-82
144	0xfa	-6
145	0x1c	28
146	0x62	98
147	0xf8	-8
148	0xb1	-79
149	0xe0	-32
150	0x27	39
151	0x67	103
152	0xee	-18
153	0xef	-17
154	0x01	1
155	0xed	-19
156	0x0e	14
157	0x7f	127
158	0xa8	-88
159	0x00	0
160	0xe1	-31
161	0xcd	-51
162	0x17	23
163	0x55	85
164	0x7f	127
165	0x85	-123
166	0xb8	-72
167	0xfc	-4
168	0x07	7
169	0x37	55
170	0x6d	109
171	0xef	-17
172	0x46	70
173	0x39	57
174	0x1e	30
175	0xc4	-60
176	0xf7	-9
177	0xdd	-35
178	0xfd	-3
179	0x32	50
180	0xd1	-47
181	0x6e	110
182	0x3c	60
183	0x71	113
184	0xa2	-94
185	0x6e	110
186	0x87	-121
187	0x4c	76
188	0xf0	-16
189	0x59	89
190	0xe9	-23
191	0xb2	-78
192	0x0b	11
193	0x26	38
194	0x20	32
195	0xe4	-28
196	0xf3	-13
197	0xae	-82
198	0x99	-103
199	0x7f	127
200	0xe3	-29
201	0x31	49
202	0xe2	-30
203	0x67	103
204	0x3e	62
205	0x38	56
206	0x5e	94
207	0x53	83
208	0x1e	30
209	0xe9	-23
210	0x42	66
211	0x38	56
212	0xd8	-40
213	0x7f	127
214	0x4c	76
215	0x09	9
216	0xc5	-59
217	0x34	52
218	0x81	-127
219	0x3d	61
220	0x7f	127
221	0x2e	46
222	0xdf	-33
223	0x81	-127
224	0xfb	-5
225	0x28	40
226	0x01	1
227	0xfd	-3
228	0xa6	-90
229	0xd4	-44
230	0xd7	-41
231	0x3f	63
232	0x81	-127
233	0xa3	-93
234	0xee	-18
235	0x7f	127
236	0x29	41
237	0x2b	43
238	0x39	57
239	0x63	99
240	0xbd	-67
241	0xca	-54
242	0x15	21
243	0x46	70
244	0x68	104
245	0x6d	109
246	0x24	36
247	0x81	-127
248	0xb8	-72
249	0x4f	79
250	0xc0	-64
251	0xa7	-89
252	0x55	85
253	0x0f	15
254	0x42	66
255	0xb4	-76

model_1/depthwise_conv2d_9/depthwise i1 [1, 5, 1, 32]
0	0x7f	127
1	0x32	50
2	0x12	18
3	0x13	19
4	0x08	8
5	0x89	-119
6	0xef	-17
7	0x7f	127
8	0x2d	45
9	0xe9	-23
10	0x7f	127
11	0xe3	-29
12	0x50	80
13	0xd3	-45
14	0xb5	-75
15	0x81	-127
16	0x0a	10
17	0x81	-127
18	0x86	-122
19	0x51	81
20	0x00	0
21	0x41	65
22	0x23	35
23	0x5f	95
24	0x33	51
25	0x92	-110
26	0xc2	-62
27	0x2f	47
28	0xba	-70
29	0xef	-17
30	0xc1	-63
31	0x60	96
32	0x09	9
33	0x15	21
34	0xf9	-7
35	0xbd	-67
36	0xfd	-3
37	0x81	-127
38	0xba	-70
39	0x58	88
40	0x7f	127
41	0x81	-127
42	0x73	115
43	0xa7	-89
44	0xa8	-88
45	0x7d	125
46	0x81	-127
47	0xbd	-67
48	0x2d	45
49	0xf2	-14
50	0xc9	-55
51	0x04	4
52	0x7f	127
53	0x7f	127
54	0x09	9
55	0xa1	-95
56	0x13	19
57	0x4a	74
58	0xc7	-57
59	0x7f	127
60	0x81	-127
61	0x84	-124
62	0x28	40
63	0x7f	127
64	0x8f	-113
65	0xb1	-79
66	0xf2	-14
67	0xbd	-67
68	0x81	-127
69	0xe1	-31
70	0xbb	-69
71	0x21	33
72	0x3d	61
73	0x09	9
74	0xd7	-41
75	0x81	-127
76	0x59	89
77	0x59	89
78	0xb9	-71
79	0xd4	-44
80	0x0f	15
81	0x36	54
82	0x1c	28
83	0x12	18
84	0xdd	-35
85	0xe6	-26
86	0x11	17
87	0xb7	-73
88	0xc0	-64
89	0x7f	127
90	0x21	33
91	0x6b	107
92	0xb0	-80
93	0x81	-127
94	0x7f	127
95	0x19	25
96	0xf7	-9
97	0x94	-108
98	0xd7	-41
99	0x20	32
100	0x9c	-100
101	0xf8	-8
102	0xb2	-78
103	0xd5	-43
104	0x06	6
105	0x45	69
106	0x06	6
107	0xd2	-46
108	0x6e	110
109	0xda	-38
110	0x5d	93
111	0x2d	45
112	0x0b	11
113	0x00	0
114	0x7f	127
115	0xee	-18
116	0xa6	-90
117	0xbb	-69
118	0x3a	58
119	0x81	-127
120	0x81	-127
121	0xd4	-44
122	0xb7	-73
123	0x4f	79
124	0x34	52
125	0xea	-22
126	0x06	6
127	0xc9	-55
128	0x14	20
129	0x81	-127
130	0x81	-127
131	0x7f	127
132	0x66	102
133	0xce	-50
134	0x81	-127
135	0xe0	-32
136	0xe6	-26
137	0x13	19
138	0xd8	-40
139	0xbb	-69
140	0x81	-127
141	0x81	-127
142	0x06	6
143	0x6e	110
144	0x7f	127
145	0xf4	-12
146	0x27	39
147	0x81	-127
148	0xe4	-28
149	0xdf	-33
150	0x7f	127
151	0x24	36
152	0xb0	-80
153	0xc0	-64
154	0x81	-127
155	0xf1	-15
156	0xee	-18
157	0x54	84
158	0x8d	-115
159	0x04	4

model_1/conv2d_7/Conv2D i1 [64, 1, 1, 64]
0	0xc6	-58
1	0xbb	-69
2	0x23	35
3	0x02	2
4	0xc9	-55
5	0xd8	-40
6	0xc1	-63
7	0x1c	28
8	0xe8	-24
9	0x10	16
10	0x0d	13
11	0x11	17
12	0x48	72
13	0x1a	26
14	0xd0	-48
15	0xe1	-31
16	0xb3	-77
17	0x1a	26
18	0x35	53
19	0x05	5
20	0xec	-20
21	0xbf	-65
22	0xd4	-44
23	0xf6	-10
24	0x17	23
25	0xe6	-26
26	0xec	-20
27	0x07	7
28	0x23	35
29	0xa8	-88
30	0x18	24
31	0x62	98
32	0x0a	10
33	0xf3	-13
34	0xf4	-12
35	0xde	-34
36	0xe7	-25
37	0x12	18
38	0x11	17
39	0xe3	-29
40	0xe2	-30
41	0xde	-34
42	0xe8	-24
43	0x08	8
44	0x1e	30
45	0xfd	-3
46	0x2f	47
47	0xe4	-28
48	0x0d	13
49	0x81	-127
50	0xbb	-69
51	0xfc	-4
52	0x1c	28
53	0xfd	-3
54	0xd6	-42
55	0x12	18
56	0x1c	28
57	0xae	-82
58	0xe8	-24
59	0x2e	46
60	0xda	-38
61	0x26	38
62	0x27	39
63	0x2f	47
64	0xaf	-81
65	0x05	5
66	0xbf	-65
67	0x92	-110
68	0xd6	-42
69	0x3e	62
70	0xf7	-9
71	0xa7	-89
72	0xc1	-63
73	0xd4	-44
74	0xfc	-4
75	0xf6	-10
76	0x95	-107
77	0xd4	-44
78	0x36	54
79	0xd3	-45
80	0xea	-22
81	0x3a	58
82	0xae	-82
83	0x47	71
84	0xe0	-32
85	0x66	102
86	0x14	20
87	0xdc	-36
88	0x3f	63
89	0x15	21
90	0x27	39
91	0x10	16
92	0xf8	-8
93	0x12	18
94	0x5f	95
95	0x7f	127
96	0x66	102
97	0xf3	-13
98	0x09	9
99	0x49	73
100	0xf7	-9
101	0x83	-125
102	0x4e	78
103	0xf5	-11
104	0xf8	-8
105	0x48	72
106	0xdf	-33
107	0x33	51
108	0x2f	47
109	0xea	-22
110	0x10	16
111	0x47	71
112	0xf4	-12
113	0x48	72
114	0xf2	-14
115	0x03	3
116	0x49	73
117	0x42	66
118	0x6e	110
119	0xd6	-42
120	0x1f	31
121	0x44	68
122	0x3f	63
123	0xfd	-3
124	0x28	40
125	0xbb	-69
126	0x27	39
127	0xdf	-33
128	0xbb	-69
129	0xe7	-25
130	0xb2	-78
131	0x01	1
132	0xc6	-58
133	0xf8	-8
134	0xbc	-68
135	0xa5	-91
136	0x22	34
137	0xed	-19
138	0x81	-127
139	0xe1	-31
140	0x05	5
141	0x3d	61
142	0x0a	10
143	0x67	103
144	0x34	52
145	0x0f	15
146	0xcd	-51
147	0xc8	-56
148	0xe4	-28
149	0x21	33
150	0x1a	26
151	0x49	73
152	0xde	-34
153	0x15	21
154	0xe8	-24
155	0x5d	93
156	0x01	1
157	0xd8	-40
158	0xc6	-58
159	0xfe	-2
160	0x75	117
161	0xfd	-3
162	0xea	-22
163	0xd3	-45
164	0xee	-18
165	0xbb	-69
166	0x1a	26
167	0xe1	-31
168	0xf9	-7
169	0x32	50
170	0x23	35
171	0x23	35
172	0xfc	-4
173	0xd7	-41
174	0x2f	47
175	0x26	38
176	0x1e	30
177	0xd6	-42
178	0xdf	-33
179	0x70	112
180	0xf4	-12
181	0x2c	44
182	0xf0	-16
183	0xd1	-47
184	0xf3	-13
185	0xf8	-8
186	0xf7	-9
187	0xb3	-77
188	0x30	48
189	0x24	36
190	0xe4	-28
191	0x1f	31
192	0x40	64
193	0x41	65
194	0x18	24
195	0xfe	-2
196	0x27	39
197	0x04	4
198	0xa8	-88
199	0x3b	59
200	0x55	85
201	0xf0	-16
202	0x26	38
203	0x3d	61
204	0x06	6
205	0xf5	-11
206	0x2c	44
207	0x1c	28
208	0xe2	-30
209	0x28	40
210	0x4c	76
211	0x05	5
212	0xbe	-66
213	0xd9	-39
214	0xa6	-90
215	0xd1	-47
216	0x65	101
217	0xe6	-26
218	0x13	19
219	0x16	22
220	0xc9	-55
221	0x44	68
222	0xf7	-9
223	0xb7	-73
224	0x9e	-98
225	0x07	7
226	0x51	81
227	0xb4	-76
228	0xf1	-15
229	0x2e	46
230	0x07	7
231	0xde	-34
232	0x01	1
233	0xf7	-9
234	0x19	25
235	0xdc	-36
236	0xe4	-28
237	0x81	-127
238	0xd7	-41
239	0x1a	26
240	0x26	38
241	0xbd	-67
242	0x0a	10
243	0xe3	-29
244	0x93	-109
245	0x01	1
246	0x1f	31
247	0x05	5
248	0xdb	-37
249	0xb4	-76
250	0x82	-126
251	0xd1	-47
252	0x35	53
253	0x40	64
254	0xcb	-53
255	0x04	4

model_1/depthwise_conv2d_8/depthwise i1 [1, 3, 1, 64]
0	0xa0	-96
1	0x7f	127
2	0x7f	127
3	0x81	-127
4	0x0a	10
5	0x7c	124
6	0xee	-18
7	0x70	112
8	0x71	113
9	0x01	1
10	0x1d	29
11	0x81	-127
12	0x45	69
13	0x81	-127
14	0x7f	127
15	0xf2	-14
16	0x4a	74
17	0x33	51
18	0xd9	-39
19	0xdb	-37
20	0xf6	-10
21	0x1c	28
22	0x7f	127
23	0x81	-127
24	0x81	-127
25	0x0e	14
26	0x7f	127
27	0x19	25
28	0x4f	79
29	0xc0	-64
30	0x91	-111
31	0x4d	77
32	0x81	-127
33	0xe1	-31
34	0x99	-103
35	0x7f	127
36	0x81	-127
37	0xdc	-36
38	0x61	97
39	0x7f	127
40	0xbc	-68
41	0x81	-127
42	0x30	48
43	0x81	-127
44	0x7f	127
45	0x4c	76
46	0x2e	46
47	0xe0	-32
48	0x7f	127
49	0x7f	127
50	0x7f	127
51	0xe0	-32
52	0x70	112
53	0x5b	91
54	0x8b	-117
55	0xbb	-69
56	0xd1	-47
57	0x93	-109
58	0x4d	77
59	0x7f	127
60	0x07	7
61	0x81	-127
62	0xf6	-10
63	0x81	-127
64	0x78	120
65	0x3a	58
66	0xe5	-27
67	0xea	-22
68	0x7f	127
69	0x81	-127
70	0x7f	127
71	0x2a	42
72	0x3f	63
73	0x51	81
74	0x10	16
75	0x60	96
76	0x81	-127
77	0x8a	-118
78	0xcc	-52
79	0x24	36
80	0xf1	-15
81	0x87	-121
82	0xf0	-16
83	0x6e	110
84	0x81	-127
85	0x7f	127
86	0xfc	-4
87	0x77	119
88	0xf9	-7
89	0x78	120
90	0x08	8
91	0x7d	125
92	0xe2	-30
93	0x7f	127
94	0x2c	44
95	0x22	34
96	0x39	57
97	0x06	6
98	0x08	8
99	0x46	70
100	0x61	97
101	0xc9	-55
102	0x81	-127
103	0x32	50
104	0x7f	127
105	0xeb	-21
106	0x7f	127
107	0xb5	-75
108	0x56	86
109	0x94	-108
110	0xc5	-59
111	0x04	4
112	0xd4	-44
113	0x62	98
114	0x32	50
115	0xe9	-23
116	0xe5	-27
117	0x7f	127
118	0x7f	127
119	0x81	-127
120	0x01	1
121	0x81	-127
122	0xe8	-24
123	0xc3	-61
124	0x7f	127
125	0x4f	79
126	0xd8	-40
127	0x65	101
128	0x7f	127
129	0x3e	62
130	0x07	7
131	0x31	49
132	0x93	-109
133	0x95	-107
134	0x0a	10
135	0x81	-127
136	0x81	-127
137	0x81	-127
138	0x81	-127
139	0xc2	-62
140	0xeb	-21
141	0xa9	-87
142	0xdc	-36
143	0x7f	127
144	0x81	-127
145	0x81	-127
146	0x7f	127
147	0x7f	127
148	0xfa	-6
149	0x1d	29
150	0x09	9
151	0xec	-20
152	0xc4	-60
153	0x81	-127
154	0xf2	-14
155	0x7f	127
156	0x81	-127
157	0x2b	43
158	0x7f	127
159	0x81	-127
160	0x2b	43
161	0x81	-127
162	0x7f	127
163	0x9d	-99
164	0x6d	109
165	0x7f	127
166	0x43	67
167	0x0f	15
168	0xf6	-10
169	0x3c	60
170	0x1a	26
171	0x23	35
172	0xda	-38
173	0x81	-127
174	0x81	-127
175	0x7f	127
176	0x81	-127
177	0xeb	-21
178	0x94	-108
179	0x81	-127
180	0x81	-127
181	0x38	56
182	0x13	19
183	0x5e	94
184	0x7f	127
185	0x4a	74
186	0x81	-127
187	0x30	48
188	0x3e	62
189	0x71	113
190	0x81	-127
191	0x99	-103

model_1/stream_6/conv2d_6/Conv2D i1 [64, 5, 1, 40]
0	0x1c	28
1	0x46	70
2	0xe6	-26
3	0x60	96
4	0x15	21
5	0xf5	-11
6	0xb1	-79
7	0xbc	-68
8	0xca	-54
9	0x81	-127
10	0xfb	-5
11	0xa3	-93
12	0xb5	-75
13	0xc5	-59
14	0xd4	-44
15	0x8f	-113
16	0xf2	-14
17	0x13	19
18	0x45	69
19	0x39	57
20	0x10	16
21	0x1e	30
22	0x04	4
23	0xc0	-64
24	0x0b	11
25	0xe7	-25
26	0xfb	-5
27	0x08	8
28	0xe1	-31
29	0x18	24
30	0xe9	-23
31	0x10	16
32	0xf9	-7
33	0xfb	-5
34	0xf4	-12
35	0xf6	-10
36	0xfc	-4
37	0x1f	31
38	0xcb	-53
39	0xce	-50
40	0x3c	60
41	0x2c	44
42	0xdc	-36
43	0x2e	46
44	0x1e	30
45	0xf6	-10
46	0xcd	-51
47	0xb4	-76
48	0xb4	-76
49	0xc2	-62
50	0x09	9
51	0xa4	-92
52	0xb8	-72
53	0xaf	-81
54	0xd6	-42
55	0x98	-104
56	0xbb	-69
57	0xf5	-11
58	0xee	-18
59	0x2b	43
60	0x2e	46
61	0x17	23
62	0x09	9
63	0xce	-50
64	0xdc	-36
65	0xdd	-35
66	0xfc	-4
67	0xfd	-3
68	0xeb	-21
69	0x01	1
70	0xf1	-15
71	0x1a	26
72	0xf5	-11
73	0xcf	-49
74	0xcc	-52
75	0x4e	78
76	0x26	38
77	0x08	8
78	0xe8	-24
79	0xca	-54
80	0x30	48
81	0x29	41
82	0xbc	-68
83	0xfd	-3
84	0xd7	-41
85	0x06	6
86	0xde	-34
87	0x07	7
88	0xb8	-72
89	0xd2	-46
90	0x05	5
91	0xeb	-21
92	0xa8	-88
93	0xb9	-71
94	0xdc	-36
95	0xa4	-92
96	0xaa	-86
97	0xd3	-45
98	0xde	-34
99	0x0c	12
100	0x0a	10
101	0xf5	-11
102	0x0d	13
103	0x01	1
104	0xd7	-41
105	0xcd	-51
106	0x29	41
107	0xeb	-21
108	0x10	16
109	0xe8	-24
110	0xd1	-47
111	0x34	52
112	0x20	32
113	0x11	17
114	0xf1	-15
115	0x61	97
116	0x31	49
117	0x11	17
118	0xda	-38
119	0x18	24
120	0x2a	42
121	0x1e	30
122	0xb6	-74
123	0xfa	-6
124	0xf6	-10
125	0x19	25
126	0x04	4
127	0xfe	-2
128	0xec	-20
129	0xc9	-55
130	0xf0	-16
131	0x0f	15
132	0xdc	-36
133	0xb9	-71
134	0xc4	-60
135	0x84	-124
136	0xb8	-72
137	0xc2	-62
138	0xec	-20
139	0x15	21
140	0x38	56
141	0x31	49
142	0x28	40
143	0x26	38
144	0xfb	-5
145	0x01	1
146	0x13	19
147	0xf1	-15
148	0x06	6
149	0x1d	29
150	0xc9	-55
151	0x18	24
152	0x3f	63
153	0x17	23
154	0xe8	-24
155	0x3f	63
156	0x39	57
157	0x06	6
158	0xed	-19
159	0xe6	-26
160	0x16	22
161	0x1b	27
162	0xd2	-46
163	0x54	84
164	0x15	21
165	0x02	2
166	0xf1	-15
167	0x14	20
168	0xe0	-32
169	0xf8	-8
170	0xc5	-59
171	0x0a	10
172	0xcf	-49
173	0xcf	-49
174	0xab	-85
175	0xcd	-51
176	0xdb	-37
177	0xff	-1
178	0x16	22
179	0x1c	28
180	0x3e	62
181	0x4b	75
182	0x3a	58
183	0x22	34
184	0x0f	15
185	0x10	16
186	0x1e	30
187	0x3b	59
188	0x05	5
189	0x2e	46
190	0xea	-22
191	0x2a	42
192	0xf4	-12
193	0xfb	-5
194	0x06	6
195	0x5c	92
196	0x10	16
197	0x18	24
198	0xf8	-8
199	0xe9	-23
200	0xf6	-10
201	0x16	22
202	0x00	0
203	0x2a	42
204	0xf0	-16
205	0xf2	-14
206	0xa9	-87
207	0xdd	-35
208	0xa1	-95
209	0xe5	-27
210	0x97	-105
211	0x00	0
212	0xbf	-65
213	0xee	-18
214	0x9d	-99
215	0xfc	-4
216	0x9c	-100
217	0xf2	-14
218	0xbd	-67
219	0x19	25
220	0x09	9
221	0x1e	30
222	0x0a	10
223	0x26	38
224	0xed	-19
225	0x19	25
226	0x08	8
227	0x2c	44
228	0x0d	13
229	0x17	23
230	0xf9	-7
231	0x21	33
232	0xf3	-13
233	0x1b	27
234	0xee	-18
235	0x17	23
236	0x27	39
237	0x1c	28
238	0xfb	-5
239	0x14	20
240	0x08	8
241	0x30	48
242	0xf5	-11
243	0x3b	59
244	0xf2	-14
245	0xfc	-4
246	0xd3	-45
247	0x00	0
248	0xa2	-94
249	0xe5	-27
250	0xac	-84
251	0xec	-20
252	0xec	-20
253	0xe4	-28
254	0xa2	-94
255	0xf2	-14

tfl.pseudo_qconst i1 [1, 12, 1, 64] scale=0.033726864 zero_point=-128
0	0x80	0.0
1	0x80	0.0
2	0x80	0.0
3	0x80	0.0
4	0x80	0.0
5	0x80	0.0
6	0x80	0.0
7	0x80	0.0
8	0x80	0.0
9	0x80	0.0
10	0x80	0.0
11	0x80	0.0
12	0x80	0.0
13	0x80	0.0
14	0x80	0.0
15	0x80	0.0
16	0x80	0.0
17	0x80	0.0
18	0x80	0.0
19	0x80	0.0
20	0x80	0.0
21	0x80	0.0
22	0x80	0.0
23	0x80	0.0
24	0x80	0.0
25	0x80	0.0
26	0x80	0.0
27	0x80	0.0
28	0x80	0.0
29	0x80	0.0
30	0x80	0.0
31	0x80	0.0
32	0x80	0.0
33	0x80	0.0
34	0x80	0.0
35	0x80	0.0
36	0x80	0.0
37	0x80	0.0
38	0x80	0.0
39	0x80	0.0
40	0x80	0.0
41	0x80	0.0
42	0x80	0.0
43	0x80	0.0
44	0x80	0.0
45	0x80	0.0
46	0x80	0.0
47	0x80	0.0
48	0x80	0.0
49	0x80	0.0
50	0x80	0.0
51	0x80	0.0
52	0x80	0.0
53	0x80	0.0
54	0x80	0.0
55	0x80	0.0
56	0x80	0.0
57	0x80	0.0
58	0x80	0.0
59	0x80	0.0
60	0x80	0.0
61	0x80	0.0
62	0x80	0.0
63	0x80	0.0
64	0x80	0.0
65	0x80	0.0
66	0x80	0.0
67	0x80	0.0
68	0x80	0.0
69	0x80	0.0
70	0x80	0.0
71	0x80	0.0
72	0x80	0.0
73	0x80	0.0
74	0x80	0.0
75	0x80	0.0
76	0x80	0.0
77	0x80	0.0
78	0x80	0.0
79	0x80	0.0
80	0x80	0.0
81	0x80	0.0
82	0x80	0.0
83	0x80	0.0
84	0x80	0.0
85	0x80	0.0
86	0x80	0.0
87	0x80	0.0
88	0x80	0.0
89	0x80	0.0
90	0x80	0.0
91	0x80	0.0
92	0x80	0.0
93	0x80	0.0
94	0x80	0.0
95	0x80	0.0
96	0x80	0.0
97	0x80	0.0
98	0x80	0.0
99	0x80	0.0
100	0x80	0.0
101	0x80	0.0
102	0x80	0.0
103	0x80	0.0
104	0x80	0.0
105	0x80	0.0
106	0x80	0.0
107	0x80	0.0
108	0x80	0.0
109	0x80	0.0
110	0x80	0.0
111	0x80	0.0
112	0x80	0.0
113	0x80	0.0
114	0x80	0.0
115	0x80	0.0
116	0x80	0.0
117	0x80	0.0
118	0x80	0.0
119	0x80	0.0
120	0x80	0.0
121	0x80	0.0
122	0x80	0.0
123	0x80	0.0
124	0x80	0.0
125	0x80	0.0
126	0x80	0.0
127	0x80	0.0
128	0x80	0.0
129	0x80	0.0
130	0x80	0.0
131	0x80	0.0
132	0x80	0.0
133	0x80	0.0
134	0x80	0.0
135	0x80	0.0
136	0x80	0.0
137	0x80	0.0
138	0x80	0.0
139	0x80	0.0
140	0x80	0.0
141	0x80	0.0
142	0x80	0.0
143	0x80	0.0
144	0x80	0.0
145	0x80	0.0
146	0x80	0.0
147	0x80	0.0
148	0x80	0.0
149	0x80	0.0
150	0x80	0.0
151	0x80	0.0
152	0x80	0.0
153	0x80	0.0
154	0x80	0.0
155	0x80	0.0
156	0x80	0.0
157	0x80	0.0
158	0x80	0.0
159	0x80	0.0
160	0x80	0.0
161	0x80	0.0
162	0x80	0.0
163	0x80	0.0
164	0x80	0.0
165	0x80	0.0
166	0x80	0.0
167	0x80	0.0
168	0x80	0.0
169	0x80	0.0
170	0x80	0.0
171	0x80	0.0
172	0x80	0.0
173	0x80	0.0
174	0x80	0.0
175	0x80	0.0
176	0x80	0.0
177	0x80	0.0
178	0x80	0.0
179	0x80	0.0
180	0x80	0.0
181	0x80	0.0
182	0x80	0.0
183	0x80	0.0
184	0x80	0.0
185	0x80	0.0
186	0x80	0.0
187	0x80	0.0
188	0x80	0.0
189	0x80	0.0
190	0x80	0.0
191	0x80	0.0
192	0x80	0.0
193	0x80	0.0
194	0x80	0.0
195	0x80	0.0
196	0x80	0.0
197	0x80	0.0
198	0x80	0.0
199	0x80	0.0
200	0x80	0.0
201	0x80	0.0
202	0x80	0.0
203	0x80	0.0
204	0x80	0.0
205	0x80	0.0
206	0x80	0.0
207	0x80	0.0
208	0x80	0.0
209	0x80	0.0
210	0x80	0.0
211	0x80	0.0
212	0x80	0.0
213	0x80	0.0
214	0x80	0.0
215	0x80	0.0
216	0x80	0.0
217	0x80	0.0
218	0x80	0.0
219	0x80	0.0
220	0x80	0.0
221	0x80	0.0
222	0x80	0.0
223	0x80	0.0
224	0x80	0.0
225	0x80	0.0
226	0x80	0.0
227	0x80	0.0
228	0x80	0.0
229	0x80	0.0
230	0x80	0.0
231	0x80	0.0
232	0x80	0.0
233	0x80	0.0
234	0x80	0.0
235	0x80	0.0
236	0x80	0.0
237	0x80	0.0
238	0x80	0.0
239	0x80	0.0
240	0x80	0.0
241	0x80	0.0
242	0x80	0.0
243	0x80	0.0
244	0x80	0.0
245	0x80	0.0
246	0x80	0.0
247	0x80	0.0
248	0x80	0.0
249	0x80	0.0
250	0x80	0.0
251	0x80	0.0
252	0x80	0.0
253	0x80	0.0
254	0x80	0.0
255	0x80	0.0

tfl.pseudo_qconst1 i1 [1, 8, 1, 64] scale=0.04602602 zero_point=-128
0	0x80	0.0
1	0x80	0.0
2	0x80	0.0
3	0x80	0.0
4	0x80	0.0
5	0x80	0.0
6	0x80	0.0
7	0x80	0.0
8	0x80	0.0
9	0x80	0.0
10	0x80	0.0
11	0x80	0.0
12	0x80	0.0
13	0x80	0.0
14	0x80	0.0
15	0x80	0.0
16	0x80	0.0
17	0x80	0.0
18	0x80	0.0
19	0x80	0.0
20	0x80	0.0
21	0x80	0.0
22	0x80	0.0
23	0x80	0.0
24	0x80	0.0
25	0x80	0.0
26	0x80	0.0
27	0x80	0.0
28	0x80	0.0
29	0x80	0.0
30	0x80	0.0
31	0x80	0.0
32	0x80	0.0
33	0x80	0.0
34	0x80	0.0
35	0x80	0.0
36	0x80	0.0
37	0x80	0.0
38	0x80	0.0
39	0x80	0.0
40	0x80	0.0
41	0x80	0.0
42	0x80	0.0
43	0x80	0.0
44	0x80	0.0
45	0x80	0.0
46	0x80	0.0
47	0x80	0.0
48	0x80	0.0
49	0x80	0.0
50	0x80	0.0
51	0x80	0.0
52	0x80	0.0
53	0x80	0.0
54	0x80	0.0
55	0x80	0.0
56	0x80	0.0
57	0x80	0.0
58	0x80	0.0
59	0x80	0.0
60	0x80	0.0
61	0x80	0.0
62	0x80	0.0
63	0x80	0.0
64	0x80	0.0
65	0x80	0.0
66	0x80	0.0
67	0x80	0.0
68	0x80	0.0
69	0x80	0.0
70	0x80	0.0
71	0x80	0.0
72	0x80	0.0
73	0x80	0.0
74	0x80	0.0
75	0x80	0.0
76	0x80	0.0
77	0x80	0.0
78	0x80	0.0
79	0x80	0.0
80	0x80	0.0
81	0x80	0.0
82	0x80	0.0
83	0x80	0.0
84	0x80	0.0
85	0x80	0.0
86	0x80	0.0
87	0x80	0.0
88	0x80	0.0
89	0x80	0.0
90	0x80	0.0
91	0x80	0.0
92	0x80	0.0
93	0x80	0.0
94	0x80	0.0
95	0x80	0.0
96	0x80	0.0
97	0x80	0.0
98	0x80	0.0
99	0x80	0.0
100	0x80	0.0
101	0x80	0.0
102	0x80	0.0
103	0x80	0.0
104	0x80	0.0
105	0x80	0.0
106	0x80	0.0
107	0x80	0.0
108	0x80	0.0
109	0x80	0.0
110	0x80	0.0
111	0x80	0.0
112	0x80	0.0
113	0x80	0.0
114	0x80	0.0
115	0x80	0.0
116	0x80	0.0
117	0x80	0.0
118	0x80	0.0
119	0x80	0.0
120	0x80	0.0
121	0x80	0.0
122	0x80	0.0
123	0x80	0.0
124	0x80	0.0
125	0x80	0.0
126	0x80	0.0
127	0x80	0.0
128	0x80	0.0
129	0x80	0.0
130	0x80	0.0
131	0x80	0.0
132	0x80	0.0
133	0x80	0.0
134	0x80	0.0
135	0x80	0.0
136	0x80	0.0
137	0x80	0.0
138	0x80	0.0
139	0x80	0.0
140	0x80	0.0
141	0x80	0.0
142	0x80	0.0
143	0x80	0.0
144	0x80	0.0
145	0x80	0.0
146	0x80	0.0
147	0x80	0.0
148	0x80	0.0
149	0x80	0.0
150	0x80	0.0
151	0x80	0.0
152	0x80	0.0
153	0x80	0.0
154	0x80	0.0
155	0x80	0.0
156	0x80	0.0
157	0x80	0.0
158	0x80	0.0
159	0x80	0.0
160	0x80	0.0
161	0x80	0.0
162	0x80	0.0
163	0x80	0.0
164	0x80	0.0
165	0x80	0.0
166	0x80	0.0
167	0x80	0.0
168	0x80	0.0
169	0x80	0.0
170	0x80	0.0
171	0x80	0.0
172	0x80	0.0
173	0x80	0.0
174	0x80	0.0
175	0x80	0.0
176	0x80	0.0
177	0x80	0.0
178	0x80	0.0
179	0x80	0.0
180	0x80	0.0
181	0x80	0.0
182	0x80	0.0
183	0x80	0.0
184	0x80	0.0
185	0x80	0.0
186	0x80	0.0
187	0x80	0.0
188	0x80	0.0
189	0x80	0.0
190	0x80	0.0
191	0x80	0.0
192	0x80	0.0
193	0x80	0.0
194	0x80	0.0
195	0x80	0.0
196	0x80	0.0
197	0x80	0.0
198	0x80	0.0
199	0x80	0.0
200	0x80	0.0
201	0x80	0.0
202	0x80	0.0
203	0x80	0.0
204	0x80	0.0
205	0x80	0.0
206	0x80	0.0
207	0x80	0.0
208	0x80	0.0
209	0x80	0.0
210	0x80	0.0
211	0x80	0.0
212	0x80	0.0
213	0x80	0.0
214	0x80	0.0
215	0x80	0.0
216	0x80	0.0
217	0x80	0.0
218	0x80	0.0
219	0x80	0.0
220	0x80	0.0
221	0x80	0.0
222	0x80	0.0
223	0x80	0.0
224	0x80	0.0
225	0x80	0.0
226	0x80	0.0
227	0x80	0.0
228	0x80	0.0
229	0x80	0.0
230	0x80	0.0
231	0x80	0.0
232	0x80	0.0
233	0x80	0.0
234	0x80	0.0
235	0x80	0.0
236	0x80	0.0
237	0x80	0.0
238	0x80	0.0
239	0x80	0.0
240	0x80	0.0
241	0x80	0.0
242	0x80	0.0
243	0x80	0.0
244	0x80	0.0
245	0x80	0.0
246	0x80	0.0
247	0x80	0.0
248	0x80	0.0
249	0x80	0.0
250	0x80	0.0
251	0x80	0.0
252	0x80	0.0
253	0x80	0.0
254	0x80	0.0
255	0x80	0.0
