assist_satellite/wakewords/stop.tflite (tflite, 45544 bytes, 14 tensors)

model/dense/MatMul i1 [1, 384] scale=0.003606085 zero_point=0
00000000: e5c4 0608 04f4 ed04 93a9 0bc8 f21f 08d3
00000010: d22c dcf2 14f4 c8dd c7ac bdb4 ef0a 2ddb
00000020: f30c 30ec c6fb 00c8 14df c0d4 e7cc bbd4
00000030: e3f7 812d 2f0c e7c9 aad0 def7 384c c6de
00000040: e9da 03e1 00f1 1ff2 e9f4 ffdf d60d e3e7
00000050: fdc8 1e0d dad5 d4ef c9f7 cd08 fde7 19db
00000060: 12fa 0f05 07ee faf5 d1eb e2f4 f3cf 10ef
00000070: 04ea de1f 1bfe e101 e107 02e6 1320 0bdf
00000080: 05d6 d701 ecf0 0bd3 f9ca dffe c7e8 f0ea
00000090: f3cf 04d4 f4e4 f70b fdd5 db00 04fe 29e1
000000a0: 0102 09f0 04d3 e5e4 f8ee e7f1 d802 e8e1
000000b0: 09f0 d611 02d6 e6ea d7ff f1ef fffb f2f0
000000c0: fdef c6de 0a02 00d8 f60c f207 bcef e6dd
000000d0: f3e7 e5fd e5e1 f0f9 f7f9 0a06 edc8 05f0
000000e0: 1cde 17f2 ebd3 f808 fff1 e7f0 f6e2 f0c9
000000f0: fcde d611 1501 d3ed d202 dfd9 0703 efca
-0.09736429 -0.2163651 0.02163651 0.02884868 0.01442434 -0.04327302 -0.06851561 0.01442434
-0.39306325 -0.3137294 0.039666936 -0.20194076 -0.05048519 0.11178863 0.02884868 -0.16227382
-0.1658799 0.15866774 -0.12981907 -0.05048519 0.0721217 -0.04327302 -0.20194076 -0.12621297
-0.20554684 -0.30291113 -0.2416077 -0.27406245 -0.061303444 0.03606085 0.16227382 -0.13342515
-0.046879105 0.04327302 0.17309208 -0.0721217 -0.20915292 -0.018030426 0.0 -0.20194076
0.0721217 -0.11900081 -0.23078944 -0.15866774 -0.09015212 -0.18751642 -0.24881986 -0.15866774
-0.10457646 -0.032454766 -0.4579728 0.16227382 0.16948599 0.04327302 -0.09015212 -0.19833468
-0.3101233 -0.17309208 -0.12260689 -0.032454766 0.20194076 0.27406245 -0.20915292 -0.12260689
-0.08293995 -0.13703123 0.010818255 -0.11178863 0.0 -0.054091275 0.11178863 -0.05048519
-0.08293995 -0.04327302 -0.003606085 -0.11900081 -0.15145557 0.046879105 -0.10457646 -0.09015212
-0.010818255 -0.20194076 0.10818255 0.046879105 -0.13703123 -0.15506165 -0.15866774 -0.061303444
-0.19833468 -0.032454766 -0.18391034 0.02884868 -0.010818255 -0.09015212 0.09015212 -0.13342515
0.06490953 -0.02163651 0.054091275 0.018030426 0.025242595 -0.06490953 -0.02163651 -0.039666936
-0.16948599 -0.07572778 -0.10818255 -0.04327302 -0.046879105 -0.17669816 0.05769736 -0.061303444
0.01442434 -0.07933387 -0.12260689 0.11178863 0.09736429 -0.00721217 -0.11178863 0.003606085
-0.11178863 0.025242595 0.00721217 -0.09375821 0.06851561 0.11539472 0.039666936 -0.11900081
0.018030426 -0.15145557 -0.14784949 0.003606085 -0.0721217 -0.05769736 0.039666936 -0.16227382
-0.025242595 -0.19472858 -0.11900081 -0.00721217 -0.20554684 -0.08654604 -0.05769736 -0.07933387
-0.046879105 -0.17669816 0.01442434 -0.15866774 -0.04327302 -0.10097038 -0.032454766 0.039666936
-0.010818255 -0.15506165 -0.13342515 0.0 0.01442434 -0.00721217 0.14784949 -0.11178863
0.003606085 0.00721217 0.032454766 -0.05769736 0.01442434 -0.16227382 -0.09736429 -0.10097038
-0.02884868 -0.06490953 -0.09015212 -0.054091275 -0.1442434 0.00721217 -0.08654604 -0.11178863
0.032454766 -0.05769736 -0.15145557 0.061303444 0.00721217 -0.15145557 -0.09375821 -0.07933387
-0.14784949 -0.003606085 -0.054091275 -0.061303444 -0.003606085 -0.018030426 -0.05048519 -0.05769736
-0.010818255 -0.061303444 -0.20915292 -0.12260689 0.03606085 0.00721217 0.0 -0.1442434
-0.03606085 0.04327302 -0.05048519 0.025242595 -0.24521378 -0.061303444 -0.09375821 -0.12621297
-0.046879105 -0.09015212 -0.09736429 -0.010818255 -0.09736429 -0.11178863 -0.05769736 -0.025242595
-0.032454766 -0.025242595 0.03606085 0.02163651 -0.06851561 -0.20194076 0.018030426 -0.05769736
0.10097038 -0.12260689 0.08293995 -0.05048519 -0.07572778 -0.16227382 -0.02884868 0.02884868
-0.003606085 -0.054091275 -0.09015212 -0.05769736 -0.03606085 -0.10818255 -0.05769736 -0.19833468
-0.01442434 -0.12260689 -0.15145557 0.061303444 0.07572778 0.003606085 -0.16227382 -0.06851561
-0.1658799 0.00721217 -0.11900081 -0.14063731 0.025242595 0.010818255 -0.061303444 -0.19472858

model/conv2d_3/Conv2D i1 [64, 1, 1, 64]
00000000: 2a00 c93f 34d3 0198 43c5 29d8 073c 4890
00000010: efa8 fb41 21b9 fd08 d521 3d18 e5e6 37ef
00000020: a6f0 080a 0bad 1b1f 244a 08f0 541e 23da
00000030: ceb9 12c2 c7e9 dcfd 7ff1 4ac3 142c 8a55
00000040: 00c2 e346 810a 2613 18bf 0557 fc28 9772
00000050: d7de 24d4 22eb d7f4 3c32 04bb d1fd 0c2e
00000060: 21ae bcb8 e073 156c 019d 552f ac2a 07fd
00000070: c983 30f4 fe56 18ee 0328 f901 cee8 fcfd
00000080: db0c f7e2 15f6 38f8 4239 ec0d 16d5 3017
00000090: 04d7 0c11 eb42 1a28 cf02 25fd fe55 ee06
000000a0: 2414 007f 002b 2413 06dc 53f1 ddda 382c
000000b0: 3f22 09ec 1223 6901 4314 f811 0d33 3116
000000c0: ab1a 2ddb f3fb 11a9 fbfa b704 1456 d6a4
000000d0: c8dc e737 1edd 46ce 96b5 2e3d e2d4 3f0f
000000e0: 0605 55f6 32e0 3311 5417 d238 3910 0bf9
000000f0: 01ce 0fe7 81be 1ff6 5f28 4ef8 ca1e af52
42 0 -55 63 52 -45 1 -104
67 -59 41 -40 7 60 72 -112
-17 -88 -5 65 33 -71 -3 8
-43 33 61 24 -27 -26 55 -17
-90 -16 8 10 11 -83 27 31
36 74 8 -16 84 30 35 -38
-50 -71 18 -62 -57 -23 -36 -3
127 -15 74 -61 20 44 -118 85
0 -62 -29 70 -127 10 38 19
24 -65 5 87 -4 40 -105 114
-41 -34 36 -44 34 -21 -41 -12
60 50 4 -69 -47 -3 12 46
33 -82 -68 -72 -32 115 21 108
1 -99 85 47 -84 42 7 -3
-55 -125 48 -12 -2 86 24 -18
3 40 -7 1 -50 -24 -4 -3
-37 12 -9 -30 21 -10 56 -8
66 57 -20 13 22 -43 48 23
4 -41 12 17 -21 66 26 40
-49 2 37 -3 -2 85 -18 6
36 20 0 127 0 43 36 19
6 -36 83 -15 -35 -38 56 44
63 34 9 -20 18 35 105 1
67 20 -8 17 13 51 49 22
-85 26 45 -37 -13 -5 17 -87
-5 -6 -73 4 20 86 -42 -92
-56 -36 -25 55 30 -35 70 -50
-106 -75 46 61 -30 -44 63 15
6 5 85 -10 50 -32 51 17
84 23 -46 56 57 16 11 -7
1 -50 15 -25 -127 -66 31 -10
95 40 78 -8 -54 30 -81 82

model/depthwise_conv2d_3/depthwise i1 [1, 13, 1, 64]
00000000: 7f1a dc81 7f7f e861 7f7f 7f3d 819d bdee
00000010: 7f0e 815a 81ea c27f 81d7 a704 f796 7fe4
00000020: 3c3e 2981 8153 0835 f3f4 c916 8181 767f
00000030: 3d08 1984 337f ae4d fab5 fb55 8103 f5cb
00000040: 14f9 f6dd 6027 013b 246e 41a7 ccbb ca31
00000050: 1ff7 e033 bc13 d728 9f81 812a f0be 57da
00000060: 342b 7fbe bb1d 01e2 e300 cfd1 ce89 6550
00000070: 7f1b 36de 1e23 0a27 f5d0 0d73 9911 05bd
00000080: f4cf c1f3 2fe4 e16e 373e 06df d8e7 e0eb
00000090: 21ef 0810 c9f5 e5de a3c7 f12b 49eb 4cbd
000000a0: 4c29 43f8 ae1c f9b1 16f3 d5c6 c90a 2628
000000b0: 4002 c6dd fd1e feb0 f251 f37f e127 fba5
000000c0: e2db 9cef 35e3 fd28 352b 15bf 020d 0d00
000000d0: 07f6 0832 c81d dbeb c3eb e00c 43e4 6649
000000e0: 6cdc 2af2 b9f2 f284 dcfe ffc4 dcd8 4435
000000f0: eb1d 96e4 2914 0681 eb5f dc45 f637 1f46
127 26 -36 -127 127 127 -24 97
127 127 127 61 -127 -99 -67 -18
127 14 -127 90 -127 -22 -62 127
-127 -41 -89 4 -9 -106 127 -28
60 62 41 -127 -127 83 8 53
-13 -12 -55 22 -127 -127 118 127
61 8 25 -124 51 127 -82 77
-6 -75 -5 85 -127 3 -11 -53
20 -7 -10 -35 96 39 1 59
36 110 65 -89 -52 -69 -54 49
31 -9 -32 51 -68 19 -41 40
-97 -127 -127 42 -16 -66 87 -38
52 43 127 -66 -69 29 1 -30
-29 0 -49 -47 -50 -119 101 80
127 27 54 -34 30 35 10 39
-11 -48 13 115 -103 17 5 -67
-12 -49 -63 -13 47 -28 -31 110
55 62 6 -33 -40 -25 -32 -21
33 -17 8 16 -55 -11 -27 -34
-93 -57 -15 43 73 -21 76 -67
76 41 67 -8 -82 28 -7 -79
22 -13 -43 -58 -55 10 38 40
64 2 -58 -35 -3 30 -2 -80
-14 81 -13 127 -31 39 -5 -91
-30 -37 -100 -17 53 -29 -3 40
53 43 21 -65 2 13 13 0
7 -10 8 50 -56 29 -37 -21
-61 -21 -32 12 67 -28 102 73
108 -36 42 -14 -71 -14 -14 -124
-36 -2 -1 -60 -36 -40 68 53
-21 29 -106 -28 41 20 6 -127
-21 95 -36 69 -10 55 31 70

model/conv2d_2/Conv2D i1 [64, 1, 1, 64]
00000000: e938 0abb 2bd5 1d14 fc06 002e 2311 dafb
00000010: ff60 2422 d434 31d6 20dc cbed 5a10 c5e4
00000020: 211b e755 d77f 0818 d21e 40c3 eaf2 c0f3
00000030: e4cb fa06 d71f e8a6 43dc 2003 d1fe 4eb9
00000040: 282f cdc9 2ad1 1d3a c719 d61e 21d7 0a04
00000050: fa42 17bd 450c 12ac a4d2 120a ec5c fa4b
00000060: 2cee fa20 430c 041d 0125 9fcc f2f2 1020
00000070: 81c2 2fad 05f5 c152 cbf4 e7e6 1eda d604
00000080: e3f7 0881 4bda 283a e4ec f945 13da 2dcc
00000090: af39 e81d 2147 3fb6 e009 230d 1d48 2fd5
000000a0: e3ea 02df 0e49 fafc 2901 e205 fbfc 17be
000000b0: dffc 2e10 17f4 f4ee 06bd e211 11fc 28e7
000000c0: 5600 4206 1ffc cd0c cfd2 f925 0917 01e1
000000d0: c234 0cf9 e6f3 0023 0efc fd16 2be9 0607
000000e0: d061 06c0 1818 edc7 2601 c3d0 617f 3702
000000f0: 0415 3039 08cd 1738 e79e 2b17 f816 bf1d
-23 56 10 -69 43 -43 29 20
-4 6 0 46 35 17 -38 -5
-1 96 36 34 -44 52 49 -42
32 -36 -53 -19 90 16 -59 -28
33 27 -25 85 -41 127 8 24
-46 30 64 -61 -22 -14 -64 -13
-28 -53 -6 6 -41 31 -24 -90
67 -36 32 3 -47 -2 78 -71
40 47 -51 -55 42 -47 29 58
-57 25 -42 30 33 -41 10 4
-6 66 23 -67 69 12 18 -84
-92 -46 18 10 -20 92 -6 75
44 -18 -6 32 67 12 4 29
1 37 -97 -52 -14 -14 16 32
-127 -62 47 -83 5 -11 -63 82
-53 -12 -25 -26 30 -38 -42 4
-29 -9 8 -127 75 -38 40 58
-28 -20 -7 69 19 -38 45 -52
-81 57 -24 29 33 71 63 -74
-32 9 35 13 29 72 47 -43
-29 -22 2 -33 14 73 -6 -4
41 1 -30 5 -5 -4 23 -66
-33 -4 46 16 23 -12 -12 -18
6 -67 -30 17 17 -4 40 -25
86 0 66 6 31 -4 -51 12
-49 -46 -7 37 9 23 1 -31
-62 52 12 -7 -26 -13 0 35
14 -4 -3 22 43 -23 6 7
-48 97 6 -64 24 24 -19 -57
38 1 -61 -48 97 127 55 2
4 21 48 57 8 -51 23 56
-25 -98 43 23 -8 22 -65 29

model/depthwise_conv2d_2/depthwise1 i1 [1, 9, 1, 32]
00000000: 7f81 bb7f 3c2e 0d81 af81 cc5b 8181 867f
00000010: f681 5b81 f209 dd81 7f6d 58ea 7fae 7fbb
00000020: 36bf 232f 369d 2ce0 b3b9 d61c afd4 8b30
00000030: 04db 05bc fe15 c9c2 5b3c 7f25 5ea3 1b81
00000040: 42f7 cbfb 2da4 e4d7 9eef 0b1c e2f5 f0fb
00000050: 1207 81da fbe3 d2dd 0524 2deb 25e5 0fdf
00000060: 3cec 82cc 09a9 f4cf b7d9 faed e9eb 4611
00000070: faf7 c5ec d2c6 81ec ab70 dfd0 fe81 ff03
00000080: 1f07 f7ea 09e5 9de7 ff2a 423d c2e4 162a
00000090: f80b 9534 f726 f0f3 f619 ea7f 3d18 ded7
000000a0: 3b00 2428 2eac ebe3 61cd 1e7f 91e6 48f7
000000b0: 131f d5eb b214 33fc 5ef2 0869 cc09 cecc
000000c0: 2e0d 4e27 1db0 17fd 7f24 f345 b90b c8f4
000000d0: 2000 f3ea 847f 19ec 757f f8a4 082a e5b9
000000e0: 04fa 2c12 0381 61d9 d252 fd3b dbdb 5118
000000f0: f73c 6bd1 8109 2efc 5d2c 00cb dc6d dfaf
127 -127 -69 127 60 46 13 -127
-81 -127 -52 91 -127 -127 -122 127
-10 -127 91 -127 -14 9 -35 -127
127 109 88 -22 127 -82 127 -69
54 -65 35 47 54 -99 44 -32
-77 -71 -42 28 -81 -44 -117 48
4 -37 5 -68 -2 21 -55 -62
91 60 127 37 94 -93 27 -127
66 -9 -53 -5 45 -92 -28 -41
-98 -17 11 28 -30 -11 -16 -5
18 7 -127 -38 -5 -29 -46 -35
5 36 45 -21 37 -27 15 -33
60 -20 -126 -52 9 -87 -12 -49
-73 -39 -6 -19 -23 -21 70 17
-6 -9 -59 -20 -46 -58 -127 -20
-85 112 -33 -48 -2 -127 -1 3
31 7 -9 -22 9 -27 -99 -25
-1 42 66 61 -62 -28 22 42
-8 11 -107 52 -9 38 -16 -13
-10 25 -22 127 61 24 -34 -41
59 0 36 40 46 -84 -21 -29
97 -51 30 127 -111 -26 72 -9
19 31 -43 -21 -78 20 51 -4
94 -14 8 105 -52 9 -50 -52
46 13 78 39 29 -80 23 -3
127 36 -13 69 -71 11 -56 -12
32 0 -13 -22 -124 127 25 -20
117 127 -8 -92 8 42 -27 -71
4 -6 44 18 3 -127 97 -39
-46 82 -3 59 -37 -37 81 24
-9 60 107 -47 -127 9 46 -4
93 44 0 -53 -36 109 -33 -81

model/depthwise_conv2d_1/depthwise i1 [1, 7, 1, 32]
00000000: 8140 814c c2ff 1125 07e4 49b7 e67f 2c7f
00000010: 6c21 7fde 29a7 00f4 d47f cc31 8181 171e
00000020: c2f2 ba0d a963 5b1c 1e97 f6f9 a459 590c
00000030: 1e0a 20f4 2381 0e25 0115 817a 911c 00d5
00000040: 19bf b148 8145 3481 26a6 c71a d4a3 534e
00000050: 7fa7 4aeb 028e 28f4 edf2 ed73 9d17 112f
00000060: 009b 2852 b013 4cf7 6b52 342e d32c 7f54
00000070: 4c81 c8ac 23a5 e9e2 fddd 0381 b157 d220
00000080: 1794 3ef5 dfc3 57eb 0d7f 6c4a 43d7 3a53
00000090: c381 efa9 c671 ddca c3b0 3fa3 bb20 81c5
000000a0: 188c d781 e5a3 ea2a 2cec 68dd 6a82 3e7b
000000b0: 0bd4 013a f827 81eb fbb6 f95e ae63 d2a3
000000c0: c181 cd8b d581 7f85 7f92 7f81 7f09 a7d8
000000d0: 1513 a67f 81fa 8281 8105 ccce 319e bd81
-127 64 -127 76 -62 -1 17 37
7 -28 73 -73 -26 127 44 127
108 33 127 -34 41 -89 0 -12
-44 127 -52 49 -127 -127 23 30
-62 -14 -70 13 -87 99 91 28
30 -105 -10 -7 -92 89 89 12
30 10 32 -12 35 -127 14 37
1 21 -127 122 -111 28 0 -43
25 -65 -79 72 -127 69 52 -127
38 -90 -57 26 -44 -93 83 78
127 -89 74 -21 2 -114 40 -12
-19 -14 -19 115 -99 23 17 47
0 -101 40 82 -80 19 76 -9
107 82 52 46 -45 44 127 84
76 -127 -56 -84 35 -91 -23 -30
-3 -35 3 -127 -79 87 -46 32
23 -108 62 -11 -33 -61 87 -21
13 127 108 74 67 -41 58 83
-61 -127 -17 -87 -58 113 -35 -54
-61 -80 63 -93 -69 32 -127 -59
24 -116 -41 -127 -27 -93 -22 42
44 -20 104 -35 106 -126 62 123
11 -44 1 58 -8 39 -127 -21
-5 -74 -7 94 -82 99 -46 -93
-63 -127 -51 -117 -43 -127 127 -123
127 -110 127 -127 127 9 -89 -40
21 19 -90 127 -127 -6 -126 -127
-127 5 -52 -50 49 -98 -67 -127

model/conv2d_1/Conv2D i1 [64, 1, 1, 32]
00000000: de0c da04 f0f1 f1f2 1ed3 a8c5 1cfe f4c6
00000010: 25c5 0901 d55e 0e0e 51f3 e17f fff4 f2f9
00000020: 6946 0a06 e06a bf60 353e ac72 fde0 0ed1
00000030: 81f8 d856 1a45 4341 31db 8c25 af08 cdc6
00000040: 3813 a2ac b72b 4742 eaf1 0e04 1e58 ec55
00000050: 641a f2c0 a1fa c1fc 0425 33e5 0ae8 81f8
00000060: f7c6 c30a f8f4 0b05 c881 d51f 2d04 02fc
00000070: c9f7 1128 0914 165f 1819 3915 17f7 3cdd
00000080: e503 3b27 3000 47f2 c635 d230 04a9 41b9
00000090: 01e0 e85c 31cd f63c ee56 0726 cabf 0181
000000a0: 0427 f2df ef0c f7e7 04f3 3c87 ce0c 17da
000000b0: 04de 81f5 ecd0 542d f434 63a2 9b52 eaf4
000000c0: 2dea ecd7 12c6 13f2 c581 b33d f2b8 21c1
000000d0: 05a8 09e5 263f 18fe 4ff2 c337 c61a 050e
000000e0: 4e27 4bd7 dd94 df96 fcf3 0238 f31c f114
000000f0: acec ff7f e1cf 35db 0e27 753d 015c a166
-34 12 -38 4 -16 -15 -15 -14
30 -45 -88 -59 28 -2 -12 -58
37 -59 9 1 -43 94 14 14
81 -13 -31 127 -1 -12 -14 -7
105 70 10 6 -32 106 -65 96
53 62 -84 114 -3 -32 14 -47
-127 -8 -40 86 26 69 67 65
49 -37 -116 37 -81 8 -51 -58
56 19 -94 -84 -73 43 71 66
-22 -15 14 4 30 88 -20 85
100 26 -14 -64 -95 -6 -63 -4
4 37 51 -27 10 -24 -127 -8
-9 -58 -61 10 -8 -12 11 5
-56 -127 -43 31 45 4 2 -4
-55 -9 17 40 9 20 22 95
24 25 57 21 23 -9 60 -35
-27 3 59 39 48 0 71 -14
-58 53 -46 48 4 -87 65 -71
1 -32 -24 92 49 -51 -10 60
-18 86 7 38 -54 -65 1 -127
4 39 -14 -33 -17 12 -9 -25
4 -13 60 -121 -50 12 23 -38
4 -34 -127 -11 -20 -48 84 45
-12 52 99 -94 -101 82 -22 -12
45 -22 -20 -41 18 -58 19 -14
-59 -127 -77 61 -14 -72 33 -63
5 -88 9 -27 38 63 24 -2
79 -14 -61 55 -58 26 5 14
78 39 75 -41 -35 -108 -33 -106
-4 -13 2 56 -13 28 -15 20
-84 -20 -1 127 -31 -49 53 -37
14 39 117 61 1 92 -95 102

model/depthwise_conv2d/depthwise i1 [1, 5, 1, 32]
00000000: 7fe7 c7c3 6c74 dc66 3b01 e551 0216 ff23
00000010: 7f31 4281 817f 7fd4 20b5 d47f d6c8 8166
00000020: 48d8 42ee 507f 0a77 58a4 1161 cb7f ce58
00000030: 6d71 0ff4 f36f 9b81 f081 8162 74ad 1494
00000040: e07f 21fc 81f8 8181 11ed 7f7f f66b dc13
00000050: 047f f146 3a50 a9df ceeb f872 127f 7b7f
00000060: 336f 7f7f b625 bda9 7f64 5e1f f94a fd7f
00000070: ec61 f51a d71b c915 0201 6149 9622 31e3
00000080: c378 5177 1f16 00b3 6c7f 53fb 8104 81e1
00000090: ab11 7f6a 0853 1e43 81fa 1d4d 7fb5 aeaa
127 -25 -57 -61 108 116 -36 102
59 1 -27 81 2 22 -1 35
127 49 66 -127 -127 127 127 -44
32 -75 -44 127 -42 -56 -127 102
72 -40 66 -18 80 127 10 119
88 -92 17 97 -53 127 -50 88
109 113 15 -12 -13 111 -101 -127
-16 -127 -127 98 116 -83 20 -108
-32 127 33 -4 -127 -8 -127 -127
17 -19 127 127 -10 107 -36 19
4 127 -15 70 58 80 -87 -33
-50 -21 -8 114 18 127 123 127
51 111 127 127 -74 37 -67 -87
127 100 94 31 -7 74 -3 127
-20 97 -11 26 -41 27 -55 21
2 1 97 73 -106 34 49 -29
-61 120 81 119 31 22 0 -77
108 127 83 -5 -127 4 -127 -31
-85 17 127 106 8 83 30 67
-127 -6 29 77 127 -75 -82 -86

model/stream/conv2d/Conv2D i1 [32, 5, 1, 40]
00000000: 4bf7 0a07 06e5 f486 ceaf f30b 1c4e 211e
00000010: 1fd9 2008 09ef fdfb fc04 12f5 f5dc fe04
00000020: fddc fceb f5d0 e2c4 3202 f4e9 14d7 e3aa
00000030: d5c1 ecff 4062 53f6 1cf7 04e9 10fd f8fd
00000040: 1b09 f0fa e0fc 05f5 11f9 ebee 09dd f8e2
00000050: 40f1 1500 f7fc dcb2 b9d5 0d1e 5565 3217
00000060: 0cd3 fdde 00ea 0df6 fee7 0e07 f815 f9fd
00000070: fded 0e0c 1df8 08d3 3ae1 f2e7 0adf d6bf
00000080: d1b4 f40f 3a7f 3a1e fddb 0de7 fcf3 0b14
00000090: fe18 f104 f813 ff13 1000 f6f8 18ec 0c0c
000000a0: 0ee9 fde5 f9d1 e6d1 c0d5 f130 3f75 49eb
000000b0: efcb f905 f3f3 14fb fef4 e900 e816 16ef
000000c0: 1d04 0502 2010 2224 d3d9 e3c3 e2f1 cdee
000000d0: c7e8 81ce da20 5359 3f03 2411 2c0f 07e6
000000e0: f23f 1230 352f 17f2 2b0a 062c e90e d009
000000f0: c6ed ebeb d518 cafa aac1 8c9e b721 6577
75 -9 10 7 6 -27 -12 -122
-50 -81 -13 11 28 78 33 30
31 -39 32 8 9 -17 -3 -5
-4 4 18 -11 -11 -36 -2 4
-3 -36 -4 -21 -11 -48 -30 -60
50 2 -12 -23 20 -41 -29 -86
-43 -63 -20 -1 64 98 83 -10
28 -9 4 -23 16 -3 -8 -3
27 9 -16 -6 -32 -4 5 -11
17 -7 -21 -18 9 -35 -8 -30
64 -15 21 0 -9 -4 -36 -78
-71 -43 13 30 85 101 50 23
12 -45 -3 -34 0 -22 13 -10
-2 -25 14 7 -8 21 -7 -3
-3 -19 14 12 29 -8 8 -45
58 -31 -14 -25 10 -33 -42 -65
-47 -76 -12 15 58 127 58 30
-3 -37 13 -25 -4 -13 11 20
-2 24 -15 4 -8 19 -1 19
16 0 -10 -8 24 -20 12 12
14 -23 -3 -27 -7 -47 -26 -47
-64 -43 -15 48 63 117 73 -21
-17 -53 -7 5 -13 -13 20 -5
-2 -12 -23 0 -24 22 22 -17
29 4 5 2 32 16 34 36
-45 -39 -29 -61 -30 -15 -51 -18
-57 -24 -127 -50 -38 32 83 89
63 3 36 17 44 15 7 -26
-14 63 18 48 53 47 23 -14
43 10 6 44 -23 14 -48 9
-58 -19 -21 -21 -43 24 -54 -6
-86 -63 -116 -98 -73 33 101 119

tfl.pseudo_qconst i1 [1, 5, 1, 64] scale=0.03264528 zero_point=-128
00000000: 8080 8080 8080 8080 8080 8080 8080 8080
00000010: 8080 8080 8080 8080 8080 8080 8080 8080
00000020: 8080 8080 8080 8080 8080 8080 8080 8080
00000030: 8080 8080 8080 8080 8080 8080 8080 8080
00000040: 8080 8080 8080 8080 8080 8080 8080 8080
00000050: 8080 8080 8080 8080 8080 8080 8080 8080
00000060: 8080 8080 8080 8080 8080 8080 8080 8080
00000070: 8080 8080 8080 8080 8080 8080 8080 8080
00000080: 8080 8080 8080 8080 8080 8080 8080 8080
00000090: 8080 8080 8080 8080 8080 8080 8080 8080
000000a0: 8080 8080 8080 8080 8080 8080 8080 8080
000000b0: 8080 8080 8080 8080 8080 8080 8080 8080
000000c0: 8080 8080 8080 8080 8080 8080 8080 8080
000000d0: 8080 8080 8080 8080 8080 8080 8080 8080
000000e0: 8080 8080 8080 8080 8080 8080 8080 8080
000000f0: 8080 8080 8080 8080 8080 8080 8080 8080
0.0 0.0 0.0 0.0 0.0 0.0 0.0 0.0
0.0 0.0 0.0 0.0 0.0 0.0 0.0 0.0
0.0 0.0 0.0 0.0 0.0 0.0 0.0 0.0
0.0 0.0 0.0 0.0 0.0 0.0 0.0 0.0
0.0 0.0 0.0 0.0 0.0 0.0 0.0 0.0
0.0 0.0 0.0 0.0 0.0 0.0 0.0 0.0
0.0 0.0 0.0 0.0 0.0 0.0 0.0 0.0
0.0 0.0 0.0 0.0 0.0 0.0 0.0 0.0
0.0 0.0 0.0 0.0 0.0 0.0 0.0 0.0
0.0 0.0 0.0 0.0 0.0 0.0 0.0 0.0
0.0 0.0 0.0 0.0 0.0 0.0 0.0 0.0
0.0 0.0 0.0 0.0 0.0 0.0 0.0 0.0
0.0 0.0 0.0 0.0 0.0 0.0 0.0 0.0
0.0 0.0 0.0 0.0 0.0 0.0 0.0 0.0
0.0 0.0 0.0 0.0 0.0 0.0 0.0 0.0
0.0 0.0 0.0 0.0 0.0 0.0 0.0 0.0
0.0 0.0 0.0 0.0 0.0 0.0 0.0 0.0
0.0 0.0 0.0 0.0 0.0 0.0 0.0 0.0
0.0 0.0 0.0 0.0 0.0 0.0 0.0 0.0
0.0 0.0 0.0 0.0 0.0 0.0 0.0 0.0
0.0 0.0 0.0 0.0 0.0 0.0 0.0 0.0
0.0 0.0 0.0 0.0 0.0 0.0 0.0 0.0
0.0 0.0 0.0 0.0 0.0 0.0 0.0 0.0
0.0 0.0 0.0 0.0 0.0 0.0 0.0 0.0
0.0 0.0 0.0 0.0 0.0 0.0 0.0 0.0
0.0 0.0 0.0 0.0 0.0 0.0 0.0 0.0
0.0 0.0 0.0 0.0 0.0 0.0 0.0 0.0
0.0 0.0 0.0 0.0 0.0 0.0 0.0 0.0
0.0 0.0 0.0 0.0 0.0 0.0 0.0 0.0
0.0 0.0 0.0 0.0 0.0 0.0 0.0 0.0
0.0 0.0 0.0 0.0 0.0 0.0 0.0 0.0
0.0 0.0 0.0 0.0 0.0 0.0 0.0 0.0

tfl.pseudo_qconst1 i1 [1, 12, 1, 64] scale=0.04666375 zero_point=-128
00000000: 8080 8080 8080 8080 8080 8080 8080 8080
00000010: 8080 8080 8080 8080 8080 8080 8080 8080
00000020: 8080 8080 8080 8080 8080 8080 8080 8080
00000030: 8080 8080 8080 8080 8080 8080 8080 8080
00000040: 8080 8080 8080 8080 8080 8080 8080 8080
00000050: 8080 8080 8080 8080 8080 8080 8080 8080
00000060: 8080 8080 8080 8080 8080 8080 8080 8080
00000070: 8080 8080 8080 8080 8080 8080 8080 8080
00000080: 8080 8080 8080 8080 8080 8080 8080 8080
00000090: 8080 8080 8080 8080 8080 8080 8080 8080
000000a0: 8080 8080 8080 8080 8080 8080 8080 8080
000000b0: 8080 8080 8080 8080 8080 8080 8080 8080
000000c0: 8080 8080 8080 8080 8080 8080 8080 8080
000000d0: 8080 8080 8080 8080 8080 8080 8080 8080
000000e0: 8080 8080 8080 8080 8080 8080 8080 8080
000000f0: 8080 8080 8080 8080 8080 8080 8080 8080
0.0 0.0 0.0 0.0 0.0 0.0 0.0 0.0
0.0 0.0 0.0 0.0 0.0 0.0 0.0 0.0
0.0 0.0 0.0 0.0 0.0 0.0 0.0 0.0
0.0 0.0 0.0 0.0 0.0 0.0 0.0 0.0
0.0 0.0 0.0 0.0 0.0 0.0 0.0 0.0
0.0 0.0 0.0 0.0 0.0 0.0 0.0 0.0
0.0 0.0 0.0 0.0 0.0 0.0 0.0 0.0
0.0 0.0 0.0 0.0 0.0 0.0 0.0 0.0
0.0 0.0 0.0 0.0 0.0 0.0 0.0 0.0
0.0 0.0 0.0 0.0 0.0 0.0 0.0 0.0
0.0 0.0 0.0 0.0 0.0 0.0 0.0 0.0
0.0 0.0 0.0 0.0 0.0 0.0 0.0 0.0
0.0 0.0 0.0 0.0 0.0 0.0 0.0 0.0
0.0 0.0 0.0 0.0 0.0 0.0 0.0 0.0
0.0 0.0 0.0 0.0 0.0 0.0 0.0 0.0
0.0 0.0 0.0 0.0 0.0 0.0 0.0 0.0
0.0 0.0 0.0 0.0 0.0 0.0 0.0 0.0
0.0 0.0 0.0 0.0 0.0 0.0 0.0 0.0
0.0 0.0 0.0 0.0 0.0 0.0 0.0 0.0
0.0 0.0 0.0 0.0 0.0 0.0 0.0 0.0
0.0 0.0 0.0 0.0 0.0 0.0 0.0 0.0
0.0 0.0 0.0 0.0 0.0 0.0 0.0 0.0
0.0 0.0 0.0 0.0 0.0 0.0 0.0 0.0
0.0 0.0 0.0 0.0 0.0 0.0 0.0 0.0
0.0 0.0 0.0 0.0 0.0 0.0 0.0 0.0
0.0 0.0 0.0 0.0 0.0 0.0 0.0 0.0
0.0 0.0 0.0 0.0 0.0 0.0 0.0 0.0
0.0 0.0 0.0 0.0 0.0 0.0 0.0 0.0
0.0 0.0 0.0 0.0 0.0 0.0 0.0 0.0
0.0 0.0 0.0 0.0 0.0 0.0 0.0 0.0
0.0 0.0 0.0 0.0 0.0 0.0 0.0 0.0
0.0 0.0 0.0 0.0 0.0 0.0 0.0 0.0

tfl.pseudo_qconst2 i1 [1, 8, 1, 64] scale=0.038946822 zero_point=-128
00000000: 8080 8080 8080 8080 8080 8080 8080 8080
00000010: 8080 8080 8080 8080 8080 8080 8080 8080
00000020: 8080 8080 8080 8080 8080 8080 8080 8080
00000030: 8080 8080 8080 8080 8080 8080 8080 8080
00000040: 8080 8080 8080 8080 8080 8080 8080 8080
00000050: 8080 8080 8080 8080 8080 8080 8080 8080
00000060: 8080 8080 8080 8080 8080 8080 8080 8080
00000070: 8080 8080 8080 8080 8080 8080 8080 8080
00000080: 8080 8080 8080 8080 8080 8080 8080 8080
00000090: 8080 8080 8080 8080 8080 8080 8080 8080
000000a0: 8080 8080 8080 8080 8080 8080 8080 8080
000000b0: 8080 8080 8080 8080 8080 8080 8080 8080
000000c0: 8080 8080 8080 8080 8080 8080 8080 8080
000000d0: 8080 8080 8080 8080 8080 8080 8080 8080
000000e0: 8080 8080 8080 8080 8080 8080 8080 8080
000000f0: 8080 8080 8080 8080 8080 8080 8080 8080
0.0 0.0 0.0 0.0 0.0 0.0 0.0 0.0
0.0 0.0 0.0 0.0 0.0 0.0 0.0 0.0
0.0 0.0 0.0 0.0 0.0 0.0 0.0 0.0
0.0 0.0 0.0 0.0 0.0 0.0 0.0 0.0
0.0 0.0 0.0 0.0 0.0 0.0 0.0 0.0
0.0 0.0 0.0 0.0 0.0 0.0 0.0 0.0
0.0 0.0 0.0 0.0 0.0 0.0 0.0 0.0
0.0 0.0 0.0 0.0 0.0 0.0 0.0 0.0
0.0 0.0 0.0 0.0 0.0 0.0 0.0 0.0
0.0 0.0 0.0 0.0 0.0 0.0 0.0 0.0
0.0 0.0 0.0 0.0 0.0 0.0 0.0 0.0
0.0 0.0 0.0 0.0 0.0 0.0 0.0 0.0
0.0 0.0 0.0 0.0 0.0 0.0 0.0 0.0
0.0 0.0 0.0 0.0 0.0 0.0 0.0 0.0
0.0 0.0 0.0 0.0 0.0 0.0 0.0 0.0
0.0 0.0 0.0 0.0 0.0 0.0 0.0 0.0
0.0 0.0 0.0 0.0 0.0 0.0 0.0 0.0
0.0 0.0 0.0 0.0 0.0 0.0 0.0 0.0
0.0 0.0 0.0 0.0 0.0 0.0 0.0 0.0
0.0 0.0 0.0 0.0 0.0 0.0 0.0 0.0
0.0 0.0 0.0 0.0 0.0 0.0 0.0 0.0
0.0 0.0 0.0 0.0 0.0 0.0 0.0 0.0
0.0 0.0 0.0 0.0 0.0 0.0 0.0 0.0
0.0 0.0 0.0 0.0 0.0 0.0 0.0 0.0
0.0 0.0 0.0 0.0 0.0 0.0 0.0 0.0
0.0 0.0 0.0 0.0 0.0 0.0 0.0 0.0
0.0 0.0 0.0 0.0 0.0 0.0 0.0 0.0
0.0 0.0 0.0 0.0 0.0 0.0 0.0 0.0
0.0 0.0 0.0 0.0 0.0 0.0 0.0 0.0
0.0 0.0 0.0 0.0 0.0 0.0 0.0 0.0
0.0 0.0 0.0 0.0 0.0 0.0 0.0 0.0
0.0 0.0 0.0 0.0 0.0 0.0 0.0 0.0

tfl.pseudo_qconst3 i1 [1, 4, 1, 32] scale=1.2453817 zero_point=-128
00000000: 8080 8080 8080 8080 8080 8080 8080 8080
00000010: 8080 8080 8080 8080 8080 8080 8080 8080
00000020: 8080 8080 8080 8080 8080 8080 8080 8080
00000030: 8080 8080 8080 8080 8080 8080 8080 8080
00000040: 8080 8080 8080 8080 8080 8080 8080 8080
00000050: 8080 8080 8080 8080 8080 8080 8080 8080
00000060: 8080 8080 8080 8080 8080 8080 8080 8080
00000070: 8080 8080 8080 8080 8080 8080 8080 8080
0.0 0.0 0.0 0.0 0.0 0.0 0.0 0.0
0.0 0.0 0.0 0.0 0.0 0.0 0.0 0.0
0.0 0.0 0.0 0.0 0.0 0.0 0.0 0.0
0.0 0.0 0.0 0.0 0.0 0.0 0.0 0.0
0.0 0.0 0.0 0.0 0.0 0.0 0.0 0.0
0.0 0.0 0.0 0.0 0.0 0.0 0.0 0.0
0.0 0.0 0.0 0.0 0.0 0.0 0.0 0.0
0.0 0.0 0.0 0.0 0.0 0.0 0.0 0.0
0.0 0.0 0.0 0.0 0.0 0.0 0.0 0.0
0.0 0.0 0.0 0.0 0.0 0.0 0.0 0.0
0.0 0.0 0.0 0.0 0.0 0.0 0.0 0.0
0.0 0.0 0.0 0.0 0.0 0.0 0.0 0.0
0.0 0.0 0.0 0.0 0.0 0.0 0.0 0.0
0.0 0.0 0.0 0.0 0.0 0.0 0.0 0.0
0.0 0.0 0.0 0.0 0.0 0.0 0.0 0.0
0.0 0.0 0.0 0.0 0.0 0.0 0.0 0.0

tfl.pseudo_qconst4 i1 [1, 2, 1, 40] scale=0.101960786 zero_point=-128
00000000: 8080 8080 8080 8080 8080 8080 8080 8080
00000010: 8080 8080 8080 8080 8080 8080 8080 8080
00000020: 8080 8080 8080 8080 8080 8080 8080 8080
00000030: 8080 8080 8080 8080 8080 8080 8080 8080
00000040: 8080 8080 8080 8080 8080 8080 8080 8080
0.0 0.0 0.0 0.0 0.0 0.0 0.0 0.0
0.0 0.0 0.0 0.0 0.0 0.0 0.0 0.0
0.0 0.0 0.0 0.0 0.0 0.0 0.0 0.0
0.0 0.0 0.0 0.0 0.0 0.0 0.0 0.0
0.0 0.0 0.0 0.0 0.0 0.0 0.0 0.0
0.0 0.0 0.0 0.0 0.0 0.0 0.0 0.0
0.0 0.0 0.0 0.0 0.0 0.0 0.0 0.0
0.0 0.0 0.0 0.0 0.0 0.0 0.0 0.0
0.0 0.0 0.0 0.0 0.0 0.0 0.0 0.0
0.0 0.0 0.0 0.0 0.0 0.0 0.0 0.0
