assist_satellite/wakewords/openWakeWord/hey_rhasspy_v0.1.tflite (tflite, 416140 bytes, 9 tensors)

Const_1 f4 [64]
0	0x3e016a00	0.12638092
1	0x3e4c2526	0.19936046
2	0x3e320071	0.17382981
3	0x3dabc740	0.08387613
4	0x3e21bc4f	0.1579449
5	0x3e01417b	0.12622635
6	0x3d80805d	0.06274483
7	0x3e2132bc	0.1574201
8	0x3e0695e3	0.13143115
9	0x3e1c44ca	0.15260616
10	0x3e3a5736	0.18197331
11	0x3df447b0	0.11927736
12	0x3e0097e9	0.12557949
13	0x3d8f30f3	0.06991758
14	0x3e07662c	0.13222569
15	0x3dc4d329	0.09610588
16	0x3e157c1a	0.14598122
17	0x3e1810fb	0.14850228
18	0x3e36154b	0.1778156
19	0x3e17a4ce	0.14808962
20	0x3de71f89	0.11285312
21	0x3e04c8fa	0.12967291
22	0x3e1e43fd	0.15455623
23	0x3e295b32	0.16538695
24	0x3dee373f	0.11631631
25	0x3e138452	0.14405945
26	0x3e1dd2f9	0.15412511
27	0x3dc59f39	0.0964951
28	0x3dc2cf10	0.0951215
29	0x3dd16985	0.102252044
30	0x3e0348f2	0.12820795
31	0x3e458040	0.19287205
32	0x3e495f45	0.19665249
33	0x3dab2413	0.0835649
34	0x3e2ea9ce	0.17056963
35	0x3e5a7aea	0.2133595
36	0x3da5073a	0.08058019
37	0x3e2af950	0.16696668
38	0x3e27844e	0.16359064
39	0x3def80f5	0.116945185
40	0x3debf0c6	0.11520533
41	0x3e32f261	0.17475273
42	0x3e08e181	0.13367273
43	0x3e01476a	0.12624899
44	0x3dc68cee	0.09694849
45	0x3dd707c5	0.10499529
46	0x3e0abf3c	0.13549513
47	0x3e1f5836	0.15560994
48	0x3e04ff27	0.12987958
49	0x3dec276d	0.11530957
50	0x3e3f46c2	0.18679336
51	0x3e06e023	0.13171439
52	0x3e271fca	0.1632072
53	0x3daf77c5	0.08567766
54	0x3db9e7d9	0.090774246
55	0x3e1b9976	0.1519526
56	0x3e1f09e0	0.15531111
57	0x3e3d2ff8	0.1847533
58	0x3e33bf2f	0.175534
59	0x3e150a09	0.1455461
60	0x3de0488a	0.10951336
61	0x3e04ec8a	0.12980857
62	0x3e21d72c	0.15804738
63	0x3e1b6b16	0.15177569

Const_2 f4 [64]
0	0x3fbd174b	1.4772733
1	0x3f8c472b	1.0959219
2	0x3f77a88c	0.9674156
3	0x3f808edb	1.0043596
4	0x3f91283c	1.1340404
5	0x3f9cef10	1.2260456
6	0x3f9175e3	1.1364101
7	0x3fae294e	1.3606355
8	0x3fa5fb3b	1.2967294
9	0x3fae9bd0	1.36413
10	0x3f86ea7c	1.0540309
11	0x3f9f7eeb	1.2460607
12	0x3f998ba5	1.1995741
13	0x3f8616e6	1.0475738
14	0x3fa3b1ac	1.2788596
15	0x3f93066d	1.1486336
16	0x3f7f481c	0.99719405
17	0x3fc01d75	1.500899
18	0x3f3b7ca4	0.7323706
19	0x3faebe10	1.3651752
20	0x3f9cefa9	1.2260638
21	0x3f9610ea	1.1723912
22	0x3fa3bd11	1.2792073
23	0x3f86f82c	1.0544486
24	0x3f956670	1.1671886
25	0x3f83094d	1.0237213
26	0x3fa6255e	1.2980154
27	0x3f94dbf6	1.1629627
28	0x3fa63bab	1.2986959
29	0x3fb13e47	1.384713
30	0x3f97778e	1.183336
31	0x3f6512ab	0.8948161
32	0x3f8ae364	1.0850644
33	0x3f916c67	1.1361207
34	0x3f862f62	1.048321
35	0x3f78b147	0.97145504
36	0x3f98a41b	1.1925081
37	0x3fbd93f6	1.4810779
38	0x3fa99a38	1.3250189
39	0x3fa4800e	1.2851579
40	0x3f8aa82c	1.0832572
41	0x3f9972a8	1.1988115
42	0x3f9b9fd7	1.2158154
43	0x3f97477d	1.1818691
44	0x3f9b7a83	1.2146763
45	0x3f9df412	1.2340109
46	0x3f913cd7	1.1346692
47	0x3f6dd2f8	0.9290004
48	0x3fb1768b	1.3864301
49	0x3fa7e5dc	1.3117023
50	0x3f9893ab	1.1920065
51	0x3f9caf61	1.2241021
52	0x3f7f462c	0.9971645
53	0x3fbde729	1.483617
54	0x3f65dd41	0.8979073
55	0x3f6afc92	0.9179164
56	0x3f9d08fb	1.2268366
57	0x3f669c2d	0.90082055
58	0x3fb32784	1.3996434
59	0x3fab9911	1.3406087
60	0x3fa1a884	1.2629552
61	0x3fa00e04	1.2504277
62	0x3f8c95ea	1.098325
63	0x3fc1530c	1.5103469

Const_3 f4 [64]
0	0xbdf22b8f	-0.118247144
1	0xbe4ac29e	-0.19800803
2	0xbe538b86	-0.20658693
3	0xbeaf09aa	-0.3418706
4	0xbe9f0c25	-0.31063953
5	0x3dea18fb	0.11430546
6	0xbe10cc96	-0.14140543
7	0xbe2089e7	-0.15677606
8	0xbe64a40e	-0.22328207
9	0xbe3c104b	-0.1836559
10	0xbea8ac70	-0.3294406
11	0x3c345b4e	0.011008097
12	0xbea962c5	-0.33083168
13	0xbe95db4b	-0.2926887
14	0xbe3554aa	-0.17708078
15	0xbe79dae7	-0.24399911
16	0xbec6d47e	-0.38833994
17	0x3e16aab2	0.14713553
18	0xbf237870	-0.6385565
19	0x3ddd870e	0.10816775
20	0xbcf2498b	-0.029576084
21	0x3de1bb59	0.11022062
22	0xbe3184af	-0.17335771
23	0xbe9d7c61	-0.30758956
24	0xbda4964a	-0.08036478
25	0xbe2856b9	-0.16439332
26	0xbe5547d1	-0.20828177
27	0x3ce5a431	0.028032394
28	0xbe47cab4	-0.19510919
29	0x3d8beb48	0.06831986
30	0xbe569c26	-0.20958003
31	0xbede83cc	-0.43459928
32	0xbe3a33ed	-0.1818387
33	0xbe96e828	-0.29473996
34	0xbebe34bc	-0.37149608
35	0xbe7bec87	-0.24601947
36	0xbe2bd1e7	-0.1677929
37	0xbe261a54	-0.16220981
38	0x3dccf633	0.10007896
39	0xbcdb1fc7	-0.026748551
40	0x3cc10d30	0.023565859
41	0xbd59d1ab	-0.05317847
42	0xbd5d8aa5	-0.0540873
43	0xbe2de831	-0.16983105
44	0xbc914e47	-0.01773752
45	0xbded9938	-0.1160149
46	0xbe559c24	-0.20860344
47	0xbe6ab1a3	-0.22919326
48	0x3d78c7dd	0.06073748
49	0x3d52fb0d	0.051508952
50	0xbdbee245	-0.09320501
51	0xbdb9e21d	-0.09076331
52	0xbebff153	-0.37488803
53	0xbce840d1	-0.02835122
54	0xbee7f42f	-0.45303485
55	0xbe6badf4	-0.23015577
56	0xbe2bf039	-0.16790856
57	0xbee5c6d4	-0.44878256
58	0xbdb34321	-0.08753038
59	0xbdcd23e4	-0.10016611
60	0x3baeac03	0.005330564
61	0xbcb3382a	-0.021877367
62	0xbeadea05	-0.33967605
63	0x3d8706bf	0.065930836

Const_5 f4 [64]
0	0x3ea9e787	0.33184454
1	0x3df8b29e	0.121434435
2	0x3de6888e	0.112565145
3	0x3de019a7	0.10942393
4	0x3d93f24d	0.072239496
5	0x3e34ebfb	0.17668144
6	0x3d971d30	0.07378614
7	0x3d2bfb8c	0.04198794
8	0x3e6b2591	0.22963549
9	0x3d6446e0	0.055731654
10	0x3e24bdeb	0.16088073
11	0xbd9451df	-0.07242178
12	0x3ed387d8	0.41314578
13	0xbda5b5dc	-0.080913275
14	0xbd588f14	-0.052870825
15	0x3e097e69	0.13427128
16	0x3db5ba9c	0.088734835
17	0x3cad3a87	0.021146072
18	0x3d7ef60a	0.06224636
19	0x3de0b608	0.1097222
20	0x3ea07fe6	0.3134758
21	0xbd9bcfd7	-0.07608002
22	0x3e8d29db	0.27570996
23	0x3d0eaa14	0.034830168
24	0x3de937ee	0.11387621
25	0x3d60fd31	0.054928962
26	0x3e93a30c	0.28835332
27	0x3e05bc60	0.1306014
28	0x3e478c70	0.19487166
29	0x3dff772a	0.124739006
30	0x3e17549d	0.14778371
31	0x3d8dc7cb	0.06922873
32	0xbdf82322	-0.12116076
33	0x3de785e4	0.113048345
34	0x3e8b1c1c	0.27169883
35	0x3df29610	0.118450284
36	0x3d1a8c4a	0.037731446
37	0x3eac0aff	0.3360214
38	0xbd52a686	-0.05142834
39	0x3dbb7314	0.09152809
40	0xbd6398cb	-0.055565637
41	0xbd3d57bb	-0.046226244
42	0x3db74c41	0.08950091
43	0x3cf1674d	0.029468203
44	0x3e1167c8	0.14199746
45	0x3e1a8117	0.15088306
46	0xbdab84e9	-0.0837496
47	0xbe11a99c	-0.14224857
48	0x3ea239d1	0.31684735
49	0x3e3439be	0.17600152
50	0xbcc2658d	-0.023730064
51	0x3e2603b4	0.1621235
52	0x3e0642a5	0.1311136
53	0x3c98c9de	0.018650945
54	0x3c7f56b9	0.015584641
55	0x3e346632	0.1761711
56	0x3eaa6304	0.33278668
57	0x3e89d15a	0.26917535
58	0x3de72a2b	0.1128734
59	0x3e91b871	0.2846103
60	0x3d2a4a8c	0.041575
61	0xbd099cd5	-0.033596832
62	0x3e08271c	0.13296169
63	0x3dcf85cb	0.10132941

Const_6 f4 [64]
0	0x3e5ca5a2	0.21547559
1	0x3f8e0208	1.109437
2	0x3f9489ca	1.160455
3	0x3f868f87	1.0512551
4	0x3f9db4f0	1.2320843
5	0x3f8638c0	1.0486069
6	0x3f9f27b0	1.2433987
7	0x3fb3ed28	1.4056749
8	0x3fbfb7ff	1.4978026
9	0x3f9726b4	1.1808686
10	0x3f5eb086	0.86988103
11	0x3f7e3d9f	0.99312776
12	0x3f3e23fc	0.7427366
13	0x3fd1b4c7	1.6383294
14	0x3fc9b3fa	1.575805
15	0x3f88e049	1.0693446
16	0x3fc2eeee	1.5229166
17	0x3fc077c2	1.5036547
18	0x3fc2442c	1.5177054
19	0x3fb6cf9b	1.4282106
20	0x3f3b72ec	0.7322223
21	0x3ff2e088	1.8974771
22	0x3ecdb8df	0.40180108
23	0x3fb23000	1.3920898
24	0x3f8d5334	1.1041017
25	0x3fa350e2	1.2759058
26	0x3f5b8486	0.8574909
27	0x3fa5eb8b	1.2962507
28	0x3f80fb34	1.0076661
29	0x3fa4ec80	1.2884674
30	0x3f9e3bb5	1.2361971
31	0x3fb54438	1.4161444
32	0x3faf06d8	1.3673964
33	0x3f5cd4ed	0.862624
34	0x3ecec7bc	0.4038676
35	0x3fc05c7b	1.5028223
36	0x3fde64aa	1.737447
37	0x3ef818e2	0.48456484
38	0x3fdca7d1	1.7238714
39	0x3f8a55ae	1.0807397
40	0x3f8ea027	1.1142625
41	0x3faa3ca7	1.329976
42	0x3fb48492	1.4102957
43	0x3fe373a6	1.7769668
44	0x3f68c58a	0.9092642
45	0x3f9cf5ef	1.2262553
46	0x3fc7cf89	1.561021
47	0x3fd326a9	1.6496173
48	0x3f64c2f5	0.8935998
49	0x3feebf05	1.8652045
50	0x3f8f7746	1.1208274
51	0x3f7c24c4	0.984936
52	0x3f8a7d05	1.0819403
53	0x3fa65178	1.2993612
54	0x3fa36a29	1.2766773
55	0x3f836873	1.026625
56	0x3ea2262f	0.31669757
57	0x3f792c3e	0.97333133
58	0x3fd47e90	1.6601124
59	0x3f82990a	1.0202954
60	0x3fa52167	1.2900819
61	0x3f9bd286	1.2173622
62	0x3fa5e851	1.2961522
63	0x3f89dfbe	1.0771406

Const_7 f4 [64]
0	0xbf407b12	-0.7518779
1	0xbdcc5a48	-0.09978157
2	0xbd66eaf6	-0.05637642
3	0xbd444dde	-0.047925822
4	0x3cc68143	0.024231559
5	0xbdc99ad7	-0.098439865
6	0x3ea4cfcc	0.32189786
7	0xbd260176	-0.040528737
8	0xbdd1a93b	-0.10237356
9	0xbdbb4dd2	-0.091457024
10	0xbe40f3d4	-0.18843013
11	0xbe351dbd	-0.17687126
12	0xbea9022f	-0.33009478
13	0xbd101969	-0.035180483
14	0x3badf9ee	0.005309335
15	0xbba504fa	-0.0050359936
16	0x3d99b77a	0.075056985
17	0x3d29268a	0.04129652
18	0xbd2872c8	-0.04112509
19	0xbc816f6f	-0.015800206
20	0xbeb68cec	-0.3565439
21	0xbdd35314	-0.1031858
22	0xbf14c98d	-0.5812004
23	0x3d14408a	0.03619436
24	0x3d25ea40	0.0405066
25	0xbcfb1129	-0.030647831
26	0xbe37d1cf	-0.1795113
27	0x3e1a286f	0.15054487
28	0xbc997f93	-0.01873759
29	0x3dbba9a2	0.09163214
30	0x39987b0d	0.0002908338
31	0xbc213467	-0.009839154
32	0xbe0e8cac	-0.1392085
33	0xbe145ae5	-0.14487799
34	0xbf00d3a8	-0.5032296
35	0x3c8558e5	0.01627774
36	0xbe01b760	-0.12667608
37	0xbee18b47	-0.44051573
38	0x3e3b65b7	0.1830052
39	0xbd18f983	-0.037347328
40	0xbdab5177	-0.083651476
41	0xbddfd20b	-0.109287344
42	0xbcdf6589	-0.027270095
43	0x3d7ad075	0.061233956
44	0xbe19aaa3	-0.15006499
45	0x3d39de96	0.04537829
46	0xbb99e67f	-0.0046966667
47	0xbccecadb	-0.025243213
48	0xbe825e46	-0.2546255
49	0x3e3a3df2	0.18187693
50	0x3da8b77c	0.08238122
51	0x3c69927b	0.014256115
52	0x3da09860	0.07841563
53	0xbe1abd14	-0.1511119
54	0xbdfa16a9	-0.12211353
55	0xbd717cbb	-0.058956843
56	0xbf24ad9e	-0.6432742
57	0xbe3ffaed	-0.18748064
58	0xbd87d38c	-0.06632146
59	0x3d93e8a8	0.0722211
60	0x3de7e136	0.113222525
61	0x3d7eb128	0.062180668
62	0x3e02e200	0.12781525
63	0xbe2a7b6c	-0.16648644

MatMul f4 [64, 1536]
0	0xbea5c426	-0.32376212
1	0x3df3543c	0.11881301
2	0xbdc6c967	-0.09706383
3	0xbe851922	-0.25995737
4	0x3e2635b8	0.1623143
5	0x3e91435d	0.28371707
6	0x3d367ab1	0.0445506
7	0xbc80463d	-0.015658492
8	0xbe851f5a	-0.26000482
9	0x3dd8f7ef	0.105941646
10	0xbd0f39cb	-0.034967225
11	0x3e932d2f	0.2874541
12	0xbeac8272	-0.33693272
13	0x3d14289a	0.036171533
14	0xbe66b15e	-0.22528598
15	0xbed71807	-0.4201052
16	0xbd60d4f4	-0.054890588
17	0x3e9640bb	0.2934626
18	0x3d1e99e7	0.03872099
19	0x3d200640	0.03906846
20	0x3deeb91c	0.116564006
21	0x3dc2a5f1	0.09504307
22	0xbe23bb14	-0.15989333
23	0xbd44f71b	-0.04808722
24	0xbd998f0c	-0.07497987
25	0x3e2e4362	0.17017892
26	0xbde26f21	-0.110563524
27	0xbbe327c7	-0.006932232
28	0x3e3b2cea	0.18278852
29	0x3e56203b	0.20910732
30	0xbe3d0509	-0.18458952
31	0x3e901777	0.28142902
32	0xbd3ad3d4	-0.04561217
33	0x3c335444	0.010945383
34	0xbe1e255e	-0.15443942
35	0x3e6afc34	0.2294777
36	0x3e3b64b4	0.18300134
37	0x3e862143	0.26197252
38	0x3dd5add8	0.10433549
39	0x3e14bb5f	0.14524601
40	0xbd470e0d	-0.048597384
41	0x3cfeb0b4	0.031090118
42	0x3dc8760a	0.09788139
43	0xbe333365	-0.17500074
44	0xbd1d28ac	-0.038368866
45	0x3dc8fc09	0.09813697
46	0xbd808a15	-0.06276337
47	0x3d4faf7b	0.05070446
48	0xbe6c8128	-0.23096144
49	0x3ddcf8da	0.10789652
50	0xbe636a63	-0.22208552
51	0xbd99784e	-0.074936494
52	0x3e50c3ee	0.20387241
53	0x3e87462b	0.2642072
54	0xbe062075	-0.13098319
55	0xbc62233c	-0.013802346
56	0xbdac1ff6	-0.084045336
57	0x3e24fbb1	0.16111638
58	0xbe1599fe	-0.14609525
59	0xbeed7f7a	-0.4638632
60	0xbdf2f764	-0.11863592
61	0x3ddea867	0.10871964
62	0xbdebba9e	-0.11510204
63	0xbe0e133a	-0.13874522
64	0x3e431109	0.19049467
65	0x3e19177b	0.14950363
66	0x3e22f003	0.1591187
67	0x3c251ce8	0.010077693
68	0x3d634aab	0.05549113
69	0xbb9787c9	-0.004624341
70	0x3d1c3203	0.038133632
71	0x3e0a4b6f	0.13505338
72	0xbe0bdd4a	-0.13658634
73	0xbdefd0f7	-0.11709779
74	0x3d7d14db	0.061787467
75	0xbe348d83	-0.17632107
76	0xbe80e448	-0.25174165
77	0x3e75d7d1	0.24008109
78	0xbe1d404d	-0.1535656
79	0xbd81e679	-0.06342787
80	0x3e230b35	0.15922244
81	0xbe11a147	-0.14221679
82	0x3d9b22d6	0.07575004
83	0x3debbf60	0.11511111
84	0x3d1248c7	0.035713937
85	0x3bd87167	0.0066053155
86	0x3e31dcba	0.17369357
87	0xbe687eb9	-0.22704591
88	0x3df29c34	0.118462
89	0x3e12e712	0.14345959
90	0x3d433734	0.047660068
91	0x3e5d9358	0.21638238
92	0x3e344f96	0.17608485
93	0xbe93ae10	-0.28843737
94	0xbdbd47e1	-0.092422254
95	0x3d4882f5	0.048953015
96	0xbe9580d0	-0.2919984
97	0x3de58f9f	0.11209034
98	0xbceed7c4	-0.02915562
99	0x3e177693	0.14791326
100	0x3e70f70a	0.23531738
101	0x3e5cb74f	0.21554302
102	0x3de68cf4	0.112573534
103	0xbe1431de	-0.14472148
104	0xbe550331	-0.20801999
105	0x3e4dd8c5	0.20102222
106	0x3cc5d656	0.024150055
107	0x3e48ed59	0.19621791
108	0x3d92bc9d	0.071648814
109	0x3da74652	0.081677094
110	0xbed20983	-0.41022882
111	0xbe89e235	-0.26930395
112	0x3e0f4b77	0.13993631
113	0x3e1e3f02	0.15453723
114	0x3c173eca	0.009231279
115	0xbbd31e9d	-0.0064428584
116	0xbe122394	-0.14271384
117	0xbd68268a	-0.05667738
118	0x3d01d706	0.031699203
119	0xbea804c0	-0.32816124
120	0x3bc17337	0.0059036273
121	0x3e740938	0.23831642
122	0xbda1e946	-0.079058215
123	0xbe1fd480	-0.15608406
124	0x3e2de69a	0.16982499
125	0x3d577699	0.052603338
126	0xbdbfa5e2	-0.093578115
127	0x3de7a267	0.11310273
128	0xbd1019cf	-0.035180863
129	0xbd1ea5a2	-0.03873218
130	0xbdf79c04	-0.120903045
131	0x3e88cbf2	0.26718098
132	0x3de052d4	0.10953298
133	0x3e800878	0.2500646
134	0x3e84591e	0.2584924
135	0x3e3d33ab	0.18476741
136	0xbe2cf6c5	-0.1689101
137	0xbbe52451	-0.0069928546
138	0x3e0d14d6	0.1377748
139	0xbe2ca359	-0.16859187
140	0xbd91125a	-0.070835784
141	0xbd9f640a	-0.07782753
142	0x3c53dd1d	0.0129311355
143	0xbca6e0ff	-0.020370958
144	0xbc31805b	-0.010833825
145	0xbca135ba	-0.01967894
146	0xbe11acb1	-0.14226033
147	0xbe387111	-0.18011881
148	0x3e54cd66	0.20781478
149	0x3e1b05dc	0.15138954
150	0xbdd28769	-0.10279734
151	0xbc1c7303	-0.009548905
152	0x3eb0bae9	0.345176
153	0x3de8f43f	0.11374711
154	0xbe69da72	-0.22837237
155	0xbe313c9c	-0.17308277
156	0x3dc3451f	0.09534668
157	0xbe1babd8	-0.15202272
158	0xbe17f973	-0.14841251
159	0xbe0d9dd9	-0.13829745
160	0x3df1153b	0.117716275
161	0x3e92cc46	0.28671473
162	0x3dfaf270	0.122532725
163	0xbe2eb668	-0.1706177
164	0x3e0f591f	0.13998841
165	0x3be15196	0.006876181
166	0x3dbc8b0b	0.09206208
167	0x3cb7c9ab	0.02243503
168	0xbdc7d3c6	-0.097571895
169	0xbda9a088	-0.08282572
170	0x3e6aa71c	0.2291531
171	0x3c9acbf8	0.018896088
172	0xbcd8d87e	-0.026470419
173	0x3e1f9148	0.15582764
174	0xbe1b84ff	-0.15187453
175	0xbe1dac95	-0.15397866
176	0x3ce9c8ab	0.028538069
177	0xbd6cb75b	-0.05779205
178	0x3dc425b7	0.09577506
179	0xbd73092a	-0.05933491
180	0x3e1b8346	0.15186796
181	0xbd95f466	-0.07322006
182	0xbd8f65a7	-0.070018105
183	0xbe3dc542	-0.18532279
184	0xbd6ab27f	-0.057299133
185	0x3e1905fe	0.14943692
186	0x3d14cbe0	0.036327243
187	0x3df5e832	0.12007178
188	0xbcff3477	-0.031152947
189	0xbe09900a	-0.13433853
190	0xbd35c101	-0.044373516
191	0x3d8da30f	0.069158666
192	0x3b4a5969	0.0030876047
193	0xbcd840f7	-0.026398165
194	0x3d9b0bd7	0.07570618
195	0xbe8780c7	-0.26465437
196	0x3e244cea	0.16044965
197	0x3e48dcc9	0.19615473
198	0x3da6837e	0.08130549
199	0xbdf40333	-0.11914673
200	0xbe3fe1f3	-0.18738537
201	0x3e679abb	0.22617619
202	0x3d3e8d36	0.046521388
203	0x3e32ae8a	0.17449394
204	0x3d7a4cf8	0.06110856
205	0x3dbb74de	0.0915315
206	0xbc71c272	-0.014755832
207	0x3e01940d	0.12654133
208	0x3e377924	0.17917305
209	0xbdeb0284	-0.11475089
210	0x3daf2393	0.08551707
211	0xbdb87b72	-0.0900792
212	0x3c706adb	0.014673914
213	0xbcb8f1c1	-0.022576215
214	0xbc6aad0e	-0.014323486
215	0xbe1e248f	-0.15443633
216	0x3d2a13f5	0.04152294
217	0x3e0b4d78	0.1360377
218	0x3d234d34	0.03986855
219	0x3d02f9cf	0.031976517
220	0x3e009cf0	0.12559867
221	0x3bbfc586	0.005852404
222	0xbd2abde6	-0.041685008
223	0x3dfbad42	0.12288906
224	0xbd6ab028	-0.057296902
225	0xbeb64718	-0.35601115
226	0xbd11f679	-0.035635445
227	0xbd8cd7f8	-0.0687713
228	0x3e1d489f	0.15359734
229	0x3eac308e	0.33630794
230	0x3e9426d0	0.28935862
231	0x3dc0741f	0.09397148
232	0xbca77105	-0.020439634
233	0xbde0ec9c	-0.1098263
234	0x3dfaabc0	0.1223979
235	0xbd85164a	-0.06498392
236	0xbe84cee0	-0.25939083
237	0xbe2aa24c	-0.16663474
238	0xbc898ba1	-0.016790213
239	0xbd25dbe8	-0.040492922
240	0x3e9ae638	0.30253768
241	0xbe27c6c5	-0.16384418
242	0xbe64b447	-0.22334395
243	0xbd48300f	-0.048873957
244	0x3e42eab3	0.19034843
245	0x3d8464ab	0.064645134
246	0xbdb1da6b	-0.08684238
247	0xbc5f1855	-0.013616641
248	0x3d3c2589	0.045934234
249	0x3dd5c1e2	0.10437371
250	0xbdd80e0b	-0.105495535
251	0xbe01f96b	-0.12692802
252	0x3e11d2ca	0.14240566
253	0xbe1e190f	-0.15439247
254	0x3e3d49ba	0.18485156
255	0xbec756a5	-0.38933292

MatMul_1 f4 [64, 64]
0	0x3e900dce	0.28135532
1	0x3e093b10	0.13401437
2	0x3e8f6a82	0.28010947
3	0xbed82d8d	-0.42222252
4	0x3e03f8b3	0.1288784
5	0x3ef10493	0.47073802
6	0xbf210aec	-0.6290729
7	0x3e73767f	0.23775671
8	0x3e2229cb	0.15836255
9	0x3b7f6e62	0.0038975705
10	0xbec156c2	-0.37761503
11	0x3d57d4d9	0.05269322
12	0x3e2966f6	0.16543183
13	0xbf35b159	-0.70973736
14	0x3e840c3e	0.2579059
15	0xbe094bc0	-0.13407803
16	0x3e980902	0.29694372
17	0x3e32aa80	0.17447853
18	0x3d269400	0.040668488
19	0xbb2dbeda	-0.0026511461
20	0xbb9a53f8	-0.004709717
21	0x3cfa1193	0.030525958
22	0xbeb1c141	-0.34717754
23	0x3ea61dc8	0.32444596
24	0x3d88c656	0.066784546
25	0x3da2e49b	0.07953759
26	0xbe617831	-0.22018506
27	0x3eb0e7e0	0.34551907
28	0xbe2b36d6	-0.16720137
29	0xbd22e21a	-0.03976641
30	0xbe3ea83d	-0.18618865
31	0x3c809682	0.015696768
32	0xbda49933	-0.08037033
33	0xbf27a349	-0.6548353
34	0x3ef68d70	0.48154783
35	0x3edda871	0.43292573
36	0xbf2a6bcb	-0.6657073
37	0xba88707b	-0.0010409498
38	0x3e5dfee1	0.2167926
39	0x3db18d95	0.08669583
40	0x3e5c243f	0.21498202
41	0x3ecf3e0e	0.4047703
42	0xbe39e438	-0.18153465
43	0xbe86d14e	-0.26331562
44	0x3e00491c	0.12527889
45	0xbefa52f8	-0.48891425
46	0xbdbd7a2e	-0.092518196
47	0x3e50af1e	0.20379302
48	0x3e7da6dc	0.24770683
49	0x3dec3993	0.11534419
50	0xbd79065a	-0.060797073
51	0x3daa854b	0.08326205
52	0x3e42a8fc	0.19009775
53	0xbe95ba79	-0.2924383
54	0xbe870a5a	-0.26375085
55	0x3ea5bd13	0.32370815
56	0xbe340333	-0.17579345
57	0x3d209e13	0.03921325
58	0xbcb898d0	-0.022533804
59	0x3e83cafe	0.25740808
60	0x3ec30f24	0.3809749
61	0x3e902f96	0.28161305
62	0xbde404f7	-0.111337595
63	0x3decb0a7	0.11557131
64	0xbe04fc03	-0.1298676
65	0xbc28dc6a	-0.010306457
66	0x3d3e7787	0.04650071
67	0x3e30caa7	0.17264806
68	0xbdd6e76a	-0.104933575
69	0x3e97e9a4	0.2967044
70	0x3ec3513a	0.38147908
71	0xbe31f6db	-0.17379324
72	0xbd7e7a0d	-0.062128115
73	0x3d0bac7e	0.03410005
74	0x3cdc6a9b	0.026906302
75	0xbe39ff57	-0.1816381
76	0xbe4776ef	-0.19478963
77	0x3ee5ff33	0.44921264
78	0x3ce939b3	0.028469896
79	0xbbf355f1	-0.0074260165
80	0x3c6925eb	0.014230232
81	0xbb357f2c	-0.0027694209
82	0x3d46fe18	0.048582166
83	0xbe617129	-0.22015823
84	0x3e701993	0.23447256
85	0x3e3554e4	0.17708164
86	0x3e0ef74c	0.13961524
87	0xbdbfe4cb	-0.09369811
88	0x3e13d8c1	0.14438154
89	0xbe96280c	-0.29327428
90	0x3cc7166d	0.024302686
91	0xbe00732b	-0.12543933
92	0xbdec1031	-0.11526526
93	0xbd048135	-0.032349784
94	0x3db602a6	0.08887224
95	0x3e8c0413	0.27346858
96	0x3c399670	0.011327371
97	0x3d9a6660	0.07539058
98	0x3e8193d4	0.25308096
99	0xbd622689	-0.05521253
100	0xbe44c1eb	-0.19214599
101	0xbeb4434f	-0.35207602
102	0x3f1ea27d	0.6196669
103	0xbea3d162	-0.31995684
104	0x3e5d9d85	0.2164212
105	0x3d86a933	0.06575241
106	0x3ecb4c5f	0.39706704
107	0xbe2b1179	-0.16705884
108	0x3d1ed7fd	0.0387802
109	0xbe4627f4	-0.19351178
110	0xbe61ac82	-0.22038463
111	0x3de83eca	0.11340101
112	0xbda29161	-0.07937885
113	0xbd994d6a	-0.07485469
114	0xbe5fcba2	-0.21855024
115	0x3e53ee9c	0.20696491
116	0xbc6efaa3	-0.014586124
117	0x3eb5ea88	0.35530496
118	0xbe52fa18	-0.20603216
119	0x3e075588	0.13216221
120	0xbe7e677d	-0.24844165
121	0x3db99257	0.09061115
122	0xbd026b73	-0.031840753
123	0xbeab6eca	-0.33482963
124	0x3e14476e	0.14480373
125	0xbe08c4da	-0.13356343
126	0xbe9c6d48	-0.30552125
127	0xbe93300e	-0.287476
128	0xbee74215	-0.45167604
129	0xbacb7291	-0.0015521814
130	0xbd05689f	-0.032570478
131	0x3e93e7dd	0.28887835
132	0xbe90b2d3	-0.28261432
133	0x3e0a3b4f	0.13499187
134	0x3e40aa0d	0.18814869
135	0xbe4f080e	-0.20217916
136	0xbdbcadc7	-0.09212833
137	0x3e3562f5	0.1771353
138	0xbe84f49d	-0.25967875
139	0xbe1070d2	-0.14105538
140	0xbf0ae95e	-0.5426234
141	0x3ca8b29e	0.020592984
142	0x3e0ca425	0.13734491
143	0xbdfdf0fd	-0.123994805
144	0x3e4020d4	0.18762523
145	0x3e29aebc	0.16570562
146	0x3cfc5e24	0.030806608
147	0xbea28d51	-0.3174844
148	0x3f26509f	0.6496677
149	0x3e27404f	0.16333126
150	0xbebb45e3	-0.36576757
151	0xbc83e9f9	-0.016102778
152	0x3cab7971	0.020931931
153	0xbe5bdcf4	-0.21471006
154	0xbebe2af5	-0.3714215
155	0x3de1116d	0.10989652
156	0x3d86d119	0.06582851
157	0xbee06d69	-0.43833473
158	0xbe961601	-0.29313663
159	0x3e4a5f5b	0.19762938
160	0xbccaa3d4	-0.024736322
161	0x3da121c7	0.07867771
162	0x3e60903d	0.21930023
163	0x3d9ec1a8	0.07751781
164	0xbe5d5225	-0.21613367
165	0x3e846dd1	0.25865033
166	0x3d8475f1	0.06467808
167	0xbeb6cee1	-0.3570471
168	0x3e525469	0.20540012
169	0xbd151820	-0.03639996
170	0x3e365b91	0.17808367
171	0xbb688321	-0.003547855
172	0x3e847099	0.25867155
173	0xbe8ddf26	-0.2770931
174	0xbd445bb5	-0.04793902
175	0x3d934e63	0.071926855
176	0xbedf6172	-0.43629032
177	0xbbe4e4b0	-0.0069852695
178	0xbd8e357c	-0.06943795
179	0x3c069dbe	0.00821632
180	0xbd87919a	-0.06619568
181	0x3eba46de	0.36382192
182	0xbd5b06a2	-0.053473122
183	0x3e333d01	0.1750374
184	0xbd3c1824	-0.04592146
185	0x3d6bcfbd	0.05757116
186	0xbcf82b17	-0.030293984
187	0xbdcaf153	-0.0990931
188	0x3eb8236d	0.35964528
189	0xbeae8b15	-0.34090486
190	0x3c98c900	0.018650532
191	0xbec42d16	-0.38315648
192	0x3f23dcd6	0.64008844
193	0x3e908199	0.28223875
194	0xbe614b8f	-0.2200148
195	0xbe5ecdf3	-0.21758251
196	0x3ea32b30	0.31868887
197	0x3de94f56	0.11392085
198	0xbedf69b7	-0.43635342
199	0x3d7ebfbd	0.062194575
200	0xbed18e20	-0.40928745
201	0xbd9f332a	-0.07773431
202	0x3e175acd	0.14780731
203	0x3e8189df	0.253005
204	0xbde8b443	-0.11362507
205	0xbe0baca9	-0.13640083
206	0x3e74ac7e	0.23893926
207	0xbebaf812	-0.36517388
208	0xbdce6451	-0.100777276
209	0x3ece699d	0.40314952
210	0xbd9f686f	-0.07783591
211	0x3f0170b6	0.5056261
212	0xbf052614	-0.5201123
213	0x3e348d75	0.17632087
214	0xbe0e5f1a	-0.13903466
215	0x3e84585e	0.2584867
216	0x3e7eb9c9	0.24875559
217	0x3e90ce21	0.28282264
218	0x3de24616	0.11048524
219	0xbec21292	-0.37904793
220	0x3e5e2400	0.2169342
221	0x3ec81c15	0.39083925
222	0xbe9f6728	-0.3113339
223	0x3c0364d5	0.008019646
224	0xbead5d65	-0.33860317
225	0xbe1d219a	-0.15344849
226	0x3e7b11de	0.24518535
227	0x3e52fe82	0.206049
228	0xbd83ec4f	-0.06441557
229	0x3eb9ddf1	0.3630214
230	0x3ce4fe6e	0.027953353
231	0x3e1c6d19	0.15275992
232	0x3d9f81a8	0.07788402
233	0x3e989d22	0.29807383
234	0xbee73c3d	-0.45163146
235	0xbdea4acc	-0.114400476
236	0xbea0393b	-0.31293663
237	0xbea1b66a	-0.31584483
238	0x3ddd49ac	0.108050674
239	0xbd83561b	-0.06412908
240	0x3f096712	0.536729
241	0x3e3cd069	0.18438877
242	0xbcff15e9	-0.031138377
243	0x3e1fc8b2	0.15603903
244	0x3ddcf6da	0.10789271
245	0xbf2fb477	-0.6863474
246	0xbc758d57	-0.014987311
247	0x3e52d8f9	0.20590581
248	0xbd69babe	-0.057062857
249	0xbd359f01	-0.04434109
250	0x3eaa4e54	0.33262885
251	0x3ed6dffc	0.41967762
252	0xbd19ffad	-0.037597347
253	0x3e2d1531	0.16902615
254	0xbe0776c3	-0.13228898
255	0x3f094a83	0.5362932

MatMul_2 f4 [1, 64]
0	0xbbb84c99	-0.0056243655
1	0x3e6a1a68	0.22861636
2	0x3e533dfc	0.20629114
3	0xbe256536	-0.1615189
4	0xbeae47bf	-0.34039113
5	0xbe12f467	-0.14351045
6	0xbe898dc5	-0.26865974
7	0xbee280ee	-0.4423899
8	0xbf2de5b3	-0.6792862
9	0x3e8c2b2b	0.27376685
10	0x3d74d9b7	0.05977794
11	0x3e1f8590	0.15578294
12	0xbd7192ce	-0.058977894
13	0xbf1b8e85	-0.6076434
14	0x3f0995c2	0.5374414
15	0x3e3b0f57	0.1826757
16	0xbf06e5a5	-0.5269416
17	0x3f0c65fe	0.5484313
18	0xbefda62e	-0.49540848
19	0xbee3e905	-0.44513717
20	0xbd7ea003	-0.062164318
21	0xbf61ea5f	-0.88248247
22	0x3e19f4c2	0.15034774
23	0xbed70682	-0.41997153
24	0x3e5a63fc	0.21327204
25	0x3ea12b28	0.31478238
26	0xbd60a9f4	-0.05484958
27	0xbe99ea87	-0.30061743
28	0x3e210f86	0.15728578
29	0x3eaa711e	0.33289427
30	0x3eaa130f	0.33217666
31	0x3ef26bbe	0.47347826
32	0x3ee0d7b1	0.4391456
33	0x3d36a97e	0.044595234
34	0xbe1564ce	-0.14589235
35	0xbf16a881	-0.58850867
36	0xbf429a97	-0.76017135
37	0xbdf6d801	-0.12052918
38	0xbef756a0	-0.48308277
39	0x3e487152	0.19574478
40	0x3e587254	0.21137363
41	0x3eba92d5	0.3644015
42	0xbf04dfba	-0.5190388
43	0xbf4485ff	-0.7676696
44	0x3db308eb	0.08741935
45	0x3eb27acb	0.3485931
46	0xbedeb896	-0.43500203
47	0x3f37235b	0.71538323
48	0xbdb236e8	-0.08701879
49	0xbf4cc1f6	-0.7998346
50	0x3e850e9b	0.25987706
51	0x3dd7e9b5	0.10542623
52	0x3e3f7f8e	0.18701002
53	0x3ecc0d1c	0.39853752
54	0x3eb3d705	0.35124984
55	0x3df766db	0.12080165
56	0xbce61137	-0.02808438
57	0xbdacb554	-0.08433023
58	0xbf22543e	-0.63409793
59	0x3e014769	0.12624897
60	0x3ec961f6	0.3933255
61	0xbe624147	-0.22095214
62	0x3ece5adc	0.40303695
63	0xbe4a42d3	-0.19752054
