assist_satellite/wakewords/openWakeWord/ok_nabu_v0.1.tflite (tflite, 206380 bytes, 9 tensors)

Const_1 f4 [32]
00000000: 8747 5b3d 4b09 283d fc85 093b a3ba b9bc
00000010: 3894 4e3b 2df8 66ba 3baa e1bc b91a 823a
00000020: a3dc c13c 7bb7 ed3a 6f04 1b3d 2ef6 a7bb
00000030: de07 8d3c fa01 dbba 6de1 5bbc 4f0b cabc
00000040: 4821 bc3c da45 85bc c55c a6bc 40f6 3abc
00000050: 1ff2 1fbc 5de9 6bbc 42e8 01b8 1b97 063d
00000060: da3c fabb 95d0 ca39 ed07 66bc 2e00 b0bc
00000070: 7305 263c 7ebc 293c f839 6cbc 7762 bf3c
0.05353501 0.041024487 0.0020984402 -0.022672003 0.003152145 -0.0008810785 -0.027546993 0.0009926177
0.023664778 0.0018136346 0.037846025 -0.0051257825 0.017215665 -0.0016708963 -0.013420445 -0.024663595
0.022965088 -0.01626866 -0.020307908 -0.01141125 -0.009762316 -0.0143989 -3.0972304e-05 0.03285895
-0.0076366486 0.00038683848 -0.014039976 -0.02148446 0.010133135 0.010359881 -0.014418118 0.023362381

Const_2 f4 [32]
00000000: aaff 7d3f 68c0 853f 8747 813f 39d5 803f
00000010: 283a 6f3f 13e2 793f a9ce 863f 7c31 923f
00000020: b558 773f 839e 7d3f 0ac4 883f 4450 853f
00000030: 1705 813f 377b 783f 039a 853f 8bda 873f
00000040: 1b0e 803f 5a80 773f a673 843f 2429 833f
00000050: b077 763f 583e 8d3f 6cb0 833f ba5f 7a3f
00000060: 23f3 813f 098d 833f 8945 883f 6fc9 773f
00000070: abb4 803f 03e7 6c3f f73c 843f 3092 843f
0.9921824 1.0449343 1.0099953 1.006507 0.93448114 0.97610587 1.0531818 1.1421351
0.9661973 0.99069995 1.0684826 1.041512 1.0079678 0.9706301 1.0437626 1.0613569
1.0004305 0.96680224 1.0347793 1.024693 0.9627638 1.1034651 1.0288215 0.9780232
1.0152324 1.0277416 1.064622 0.9679174 1.0055135 0.92539996 1.0331105 1.0357113

Const_3 f4 [32]
00000000: 291d 413b bf1f 8b3c 171b 02bd d8d5 6a3c
00000010: ef4d 72bd aa61 513c 95cb ae3c c247 fe3b
00000020: 2f6f 6b3c ef3d 58bc 9010 083d 9893 5a3c
00000030: 16d9 1ebb 3d5c 133d 57e3 c93c c5d8 143d
00000040: 5d0e e93b 215b 20bd 7a70 a93c bc76 473c
00000050: d3d9 e1bc a2b5 a83c 7b28 5a3c 6260 7c39
00000060: fcb5 89bc ad8d 753b 238c aa3c 23c0 b53b
00000070: 4eac 473c cb7e 49bd bba9 d2bc 53e3 ad3c
0.0029466844 0.016982911 -0.031764116 0.014333211 -0.059156355 0.012779633 0.02133731 0.007760019
0.01436977 -0.01319836 0.03321892 0.013340853 -0.002423828 0.035976637 0.024644537 0.03633954
0.007112308 -0.039149407 0.020683516 0.012174305 -0.027569687 0.020594422 0.013315315 0.00024068498
-0.01681041 0.0037468479 0.020818776 0.005546586 0.012187077 -0.049193185 -0.0257157 0.02122656

Const_5 f4 [32]
00000000: c7cf 59bd b113 19be 6503 f13d d322 b2bd
00000010: 8f4f abbd df4b ac3b a426 243d adbe fcbd
00000020: d255 77bd e69f c73d eb17 8d3c 4066 e0bd
00000030: bfd7 cdbd 0271 473e 1b47 afbd 8936 47bc
00000040: 03b5 283d dbe7 f3bd 85cf bdbd 8b69 113e
00000050: a548 19bd af43 a13d af4a 61bd 5a0d f0bd
00000060: c33e 623d 3327 c8bd 81f0 02bd ec28 c23d
00000070: c302 1a3d 6dd6 ccbd 8e1a 13be 9946 1d3e
-0.053176668 -0.14948918 0.117682256 -0.086980484 -0.08364784 0.005258068 0.040075913 -0.12341056
-0.06038458 0.09747295 0.017223319 -0.10957003 -0.10050916 0.19476703 -0.08558484 -0.012158998
0.04118825 -0.11909457 -0.09268097 0.14200418 -0.037422795 0.07874238 -0.055002864 -0.117212966
0.055235635 -0.09773102 -0.031967644 0.094804615 0.03760029 -0.10001836 -0.14365599 0.15358962

Const_6 f4 [32]
00000000: 106d 813f 145c 983f f34e 923f e0a7 8e3f
00000010: a73d 823f 90e2 a53f 63c5 913f 189e 823f
00000020: 96d6 913f 2134 903f 6399 9d3f 4e9b a83f
00000030: a821 a23f a1b2 903f 539d 903f 433a 8c3f
00000040: a38f 9c3f fda4 873f b15a 873f e0a3 983f
00000050: e356 913f fdaf 9c3f b2a1 783f e3fd 983f
00000060: 2553 9c3f e1de a53f b3c0 993f 40fa 883f
00000070: 1bcd 903f 1954 a03f f723 883f cf76 8f3f
1.0111408 1.19031 1.1430343 1.1144981 1.0175065 1.2959766 1.1388363 1.0204496
1.1393611 1.1265908 1.2312435 1.3172395 1.2666521 1.1304513 1.1298012 1.095528
1.2231334 1.0597225 1.0574552 1.1925011 1.1354641 1.2241207 0.9712173 1.195248
1.2212874 1.2958642 1.2011932 1.070137 1.1312593 1.2525665 1.0635976 1.1208133

Const_7 f4 [32]
00000000: d471 b73c de90 c33d 6933 a23d b347 d93d
00000010: 85a8 75bd 63d3 603e 16ce 813d 970a 2c3d
00000020: 3a21 953d de20 993d 903a 553e 825a 6a3e
00000030: 1dad 633e fdf0 ed3d 47fa a83d 6d6e da3d
00000040: d758 4e3e b74c 5b3d 50aa 92bb 85c9 b03d
00000050: fbef d23d 5bd1 713e 2850 5ebd 4b31 523e
00000060: dfc5 663e 7f0d 733e 12bd 5b3e 7795 343d
00000070: 6087 0b3d 7a74 f33d 9716 6d3d 7bfb be3d
0.022393145 0.095491156 0.07919962 0.10609379 -0.059975166 0.21955638 0.06338136 0.042002287
0.07281728 0.07476972 0.20823121 0.22886088 0.22234006 0.116182305 0.082508616 0.10665593
0.20151077 0.053539958 -0.0044758692 0.08632187 0.10299679 0.23615019 -0.05427566 0.20526616
0.2253642 0.23735617 0.21458843 0.044087853 0.03406465 0.118874505 0.05788287 0.0932531

MatMul f4 [32, 1536]
00000000: 73a7 31bc 7808 003a ab94 9db8 6f62 b53c
00000010: 935b 96bb 2540 993c 82fc 623d ef9e 2abd
00000020: 92c7 6b3d cf5d 093c 77d0 32bd 2d5c 60bd
00000030: cd32 023d 1394 57bd 08d0 cfbc cbda dfbc
00000040: 4e07 1e3d d015 e1b9 5b34 f03c 8093 edbc
00000050: b567 a43c 6630 3b3c d216 fcbb da45 40bc
00000060: 48fe e8bc e2d4 e9ba 33db e8bc 236e 6b3c
00000070: 2f29 133d a47e 0ebd 93c6 4ebd 1284 b83c
00000080: b04b 57bc 33ed 5b3c 3578 4fbd 7abd ef3c
00000090: 3196 143d 04a1 283d 364e ae3b cbb3 1e3d
000000a0: 6f2f 703c 564f 1dbd 43eb 41ba 0349 993c
000000b0: 1fe0 cfbc 18c3 59bc 02ec 5abc 785a e1bb
000000c0: dd6f 583d a06e 65bd 659b 15bd 2359 303d
000000d0: e116 3c3d ff77 10bd a59a 2ebd e6d0 3cbc
000000e0: 6042 173d d30d 3c3a 8300 b1bb 0228 f03c
000000f0: 518f 0e3b b5db e1bb 78ce 98bb a0b3 803c
00000100: f244 9b3c f5c6 173b e6e6 c8bc e00b cdbc
00000110: d22a 013c 2c67 8abc 0cfa b8bc 3a11 233d
00000120: a8e8 52bc b3e4 78bc a7b3 6d3c 9292 e2bc
00000130: df49 93bc aa2d df3a ae2b 21bb 658a 20bd
00000140: 928a dabb 9c9e 293c 38f5 53bb ebb2 eebc
00000150: 434a 77ba 2946 173c 5047 693c 90c3 91bb
00000160: a6b4 983a 834d 983c aa08 c7ba 278d 063d
00000170: 9bab e93c 810c 49bd f598 ebbc 133b 833c
00000180: cb1f 07bd 4666 313c f804 773c ba52 d73c
00000190: 7cd0 2bbd ffec bf3a 3575 413d fde5 60bd
000001a0: 3f40 8b3d 9c16 003d 2aa6 ec3b 45a5 1abc
000001b0: d301 323d 3a68 7dbd cc69 2abd 53d6 283c
000001c0: 09c2 1e3c ff5a 1abc 734d 783b 1b1b 053c
000001d0: f377 4b3d 4565 433d 6ff0 f6bc 7a23 50bc
000001e0: e7c7 21bc bb2e a0bc f676 babc c92d 30bc
000001f0: 1fa5 0e3d 0f8b 313c 62fe 8cbd 2b54 033c
00000200: 63d0 8ebc 58be de3c fc2b 8bbc 08ab 6f3c
00000210: 4368 983c 53e4 be3c c30c 29bc 205a 5f3c
00000220: 3a23 613b 4b61 05bd 80d4 f33c 29a6 4cbb
00000230: 1a26 213c a02f 27bb 6020 763c 6622 863c
00000240: e18e 093d 1be6 39bd 07dd dabc fe37 1abb
00000250: 87d1 f73c 80bc 56bc 5389 0fbc 84af 11bd
00000260: b64f 31bc 006c db3c e1b9 0cbd c0c2 da3c
00000270: a22a 4b3c 0b19 a33a 1a01 46bd 6504 71bc
00000280: 8224 e23c 04cb 1c3d f1a9 003d df78 19bd
00000290: b8a1 073c 88d2 903b e0d6 9a3c 8bed ba3c
000002a0: 4203 5e3c 7973 20ba 07b8 a43c 33bd 963b
000002b0: 5289 9bbc e167 c2bc fa4e d2bc 80fd cebc
000002c0: b8df db3c eaef b33c 073d b13c 544f adbc
000002d0: 22ad 033d 45ab 453d 99f6 8f3b 37dc cc3a
000002e0: eb0e cd3a 7ba9 aa3c bb05 2f3c 80fd 083b
000002f0: 3319 533b 2203 4bbc 0c2a 17bd 4226 3d3d
00000300: 0343 0a3c 83dd 27bc 3697 1d3d 7852 f53c
00000310: 70ee 63bd bdbf 8a3a 95a4 843d cb7b 81bc
00000320: ccba 343d 0986 afba afd1 8d3b 1703 e6bc
00000330: c053 e43c e259 70bd 74e2 40bd 33ef 2fbc
00000340: 6e85 1cbc 72a1 1cbd 4301 853c 4bb5 2bba
00000350: 92e3 1f3d e3fc e03c 3b09 85bc 556c 05bd
00000360: d824 053c 10cd 56bd b776 38bd f80f 593c
00000370: edf1 ca3c 85b9 ba3c 3150 26bd 0fc7 1dbb
00000380: 3243 1abc c32d d6ba 10b7 f0bb e6fb 1b3d
00000390: efa3 6c3c 7828 253c 84f9 283c d805 0d3d
000003a0: 0efb 993b e2cb c5bc 2506 a73c 7a17 d6bc
000003b0: f1e1 adbc 7624 073d d72c cabb 073e b73c
000003c0: ba4f 503d 7ce2 37bd 688b a4bb dd52 1e3c
000003d0: c2cd 713a ed08 07bd 6637 8bbc b804 373c
000003e0: 5357 d9bc 7b53 7c3c 042e 08bb 9d60 a33c
000003f0: 33fe d7bc 3707 9839 77d5 193b 2b81 28bc
-0.010843146 0.00048840744 -7.514035e-05 0.022141663 -0.004588553 0.018707344 0.05541659 -0.041655477
0.057563372 0.008384182 -0.04365584 -0.054775406 0.03178673 -0.05263145 -0.025367752 -0.027326008
0.038581185 -0.00042931596 0.02932184 -0.029000998 0.020068983 0.011425113 -0.00769315 -0.011735404
-0.028441563 -0.0017839933 -0.028424835 0.01436952 0.035927948 -0.034788743 -0.050482344 0.022523914
-0.013140604 0.013423252 -0.050651748 0.029265154 0.036276046 0.04116918 0.005319382 0.038745683
0.014659747 -0.03840574 -0.00073974225 0.018711573 -0.025375424 -0.013291143 -0.013361933 -0.00687724
0.052841056 -0.056013703 -0.03652515 0.043053757 0.045920257 -0.035270687 -0.04262795 -0.011524415
0.036928535 0.0007173691 -0.0054016723 0.029315952 0.0021752904 -0.006892646 -0.004663285 0.015710652
0.018953774 0.002315936 -0.024524163 -0.025030077 0.007883744 -0.0168949 -0.02258017 0.03981135
-0.012872852 -0.015191245 0.0145081645 -0.02765778 -0.01797956 0.0017027159 -0.0024592686 -0.039194483
-0.006669351 0.010352757 -0.0032342207 -0.02913805 -0.0009433368 0.009233036 0.014238194 -0.0044483617
0.0011650517 0.018591648 -0.0015185077 0.032849457 0.02852421 -0.04908419 -0.028759459 0.01601938
-0.032989305 0.010827607 0.015076868 0.026284564 -0.041946873 0.0014642774 0.047230918 -0.054906834
0.06799363 0.031271562 0.0072219567 -0.009438817 0.04345877 -0.061866976 -0.041604802 0.010305005
0.009689816 -0.009421109 0.003788796 0.008124138 0.04967494 0.047704 -0.030143945 -0.012703771
-0.009874321 -0.019553533 -0.022761803 -0.0107531035 0.03482544 0.010836377 -0.06884457 0.008015673
-0.01743335 0.027190372 -0.016988747 0.014628179 0.018604403 0.023302233 -0.010317984 0.013632327
0.0034353272 -0.03256349 0.029764414 -0.003122697 0.009835744 -0.0025510564 0.015022367 0.016373824
0.033583526 -0.04538546 -0.026716722 -0.002353191 0.030251278 -0.013106465 -0.008760768 -0.035567775
-0.010822227 0.026784897 -0.034356955 0.026704192 0.012400301 0.0012443376 -0.048340894 -0.01471052
0.027605299 0.03827955 0.03141207 -0.037468787 0.008278303 0.0044196285 0.018901289 0.022818347
0.013550581 -0.00061207224 0.020107282 0.004600191 -0.018986378 -0.023731174 -0.025672425 -0.025267363
0.026840076 0.021964986 0.021635545 -0.02115599 0.032147534 0.04825904 0.0043934104 0.0015629594
0.0015644705 0.020832768 0.010682519 0.002090305 0.0032211065 -0.012390884 -0.036905333 0.046179064
0.008438828 -0.010245684 0.038474284 0.02994655 -0.055647314 0.0010585707 0.06476704 -0.0158061
0.044123456 -0.0013391386 0.0043279747 -0.028077645 0.027871966 -0.05867947 -0.047090963 -0.010738182
-0.0095532965 -0.038239904 0.016235953 -0.0006550147 0.039035387 0.027464336 -0.016239753 -0.032574017
0.00812646 -0.052441657 -0.04503509 0.013248436 0.024773562 0.02279354 -0.04060382 -0.0024074947
-0.009415435 -0.0016340542 -0.0073460415 0.038082026 0.014443382 0.010080449 0.010313395 0.0344294
0.0046991175 -0.02414507 0.020388672 -0.026134241 -0.021225901 0.032993756 -0.006169896 0.022368444
0.050857283 -0.044893727 -0.0050215013 0.009663311 0.0009224081 -0.032967497 -0.01699419 0.011170559
-0.026530897 0.015400763 -0.002077938 0.01994353 -0.026366329 0.00028997075 0.0023473182 -0.010284702

MatMul_1 f4 [32, 32]
00000000: 1a79 3f3d 42ba ef3d 4655 aa3d 16c1 863d
00000010: 7b95 d6bd 0879 d6bd bf44 fdbb 6f0f c83d
00000020: 0f73 4cbd 8bc3 023c 169b bcbc 625b 1abe
00000030: 00b7 cebd cfe2 69bd cb1b c93d 9378 0f3d
00000040: 8cfe 0fbe 30ea c4bd 21ab b43d cc99 9a3d
00000050: 5a06 a63d dd78 b7bd da59 e03d 5834 25be
00000060: 00d0 033d cd0d 103d 2fd8 c43d dedd b7bc
00000070: cb6a 9a3d 0f1a 273e cf43 6f3e 9220 9dbd
00000080: 6a31 d73d 9936 09be 83a7 4f3e 1e59 9e3d
00000090: f03b 443d 601f d8bd 6cbc 2a3e 1b0e 813e
000000a0: 4ab3 e5bc 9698 2c3e 2da3 51be 876b 073e
000000b0: bff8 bebd 132d 23be 4337 f93d c585 453e
000000c0: 9955 98bd 173b 933d 3d8f 973d 21c3 82bd
000000d0: 874d a83d 24db 933e 13c7 803e 0327 64bd
000000e0: ff75 9d3d 9fd5 ad3d 082a 1fbd 4c81 b23d
000000f0: 6481 ae3c fc33 90bd 6d82 7b3e 3629 243e
00000100: ce1e 02bd cdf1 04be d8a7 ab3d 6bb8 2ebd
00000110: 4d2f ebbc b375 ba3d f799 893d 03c8 e5bd
00000120: f73f 76bb 4b59 3b3e 3f50 a83b d08b fe3c
00000130: f714 bebd 5d41 1bbe 4dd5 4b3b cffa 823d
00000140: 3d46 2abe 2308 a23c 4cd1 213e c15b 103e
00000150: 55a5 f43d c60a 273e 3df0 513d eb70 00bd
00000160: 7710 433e 4df8 cf3d 0e2b 813e 41d0 82bd
00000170: 2811 f13d af81 c23c 3b89 5d3e a5fe af3d
00000180: 2605 98bc 4d3b 43bd 4aa2 803d 44b6 0f3e
00000190: 809a 433e 5757 223e a7dd da3c cfb0 6a3e
000001a0: 4a34 d3bd d370 323c 98ca 58bd 7b34 6e3e
000001b0: b901 333d 9c90 073d b044 e33d b169 803e
000001c0: 0fb2 8bbd 5829 7f3e b6b0 3b3e dabf 9c3d
000001d0: 2e8e a3bc c888 693d 33f9 db3d 5ab1 f9bd
000001e0: 0f3e f63d f113 223e 775b 94bd e882 033e
000001f0: 879b 7dbd 734f 173c 7a4d 6e3e 62c3 7f3c
00000200: dcac 1f3d 0eb1 b83d 525a f13d 9b31 473d
00000210: 20bf 163e f73f 16be ab13 a2bd edaf 1d3e
00000220: 9c11 8e3d 771c 1d3e 72e1 b7bc b5fd 5fbd
00000230: 2bab e23d 8828 da3c 9d34 40bd 639b ddbd
00000240: ed3a 293c 424b fd3d 8e34 28bd e5ab c03d
00000250: 48ed 84bd c75b 0d3d f295 313e 0704 c2bd
00000260: 8ee3 2bbd cf19 2d3e 4a25 1fbd ce19 863d
00000270: 794c 34be fbf5 273d 610a 2a3e 3cc1 cabd
00000280: dad9 e83d 3c9d 1a3e c5d5 40be f9bc b3bd
00000290: 7127 433d 8541 3ebd e8db e9bd b9b7 8dbe
000002a0: 3a99 2ebe e1cc 1e3d 15dd dbbb b620 14be
000002b0: 9d64 0e3e db72 d1bd 893e 35be e237 fabd
000002c0: f232 0c3e fbd2 33bd 4274 debd f7b3 053e
000002d0: babf ffbc fa81 7dbe e0b9 403d df15 953d
000002e0: ff90 4ebe 0201 60bd 718f 8fbd 2d9d f63c
000002f0: 20cb 8a3d a160 93bd 87c1 51be ca56 f93d
00000300: d6bd 093d bec6 49bd f83e b03d 67b7 4f3d
00000310: 7259 09be 74f7 c1bb 6df9 58bd 4dac e83b
00000320: 88f8 39bd 34ae 873c 96b9 98bd af3b 163e
00000330: 4bee 23be 1637 08bd 5734 de3d df59 303e
00000340: bbc3 0f3d d020 a7bd 43d3 41bd 1172 263e
00000350: 4f2d a2bd cd52 413e b3c0 6dbc eaf7 e2bd
00000360: bf4c 2c3e 406f 1bbd 4886 223e a3c7 e0bd
00000370: 4cbd 003d 0894 9bbd 8065 98bd bb8b ad3d
00000380: 53c3 82bc 8351 c43d 1b2b 053e 87b1 dc3d
00000390: a561 73bc 5dba 393d 4792 c73c 5512 283d
000003a0: 99f3 873d 6033 023e 87ac 53bd b2a2 aa3d
000003b0: 7da3 11be 7c56 b23d 465d 9fbc cd92 373e
000003c0: fa25 7b3d 9b7d 733d ff75 d53d 5878 cdbd
000003d0: d87b 9fbd 7bf5 183e b074 df3d f2f3 cdbd
000003e0: 0f16 6ebd 23e6 4a3d 5eb6 8e3d 77e6 aa3d
000003f0: 1711 93bd 7b1f c2bd 881a f53d 5627 00be
0.04674635 0.11705448 0.08317046 0.06579797 -0.1047773 -0.10472304 -0.0077291424 0.09768569
-0.049914416 0.007981191 -0.02302317 -0.15073922 -0.10093498 -0.057101067 0.09819754 0.035027098
-0.14061946 -0.0961498 0.08821703 0.07548866 0.0810668 -0.089586 0.10954638 -0.16133249
0.032180786 0.03516941 0.09611546 -0.022444662 0.075399004 0.16318534 0.2336571 -0.07672228
0.10507472 -0.13399734 0.20278744 0.077318415 0.047908723 -0.10552859 0.1667344 0.25206074
-0.028039593 0.16855082 -0.20472403 0.13224612 -0.09324788 -0.15935163 0.121687435 0.1928931
-0.074382015 0.07189005 0.074003674 -0.06384874 0.08217912 0.2887813 0.25151882 -0.055701267
0.076885216 0.084880106 -0.038858443 0.08716068 0.021301933 -0.07041165 0.24561472 0.16031346
-0.03176766 -0.12982865 0.08381623 -0.042656343 -0.028709078 0.091044806 0.067188196 -0.1121979
-0.0037574747 0.18295781 0.005136519 0.031072527 -0.092813425 -0.15161653 0.003110248 0.06395494
-0.16628356 0.01977927 0.15802497 0.14097501 0.11945597 0.16312703 0.0512545 -0.031357687
0.1904925 0.101547815 0.2522816 -0.063873775 0.117708504 0.023743479 0.2163438 0.085934915
-0.018557142 -0.047663976 0.06280954 0.14034373 0.19101906 0.1585363 0.02671702 0.2291901
-0.10312708 0.010891157 -0.052927583 0.23262207 0.043702815 0.033096895 0.110970855 0.25080636
-0.06821071 0.24918115 0.18329129 0.0765378 -0.019965257 0.05701521 0.1074089 -0.1219203
0.120235555 0.1582792 -0.07244008 0.12842906 -0.0619159 0.009235251 0.23271742 0.015610548
0.03898321 0.090181455 0.11784805 0.04863129 0.14721346 -0.14672838 -0.079139076 0.15399142
0.069369525 0.1534289 -0.022446368 -0.054685313 0.11067804 0.026630655 -0.046925176 -0.10820653
0.01032899 0.1236787 -0.041065745 0.09407786 -0.0649057 0.034511354 0.17342356 -0.094734244
-0.04196506 0.16904376 -0.03885392 0.065478906 -0.17607297 0.04100607 0.16605522 -0.09900138
0.11369677 0.15099043 -0.18831547 -0.08776278 0.047645036 -0.046449203 -0.11418897 -0.27679232
-0.17050639 0.038769607 -0.0067097046 -0.14465603 0.13905568 -0.10226985 -0.17699637 -0.1221769
0.13691309 -0.04390238 -0.10862018 0.13056932 -0.031219352 -0.24756613 0.047052264 0.07279562
-0.20172499 -0.05468846 -0.07009781 0.030104244 0.06777024 -0.07196165 -0.20483981 0.12174757
0.033628307 -0.0492618 0.0860576 0.050712015 -0.13413027 -0.0059193913 -0.052972246 0.007100618
-0.045403033 0.016562559 -0.07457273 0.14671205 -0.1600887 -0.03325566 0.10849827 0.17221783
0.035098772 -0.08160555 -0.047320616 0.1625445 -0.07918798 0.18879242 -0.014511275 -0.11082442
0.16826151 -0.037947893 0.15871537 -0.10975578 0.031430528 -0.07596594 -0.074412346 0.08473917
-0.015962278 0.095858596 0.13004725 0.10776048 -0.014854823 0.045343745 0.024361743 0.041033108
0.066382594 0.1271491 -0.051678207 0.08331813 -0.14222522 0.08707902 -0.019453656 0.17927094
0.061315514 0.05944596 0.104228966 -0.100327194 -0.07787293 0.14937393 0.10910928 -0.100562945
-0.058126505 0.04953588 0.069683775 0.08344739 -0.07180994 -0.09478661 0.11967951 -0.12515005

MatMul_2 f4 [1, 32]
00000000: cbf1 393d 78e2 b73e ab97 563e 6b90 fb3d
00000010: 5c6d c33d 8809 debe 87ea 143e 881f 543d
00000020: b345 193e 525c 1b3e b773 c5be 9972 b9be
00000030: 5f68 cabe 4bd5 4c3e e8aa 6a3e 5b92 093e
00000040: 8783 c0be df6a 943d c760 da3d 27bd 5d3e
00000050: 2b03 853e 4748 8fbe 32a8 7ebb 45b1 92be
00000060: 6aa5 adbe 2cb1 bbbe a3ea 95be cbd6 703d
00000070: 7246 0b3e 8fc8 713e bfa0 0b3e d790 943e
0.045396607 0.3591497 0.20956294 0.12283405 0.09542343 -0.43366647 0.1454259 0.051787883
0.14967994 0.15171936 -0.38564846 -0.36220244 -0.39532754 0.2000324 0.22916758 0.13434736
-0.37600347 0.072469465 0.1066299 0.21654187 0.2597898 -0.2798483 -0.0038857576 -0.2865087
-0.33915263 -0.3665861 -0.29280576 0.058798593 0.13601092 0.23611663 0.13635539 0.29016754
